10_PyTorch_RNN_and_LSTM/LSTM/lightning_logs/version_3/checkpoints/epoch=1000-step=2002.ckpt (torch, 7020 bytes, 12 tensors)

lstm.weight_ih_l0 f4 [4, 1]
00000000: c93e 7dbe 884a 08c0 29a9 c03f fb4c 653f
-0.24730982 -2.129549 1.5051624 0.8957059

lstm.weight_hh_l0 f4 [4, 1]
00000000: 353a 2abf 9929 57bf b46a 2fbe b0b8 59be
-0.66495067 -0.8404785 -0.17130548 -0.21261859

lstm.bias_ih_l0 f4 [4]
00000000: 9f4e 993f 141f abbf 94b3 d23e b1c3 0abf
1.1977118 -1.3368859 0.41152632 -0.5420485

lstm.bias_hh_l0 f4 [4]
00000000: f6ba 8c3f 6d9e a5be aeaa da3e e033 333f
1.0994556 -0.32347432 0.42708343 0.7000103

exp_avg f4 [4, 1]
00000000: f14d 1dbb c443 56b9 b749 2fba 1398 ebbb
-0.0024002756 -0.00020433875 -0.00066867046 -0.0071897595

exp_avg_sq f4 [4, 1]
00000000: fbd1 103b 561c 3239 b129 bd39 a264 803c
0.0022097814 0.00016985959 0.00036079952 0.015672985

exp_avg f4 [4, 1]
00000000: 6b59 58ba ff03 84b8 921b 3ab9 8437 22bb
-0.00082530704 -6.294995e-05 -0.00017748613 -0.0024752328

exp_avg_sq f4 [4, 1]
00000000: 1fff a839 463a 0f38 baf4 0738 afa1 013b
0.00032233537 3.4148128e-05 3.2414428e-05 0.0019780209

exp_avg f4 [4]
00000000: d339 19bb c987 30b9 0a38 eeb9 6d5c ddbb
-0.0023380413 -0.00016835252 -0.0004543665 -0.006755403

exp_avg_sq f4 [4]
00000000: d94a 0f3b 95a5 4c39 9e3b e439 3c64 643c
0.002186468 0.0001951664 0.00043531967 0.013939913

exp_avg f4 [4]
00000000: d339 19bb c987 30b9 0a38 eeb9 6d5c ddbb
-0.0023380413 -0.00016835252 -0.0004543665 -0.006755403

exp_avg_sq f4 [4]
00000000: d94a 0f3b 95a5 4c39 9e3b e439 3c64 643c
0.002186468 0.0001951664 0.00043531967 0.013939913
