06_PyTorch_Going_Modular/models/05_going_modular_script_mode_tinyvgg_model.pth (torch, 103650 bytes, 10 tensors)

convBlock1.0.weight f4 [16, 3, 3, 3]
-0.23129278 -0.14148079 0.14168896 -0.020196807 -0.1621458 0.11227701 0.121754274 -0.21470901
-0.018491207 -0.1326668 0.08587145 0.0590737 0.04084048 -0.15725267 0.12021593 -0.20332338
0.11286249 -0.14994013 0.0018786786 -0.22530302 0.008956985 -0.035744794 -0.107913494 -0.13456158
-0.093330465 0.10112729 0.12473082 0.10657451 0.060856156 0.07362782 -0.039476894 -0.16444315
-0.07314554 0.16311182 -0.13219981 -0.061003547 0.14847273 0.09349934 0.046859156 0.076276116
-0.04666058 -0.14330213 0.1167209 -0.03948704 0.1745294 -0.031711806 0.22303776 0.0011973327
-0.010504491 0.14582117 0.18382864 0.03473549 0.20904069 -0.0123554235 0.020567682 0.18314765
-0.047031336 0.118057154 -0.035299323 -0.04985845 0.1591181 -0.0628896 0.14015275 0.11634874
0.02103241 -0.11182047 -0.14806855 -0.09151064 0.15602767 -0.15364663 -0.12309831 0.18068151
0.065444686 -0.067101754 -0.1733973 0.15950502 0.11625688 0.1906425 -0.052430976 0.17753853
0.068924636 0.11246029 -0.044353634 0.19870062 0.0049867206 -0.034153882 0.20398526 0.21497117
0.11376946 -0.06990731 0.055530813 -0.08610459 -0.038488965 0.20854615 -0.05538638 -0.10456826
-0.15264866 -0.10015295 0.021123918 -0.09705301 0.07301402 0.18531723 0.088370346 0.19579051
-0.016643105 -0.005617923 -0.045575976 -0.14841413 -0.13524158 -0.012538861 -0.113236144 -0.084379666
-0.059221502 -0.10321322 -0.10012982 -0.035952758 0.04816013 -0.05085727 0.11138409 0.053357076
0.1965873 0.19133633 -0.10654561 0.16782893 0.11639551 0.07534831 -0.13443871 -0.058526512
-0.003652117 -0.03565217 0.12301847 0.080550164 -0.14713517 -0.0154150585 0.11037489 0.17938572
0.04524378 -0.0015040257 0.07919293 0.14323667 0.15864684 0.048682317 -0.033370484 0.047027018
-0.11109327 0.1861085 -0.106241785 -0.15425295 0.04291859 -0.012327991 0.16703478 -0.1661496
-0.16319007 -0.19886881 0.14673321 -0.15997106 -0.19868788 -0.102650076 -0.0056488295 0.12674679
-0.09076988 0.158068 -0.021785233 0.05312505 0.19840564 0.09599248 0.11949048 0.04071393
0.09375345 0.10759441 -0.004630476 -0.09482883 0.17428394 0.07182402 0.11568477 0.051140398
0.11583118 0.0704878 0.06688814 -0.059417643 -0.13083898 0.14683203 0.17503841 -0.19150399
0.009062115 -0.11420499 -0.024344785 -0.07943679 -0.094006605 0.013004167 0.005586189 0.025732806
-0.030709472 0.051172294 0.00019638443 -0.14474855 -0.12634006 0.0061111925 0.0037571292 0.082295336
-0.0151407095 0.08770575 -0.17288546 0.038738284 -0.16524829 -0.13128164 -0.06578673 0.010894452
0.086659074 0.099535204 0.15211847 -0.046658926 -0.058527853 -0.07919461 0.19414486 -0.089041606
0.10004525 0.15075676 0.159488 -0.078145 0.015781274 0.010250597 0.13877442 0.16147912
-0.1697111 0.13427553 0.07405297 0.0043767258 -0.13606074 -0.14956261 0.030257653 -0.13272658
-0.06737133 0.095014066 -0.123263545 0.16986729 0.048756175 0.12756568 -0.12788746 0.02308444
0.1621572 -0.065589815 0.11890452 -0.058132727 -0.21081473 0.13985752 -0.066176064 -0.119320974
0.088826284 -0.045415815 0.089653045 -0.036582623 -0.19000174 0.018853392 0.13300078 0.12060737
00000000: 04d8 6cbe 57e0 10be e916 113e c673 a5bc
00000010: 8c09 26be 7df1 e53d 4e5a f93d aedc 5bbe
00000020: df7a 97bc ced9 07be 5fdd af3d 44f7 713d
00000030: 5948 273d d806 21be c533 f63d 0134 50be
00000040: 7324 e73d e889 19be fe3d f63a d6b5 66be
00000050: 51c0 123c 2269 12bd c001 ddbd 83ca 09be
00000060: 0b24 bfbd d31b cf3d df72 ff3d bd43 da3d
00000070: 4e44 793d 2fca 963d 86b2 21bd c963 28be
00000080: 54cd 95bd c906 273e 635f 07be dbde 79bd
00000090: 3c09 183e 957c bf3d 63ef 3f3d a736 9c3d
000000a0: 2a1f 3fbd cbbd 12be 5e0b ef3d 2abd 21bd
000000b0: d6b7 323e 3de4 01bd 0364 643e d2ef 9c3a
000000c0: 071b 2cbc 2552 153e 933d 3c3e cd46 0e3d
000000d0: c30e 563e 676e 4abc 8e7d a83c 0f8b 3b3e
000000e0: eea3 40bd f3c7 f13d 0696 10bd 6038 4cbd
000000f0: dbef 223e 43cc 80bd 3484 0f3e 4048 ee3d
00000100: 294c ac3c 2102 e5bd 489f 17be ee69 bbbd
00000110: b8c5 1f3e 8b55 1dbe f71a fcbd 9304 393e
00000120: dd07 863d a56c 89bd 108f 31be 4955 233e
00000130: 1618 ee3d ca37 433e ddc1 56bd a9cc 353e
00000140: 5c28 8d3d 9551 e63d 28ac 35bd 2d78 4b3e
00000150: a567 a33b f1e4 0bbd 83e1 503e 6721 5c3e
00000160: f6ff e83d 902b 8fbd 4774 633d 9a57 b0bd
00000170: 9ba6 1dbd 1f8d 553e d4dc 62bd e227 d6bd
00000180: ee4f 1cbe fd1c cdbd 110c ad3c bac3 c6bd
00000190: 6088 953d cdc3 3d3e 83fb b43d 4f7d 483e
000001a0: 1f57 88bc 8e16 b8bb e0ad 3abd e0f9 17be
000001b0: c57c 0abe cb6f 4dbc 5ae8 e7bd 3fcf acbd
000001c0: 3f92 72bd 7461 d3bd dd10 cdbd 3343 13bd
000001d0: 8e43 453d b64f 50bd 571d e43d f38c 5a3d
000001e0: 2e4e 493e aced 433e 9634 dabd 59db 2b3e
000001f0: c560 ee3d 3750 9a3d 4daa 09be 7fb9 6fbd
00000200: 5b58 6fbb 0308 12bd 1cf1 fb3d 7cf7 a43d
00000210: 9aaa 16be 718f 7cbc 3b0c e23d e4b0 373e
00000220: 8b51 393d ba22 c5ba e72f a23d a2ac 123e
00000230: 5174 223e 1c67 473d 7daf 08bd 679f 403d
00000240: de84 e3bd 3a93 3e3e 4b95 d9bd 7cf4 1dbe
00000250: 67cb 2f3d 58fb 49bc 2a0b 2b3e 1f23 2abe
00000260: 4c1b 27be 44a4 4bbe 3b41 163e 74cf 23be
00000270: d674 4bbe 343a d2bd d119 b9bb e9c9 013e
00000280: 8fe5 b9bd 94dc 213e f276 b2bc a799 593d
00000290: d92a 4b3e b597 c43d 6db7 f43d a6c3 263d
000002a0: cf01 c03d 755a dc3d 3fbb 97bb 9e35 c2bd
000002b0: 7d77 323e 7918 933d 23ec ec3d 9878 513d
000002c0: e638 ed3d e85b 903d a6fc 883d ea5f 73bd
000002d0: a7fa 05be 235b 163e 453d 333e 9f19 44be
000002e0: 4479 143c 4ee4 e9bd b76e c7bc c1af a2bd
000002f0: 8986 c0bd 6e0f 553c 5a0c b73b 9bcd d23c
00000300: 6e92 fbbc 0a9a 513d 8bec 4d39 f738 14be
00000310: 4a5f 01be 6640 c83b 2b3a 763b 758a a83d
00000320: bd10 78bc 129f b33d e308 31be 09ac 1e3d
00000330: d936 29be b26e 06be 31bb 86bd a57e 323c
00000340: 507a b13d 1dd9 cb3d f2c4 1b3e 6e1d 3fbd
00000350: e7ba 6fbd c930 a2bd e9cd 463e 725b b6bd
00000360: 86e4 cc3d fb5f 1a3e d350 233e 7c0a a0bd
00000370: bb47 813c 1ff2 273c e21a 0e3e c85a 253e
00000380: bfc8 2dbe 867f 093e 15a9 973d a36a 8f3b
00000390: 8253 0bbe f126 19be e6de f73c 7ae9 07be
000003a0: fbf9 89bd bc96 c23d 9971 fcbd b1f1 2d3e
000003b0: 8eb4 473d 94a0 023e eef4 02be 941b bd3c
000003c0: 890c 263e f453 86bd 3784 f33d 951c 6ebd
000003d0: d1df 57be cf36 0f3e 5187 87bd 8e5e f4bd
000003e0: 8eea b53d ef05 3abd 049c b73d a9d7 15bd
000003f0: d18f 42be 6e72 9a3c 5b31 083e ff00 f73d

convBlock1.0.bias f4 [16]
-0.11611067 -0.11929676 -0.09917261 -0.16113448 0.17651027 0.010019652 0.043789133 0.2287095
-0.122581996 0.042299952 -0.03873302 -0.010794846 -0.072561376 -0.022905432 0.079826616 0.07503752
00000000: 6ecb edbd dc51 f4bd 021b cbbd 7000 25be
00000010: 1cbf 343e 7729 243c 3c5c 333d d332 6a3e
00000020: 450c fbbd b742 2d3d 84a6 1ebd dedc 30bc
00000030: 0f9b 94bd 2ca4 bbbc 237c a33d 45ad 993d

convBlock1.2.weight f4 [16, 16, 3, 3]
-0.012889677 -0.11387445 -0.10852203 -0.0022266093 -0.11279577 -0.06163299 0.0075090798 -0.081999086
-0.06269609 -0.043890744 -0.021849563 0.041103236 -0.0029637492 0.0824263 -0.007989295 0.043342207
0.0181807 0.036125217 -0.057437938 0.00040909305 -0.06434259 0.023054898 -0.031880282 0.04778519
0.034525428 -0.053565122 -0.07586674 0.022119604 0.05839448 -0.038940545 -0.10457039 0.058312234
0.033006378 0.039215855 0.027063802 -0.091775484 0.05887357 0.10084475 0.079339445 0.11379824
0.04605698 -0.027280267 0.06979769 -0.047254022 0.017299838 -0.03375071 -0.09272379 -0.11873605
-0.025963327 -0.09776274 -0.095713615 -0.07739249 -0.015044761 -0.020537945 -0.012877968 0.012996974
-0.012095961 0.047268875 -0.01746018 -0.05799349 -0.08456232 0.03008304 -0.10452584 0.032002106
-0.0012951621 0.12839924 0.031272747 0.09142566 0.12647593 0.0017136534 0.05491214 0.11589813
0.032103345 -0.03249493 -0.02067224 0.020814817 0.049761515 -0.050689984 -0.033905335 0.036390103
-0.08567193 -0.04049126 -0.0018760903 -0.0048752083 0.041029513 -0.028712325 -0.028365118 0.064784355
0.06460334 0.076446295 0.062125206 -0.037774943 -0.027480267 0.07375285 0.046707653 0.08803773
0.08723235 0.031726453 -0.048196927 -0.105806366 0.003994586 -0.052361052 -0.058007553 0.0017521173
-0.019472439 -0.01649987 -0.08873612 -0.07408885 -0.05101516 -0.11098028 -0.022516724 0.08197338
-0.046108395 -0.063812345 0.00037597198 -0.029213559 -0.018747227 -0.04277796 0.08596004 0.0330428
-0.013010795 0.08450076 0.016165115 -0.03858141 -0.00041920622 0.0054377676 -0.10955497 -0.0808485
-0.14361258 -0.1100039 -0.05875411 -0.08609721 -0.012316518 0.02860136 -0.05443351 -0.08391755
0.030437296 -0.06188018 -0.037168045 -0.049024 -0.07261783 0.031143272 0.04864881 -0.05822326
-0.025911592 0.082546405 0.061187904 0.089980915 0.03381525 0.065919824 0.08731863 0.10147913
-0.09023179 0.0018853571 0.06740415 0.08185402 0.079629585 -0.05781605 0.059469074 -0.019249149
-0.04931089 0.016773485 -0.050402287 0.092938155 0.014640545 0.084877454 0.014272023 -0.04022029
-0.03994594 -0.021682866 -0.06926183 -0.00552869 0.128876 0.03955039 -0.01776771 0.040181607
0.08913416 -0.005973649 0.014547371 -0.0022600093 -0.08254504 -0.07889026 -0.063995965 -0.13487804
-0.08429228 -0.0026815718 -0.076637946 -0.030218309 -0.031240137 0.048607204 -0.056381986 -0.00593697
-0.032185122 0.022801777 -0.045494277 0.019444441 0.021324681 0.072312266 0.043400794 0.018511824
0.09661066 0.08280592 0.08616277 0.0028227647 -0.04436465 0.029357575 0.03750889 -0.10388451
-0.08979284 0.009710501 -0.08100436 -0.049046807 -0.06458758 -0.0031370446 0.033350907 -0.007734012
0.06838264 0.0051059932 -0.0149491 -0.018298969 0.095021844 -0.024603294 0.02868697 -0.0032789796
0.037680376 0.044119827 0.07146552 -0.052698985 0.04742128 0.044985317 -0.0031475856 -0.023046847
-0.04426186 -0.098133765 -0.044651248 0.016963754 -0.0146578085 -0.07314671 0.05990454 -0.054413807
0.00024235906 -0.048068665 -0.096138455 0.005063065 -0.051444042 0.035839092 -0.00034898557 0.02096276
0.044389497 -0.04073293 0.020651724 0.039672334 -0.060960665 0.047723867 -0.020345861 -0.07139888
00000000: 392f 53bc 0237 e9bd cc40 debd 4eec 11bb
00000010: 7801 e7bd e072 7cbd ba0e f63b 23ef a7bd
00000020: cf66 80bd c8c6 33bd dbfd b2bc de5b 283d
00000030: 763b 42bb 1fcf a83d 88e5 02bc 9987 313d
00000040: b1ef 943c 09f8 133d 0b44 6bbd 8a7b d639
00000050: 0cc6 83bd a0dd bc3c e694 02bd 67ba 433d
00000060: 896a 0d3d 1a67 5bbd 0560 9bbd 2c34 b53c
00000070: 0d2f 6f3d 1f80 1fbd 0029 d6bd cfd8 6e3d
00000080: b231 073d cea0 203d e8b4 dd3c c9f4 bbbd
00000090: 6a25 713d b187 ce3d b87c a23d 0d0f e93d
000000a0: 3ea6 3c3d de7a dfbc 17f2 8e3d 6f8d 41bd
000000b0: 64b8 8d3c 2f3e 0abd f8e5 bdbd e32b f3bd
000000c0: 0bb1 d4bc d537 c8bd 8005 c4bd f47f 9ebd
000000d0: 4d7e 76bc 313f a8bc 1dfe 52bc 43f1 543c
000000e0: 232e 46bc 029d 413d a708 8fbc 958a 6dbd
000000f0: 022f adbd b570 f63c a511 d6bd a414 033d
00000100: 6ec2 a9ba 177b 033e da17 003d 603d bb3d
00000110: e882 013e ab9c e03a 8deb 603d 005c ed3d
00000120: cc7e 033d 6719 05bd d458 a9bc d683 aa3c
00000130: bbd2 4b3d 4da0 4fbd 52e0 0abd ca0d 153d
00000140: c474 afbd 2ada 25bd 25e7 f5ba 36c0 9fbb
00000150: 900e 283d 1c36 ebbc f75d e8bc a9ad 843d
00000160: c24e 843d e08f 9c3d 0077 7e3d e6b9 1abd
00000170: 4c1e e1bc bc0b 973d 8650 3f3d 204d b43d
00000180: e0a6 b23d 99f3 013d 246a 45bd 02b1 d8bd
00000190: 04e5 823b 8b78 56bd 5499 6dbd 4da7 e53a
000001a0: aa84 9fbc bc2a 87bc 48bb b5bd e5bb 97bd
000001b0: 46f5 50bd a149 e3bd fe74 b8bc a9e1 a73d
000001c0: 28dc 3cbd 0cb0 82bd 1b1e c539 4651 efbc
000001d0: c993 99bc f137 2fbd d10b b03d e357 073d
000001e0: 3b2b 55bc bc0e ad3d b46c 843c 8a07 1ebd
000001f0: e8c8 dbb9 4d2f b23b 5b5e e0bd e693 a5bd
00000200: 2d0f 13be ba49 e1bd 26a8 70bd bc53 b0bd
00000210: 39cb 49bc 664d ea3c acf5 5ebd f7dc abbd
00000220: a357 f93c 1276 7dbd 853d 18bd 64cd 48bd
00000230: a8b8 94bd 2d20 ff3c f943 473d 837b 6ebd
00000240: 8c44 d4bc 170e a93d 2ba0 7a3d ea47 b83d
00000250: dc81 0a3d f900 873d 1cd4 b23d 4ad4 cf3d
00000260: 72cb b8bd 161e f73a 300b 8a3d 15a3 a73d
00000270: d614 a33d 86d0 6cbd d895 733d 64b0 9dbc
00000280: 37fa 49bd 8c68 893c a172 4ebd 5c56 be3d
00000290: e5de 6f3c 3bd4 ad3d 34d5 693c 08be 24bd
000002a0: 5b9e 23bd 44a0 b1bc 25d9 8dbd 032a b5bb
000002b0: 12f8 033e 97ff 213d 978d 91bc 7895 243d
000002c0: f88b b63d 9abe c3bb 1958 6e3c aa1c 14bb
000002d0: 600d a9bd 3791 a1bd 5110 83bd 781d 0abe
000002e0: 6ea1 acbd 4fbd 2fbb 5bf4 9cbd 638c f7bc
000002f0: 51eb ffbc 5918 473d ccf0 66bd ea8a c2bb
00000300: 8cd4 03bd cbca ba3c 3558 3abd f349 9f3c
00000310: 19b1 ae3c 7418 943d 08c5 313d 1ca6 973c
00000320: cfdb c53d 2696 a93d 1b76 b03d 22fe 383b
00000330: b5b7 35bd 4c7f f03c eca2 193d 67c1 d4bd
00000340: 4fe5 b7bd cb18 1f3c 9de5 a5bd 4ee5 48bd
00000350: 7e46 84bd e096 4dbb f69a 083d 986d fdbb
00000360: 330c 8c3d 2d50 a73b 12ed 74bc b8e7 95bc
00000370: d09a c23d d98c c9bc f000 eb3c 26e4 56bb
00000380: bd56 1a3d feb6 343d 845c 923d e4da 57bd
00000390: d13c 423d 8642 383d b947 4ebb becc bcbc
000003a0: ed4b 35bd 5bfa c8bd 3ae4 36bd 92f7 8a3c
000003b0: 4e27 70bc f1cd 95bd 775e 753d 03e1 5ebd
000003c0: c421 7e39 a6e3 44bd 3de4 c4bd 11e8 a53b
000003d0: fdb6 52bd 03cc 123d 0df8 b6b9 18ba ab3c
000003e0: c3d1 353d 93d7 26bd ce2d a93c 757f 223d
000003f0: e4b1 79bd 1a7a 433d 5dac a6bc 9339 92bd

convBlock1.2.bias f4 [16]
0.013287279 -0.01877321 0.02349003 -0.047101784 0.13011013 -0.0836914 0.005238677 0.022793109
0.020284805 0.120398305 0.0026828658 -0.082565725 -0.023791099 0.116405584 -0.06254688 0.051169008
00000000: e3b2 593c 46ca 99bc 2a6e c03c cded 40bd
00000010: 973b 053e 6666 abbd 35a9 ab3b 9db8 ba3c
00000020: 522c a63c 6393 f63d 05d3 2f3b 3818 a9bd
00000030: 8de5 c2bc 0d66 ee3d 9418 80bd 9896 513d

convBlock2.0.weight f4 [16, 16, 3, 3]
0.075296275 0.08464589 0.05582936 0.089718476 0.058229018 0.062547155 0.18316849 -0.005357842
0.05736419 -0.011191044 0.12025096 0.09719582 0.015975308 -0.009507145 -0.094717674 -0.09350614
-0.107317485 -0.0485012 0.089139394 -0.006856324 0.05653932 0.013743105 -0.04563022 -0.09679276
0.0427121 -0.045357484 -0.009122873 -0.0030044096 -0.044056635 -0.049163107 0.0487734 -0.046889644
-0.049087103 0.06840457 0.0779915 -0.042914644 -0.15466416 -0.06934612 0.076680504 -0.051878676
0.09750541 0.028868541 -0.064705536 0.11515206 0.105292656 -0.06531868 -0.03085381 0.03970475
0.06489368 -0.08245701 -0.018930877 -0.062081747 0.07549883 -0.034819722 0.08192685 0.0044403602
-0.038822845 0.003148592 -0.03597505 0.021794444 0.009323803 -0.15167806 -0.052856334 -0.004201806
0.035745643 0.06669219 -0.0061269016 0.046223644 -0.07762478 0.022693988 -0.03600151 -0.04247462
0.045401193 0.011692227 0.03370943 0.036464054 -0.037706435 0.019344581 -0.0070900344 -0.074911
-0.06812237 -0.06470401 -0.04447978 -0.035071403 0.084517665 0.011396905 0.1469607 -0.026196133
0.115646645 0.11936535 0.024465967 0.02560679 0.09141452 0.1354988 0.023844298 -0.111154824
0.06353605 0.03779499 -0.056192685 0.04266771 0.032063484 -0.06090519 0.06794079 0.015807668
-0.0032487353 0.07607141 0.030727385 0.060826574 0.0706505 -0.05129346 -0.025005763 -0.0380084
-0.025763215 -0.03893625 0.0909582 0.004229131 -0.076250516 -0.014802602 -0.04796806 0.071315534
0.072559685 0.097421125 0.06913909 -0.022470586 0.11323012 0.15293814 0.12640701 0.07947166
-0.002562468 0.007338951 -0.07233069 0.013960552 -0.052122753 -0.146083 -0.026249014 -0.09831342
-0.031666346 0.08613638 -0.0668637 0.08756037 0.16594641 -0.058429636 0.0051938663 0.15482911
0.107455395 0.038897414 0.014768177 0.0146666635 0.1188048 0.007834292 0.032983024 -0.10069472
-0.07840257 0.03117728 -0.037723776 0.03660385 0.002411704 -0.10797109 -0.07834655 0.021024412
-0.0641185 -0.08868872 -0.052395757 0.03952751 0.055534538 0.04324393 -0.056877773 -0.044593297
0.07196756 -0.0182816 0.034890093 0.04370952 -0.027397648 -0.0032613976 5.609186e-06 0.066488
-0.044421885 -0.05184153 -0.02289873 -0.006278851 -0.053724647 0.09318931 0.06467898 -0.036238734
0.09779083 0.1301633 0.07082476 0.095518395 0.009755957 0.045503683 0.011528357 0.03673807
0.04464177 -0.05276162 -0.050095927 -0.03785901 -0.060104903 0.066838495 -0.009784933 0.052649938
0.058096606 -0.018579662 -0.11969234 0.0006615316 -0.057779245 -0.07691312 -0.059671253 0.027273627
0.078134485 0.11728613 0.08395544 -0.040361583 0.0050138626 -0.0943682 -0.10757085 -0.04106981
0.0137659665 -0.0006038556 0.014514052 -0.03399085 -0.111041285 -0.096147805 -0.07786847 -0.1193004
0.0071140467 -0.0636279 0.061268207 -0.055206034 -0.020594133 0.02637506 0.011761461 0.09066052
0.14358966 0.019045593 0.024923768 0.011988668 0.04477465 -0.0052800933 0.062900245 0.013634173
0.0634045 -0.067584105 -0.022122012 -0.07518092 0.04922803 -0.0007794496 -0.06160503 0.003788849
-0.038403153 0.0012192694 0.04299115 -0.023770826 0.006281298 -0.104480095 0.044981197 -0.11502656
00000000: ef34 9a3d d35a ad3d 54ad 643d 52be b73d
00000010: 8d81 6e3d b918 803d 8590 3b3e d690 afbb
00000020: b7f6 6a3d a45a 37bc 2346 f63d 9a0e c73d
00000030: a6de 823c dbc3 1bbc 57fb c1bd 2680 bfbd
00000040: 45c9 dbbd 32a9 46bd b78e b63d 04ab e0bb
00000050: c695 673d c32a 613c c1e6 3abd 483b c6bd
00000060: e2f2 2e3d c5c8 39bd 1a78 15bc a1e5 44bb
00000070: bb74 34bd 415f 49bd 9ec6 473d 5b0f 40bd
00000080: 8f0f 49bd b217 8c3d 02ba 9f3d 44c7 2fbd
00000090: 4860 1ebe 5705 8ebd ab0a 9d3d bc7e 54bd
000000a0: ebb0 c73d b87d ec3c 5684 84bd d8d4 eb3d
000000b0: ada3 d73d cdc5 85bd 21c1 fcbc 73a1 223d
000000c0: fae6 843d 39df a8bd ed14 9bbc 6e49 7ebd
000000d0: 219f 9a3d 209f 0ebd 44c9 a73d 7180 913b
000000e0: b404 1fbd 9c58 4e3b 935a 13bd 438a b23c
000000f0: ddc2 183c 7e51 1bbe e27f 58bd 4eaf 89bb
00000100: 066a 123d ea95 883d 2dc4 c8bb 0155 3d3d
00000110: bef9 9ebd bee8 b93c 5276 13bd def9 2dbd
00000120: 9af6 393d c190 3f3c e612 0a3d 555b 153d
00000130: 1072 1abd 8778 9e3c 8553 e8bb f06a 99bd
00000140: be83 8bbd 8983 84bd 6e30 36bd 08a7 0fbd
00000150: 9917 ad3d 16ba 3a3c de7c 163e 4699 d6bc
00000160: 26d8 ec3d d275 f43d da6c c83c 55c5 d13c
00000170: 8937 bb3d 33c0 0a3e 1e55 c33c 24a5 e3bd
00000180: 301f 823d ebce 1a3d 4d2a 66bd 56c4 2e3d
00000190: 0055 033d b877 79bd 8a24 8b3d 157f 813c
000001a0: bce8 54bb 54cb 9b3d ffb7 fb3c 4925 793d
000001b0: 36b1 903d 1719 52bd e3d8 ccbc b2ae 1bbd
000001c0: 610d d3bc 9e7b 1fbd 4b48 ba3d 8694 8a3b
000001d0: 3b29 9cbd 9d86 72bc 287a 44bd e10d 923d
000001e0: 2c9a 943d ba84 c73d cc98 8d3d 3c14 b8bc
000001f0: 31e5 e73d d19b 1c3e d770 013e 0ac2 a23d
00000200: 14ef 27bb 957b f03b 1d22 94bd cdba 643c
00000210: ab7e 55bd c896 15be 2c08 d7bc 8c58 c9bd
00000220: 92b4 01bd 4568 b03d d6ef 88bd da52 b33d
00000230: dbed 293e ea53 6fbd 4f31 aa3b 868b 1e3e
00000240: 9311 dc3d e552 1f3d 39f6 713c 724c 703c
00000250: ee4f f33d 675b 003c 3519 073d 0939 cebd
00000260: 8791 a0bd 7f67 ff3c 3f84 1abd ebed 153d
00000270: ae0d 1e3b f21f ddbd 2874 a0bd 633b ac3c
00000280: 8f50 83bd 6ea2 b5bd ef9c 56bd 99e7 213d
00000290: 2f78 633d 8c20 313d abf8 68bd 76a7 36bd
000002a0: ba63 933d 4bc3 95bc eae8 0e3d c108 333d
000002b0: 0871 e0bc 2cbd 55bb 8a36 bc36 dc2a 883d
000002c0: b9f3 35bd c957 54bd 1e96 bbbc d2be cdbb
000002d0: 600e 5cbd 09da be3d 6a76 843d 116f 14bd
000002e0: 8f46 c83d 8749 053e 920c 913d 269f c33d
000002f0: 73d7 1f3c 1262 3a3d 6fe1 3c3c a97a 163d
00000300: 4ada 363d 921c 58bd 6331 4dbd 0d12 1bbd
00000310: 8f30 76bd 9fe2 883d fc50 20bc 76a7 573d
00000320: b5f6 6d3d 6034 98bc 4221 f5bd a26a 2d3a
00000330: eea9 6cbd a084 9dbd d869 74bd f16c df3c
00000340: f904 a03d b633 f03d d4f0 ab3d 3052 25bd
00000350: 544b a43b 1d44 c1bd 1b4e dcbd d138 28bd
00000360: a68a 613c 104c 1eba 59cc 6d3c fd39 0bbd
00000370: 9d69 e3bd 24e9 c4bd 8179 9fbd c553 f4bd
00000380: f31c e93b 584f 82bd 5ff4 7a3d b91f 62bd
00000390: 07b5 a8bc 8310 d83c 25b3 403c 39ac b93d
000003a0: 2b09 133e 8105 9c3c ee2c cc3c 1e6c 443c
000003b0: a065 373d a204 adbb d8d1 803d de61 5f3c
000003c0: 38da 813d 8969 8abd 3939 b5bc 74f8 99bd
000003d0: 55a3 493d fa53 4cba 8e55 7cbd 574e 783b
000003e0: a04c 1dbd e4cf 9f3a 7d17 303d 09bb c2bc
000003f0: 59d3 cd3b a9f9 d5bd 343e 383d 0c93 ebbd

convBlock2.0.bias f4 [16]
-0.0061065783 0.09917761 -0.021099366 -0.07249525 0.04804498 0.019394387 0.045333598 0.030966727
0.06561524 -0.08029319 0.007957316 0.070047535 -0.02387784 -0.053363573 0.08889734 0.021992998
00000000: b119 c8bb a11d cb3d 94d8 acbc 6478 94bd
00000010: d0ca 443d fae0 9e3c b9af 393d efad fd3c
00000020: 4861 863d c270 a4bd 675f 023c 1575 8f3d
00000030: 769b c3bc c393 5abd cf0f b63d a92a b43c

convBlock2.2.weight f4 [16, 16, 3, 3]
0.047646075 -0.003981162 -0.025862612 0.023998804 -0.001455811 0.030843806 -0.051817257 0.007158293
-0.00024266509 0.03558147 0.013056072 -0.008483174 -0.053668313 0.038623497 -0.059683 -0.025824223
0.037133843 -0.05720294 -0.02719889 0.055126477 4.813449e-05 0.04723102 0.024354488 -0.015058691
-0.07255603 0.020099584 -0.089567326 -0.0799303 0.03913324 0.06899694 0.070924535 0.050807465
-0.021668484 0.021911351 -0.055443596 -0.051485095 0.03329639 -0.023056636 -0.036897093 -0.040620144
-0.0029893888 0.0009892102 0.036950264 0.016844422 -0.07646469 0.077725984 0.056626316 -0.078855015
0.0020820673 -0.054902993 0.027663378 0.039453924 -0.033343844 0.027666977 -0.099315636 -0.041819017
0.04508443 -0.040277448 0.036807362 -0.027521368 0.008307244 -0.0173228 -0.104349986 0.034544595
0.0060424814 -0.064535126 0.056431387 -0.099788405 -0.03781169 0.0071666483 0.018547067 0.06558642
-0.053108193 0.020850755 -0.097099364 0.02066439 -0.061825927 -0.076428 0.0169037 -0.0970157
0.00060635776 0.004840023 -0.06624463 -0.07934016 0.05635779 0.0013248664 -0.0737215 0.02405366
-0.08354601 -0.040797196 -0.08698764 0.04092634 0.05569175 -0.06336112 0.035903987 -0.08094675
-0.09674775 0.019895017 -0.046997327 0.057486616 0.01346614 -0.099113554 0.07175754 0.018119145
-0.021586474 -0.05789341 0.030051716 -0.075078145 -0.017654277 0.04807205 -0.08432335 -0.033273943
-0.008770621 0.012210574 0.07546849 -0.026816173 -0.03824452 -0.028306132 0.042977292 -0.0675698
0.022503259 -0.082692474 -0.0899156 -0.077212356 0.0622108 0.044191718 0.009261482 -0.045520615
-0.080187514 -0.07755842 -0.007734953 -0.0697787 0.013681815 -0.0014467519 -0.014106772 0.041880596
-0.055280507 -0.061184794 -0.022716472 -0.07790596 -0.029953284 0.0013688044 -0.06841503 -0.07859021
0.10577617 0.016405411 -0.018139172 0.045707405 -0.10731157 -0.0013982855 -0.05487306 -0.06872392
-0.06738545 -0.041297678 0.00043557576 -0.06854858 0.09460608 0.03553644 0.07020769 -0.11142696
-0.10094786 0.0036223747 0.10746931 0.07248806 -0.038663093 0.0014897428 -0.05188634 0.009948855
-0.031140208 -0.047664996 -0.05773865 0.041169822 -0.029624166 -0.001144693 0.050378118 -0.045954056
-0.047582142 0.03674964 0.05712368 0.037223034 0.015588047 -0.04173418 0.00638745 -0.027763031
-0.063832976 -0.036022708 -0.045533177 -0.02726052 0.0027176756 -0.02672453 0.004302011 -0.019489516
-0.040601633 -0.0164226 0.044192687 -0.11435518 0.054110467 -0.10693127 -0.014308259 -0.0734964
-0.086568475 0.056807384 -0.050012235 0.02878362 -0.057008028 -0.096698254 -0.06610275 0.03775218
-0.045128524 -0.05417078 0.07127769 -0.033659153 -0.022507936 0.0135974595 -0.04198224 -0.14910536
-0.0600668 0.0075168354 0.08318073 0.034496207 -0.001215083 -0.00049167615 -0.07401348 -0.02466124
-0.031169238 0.07755144 0.035222735 -0.07419889 0.016463619 0.042770877 -0.050803266 -0.06614386
-0.055708956 -0.07459677 -0.020643823 0.011697288 0.0125241885 0.087693825 0.06194867 0.009936245
0.08388539 0.01884663 -0.037366606 0.019128116 0.015634516 -0.049963772 0.05038802 0.02544604
0.06846222 0.08947569 0.11673904 -0.012250381 -0.07653977 0.07193732 -0.030524712 -0.031141127
00000000: 8828 433d 6874 82bb d4dd d3bc 2499 c43c
00000010: e9d0 beba 26ac fc3c 553e 54bd 1d90 ea3b
00000020: ea73 7eb9 e0bd 113d 23e9 553c 03fd 0abc
00000030: 4ed3 5bbd ac33 1e3d 2976 74bd 528d d3bc
00000040: a819 183d a14d 6abd 35d0 debc 4dcc 613d
00000050: 04e4 4938 5075 413d 1083 c73c bab8 76bc
00000060: 4198 94bd e2a7 a43c 136f b7bd 7fb2 a3bd
00000070: 2d4a 203d 454e 8d3d e240 913d 7d1b 503d
00000080: 1b82 b1bc 6f7f b33c d318 63bd 09e2 52bd
00000090: cc61 083d 45e1 bcbc 6821 17bd 4f61 26bd
000000a0: 9fe9 43bb 63a8 813a 2959 173d 50fd 893c
000000b0: 8599 9cbd cd2e 9f3d fff0 673d bd7e a1bd
000000c0: 4b73 083b f6e1 60bd 4f9e e23c 709a 213d
000000d0: 8e93 08bd dba5 e23c ff65 cbbd 6b4a 2bbd
000000e0: 74aa 383d f7f9 24bd 51c3 163d 7e74 e1bc
000000f0: 1b1b 083c 8be8 8dbc 72b5 d5bd a27e 0d3d
00000100: 0200 c63b fe2a 84bd 9924 673d dd5d ccbd
00000110: 6ee0 1abd 34d6 ea3b 05f0 973c 2c52 863d
00000120: fa87 59bd 34cf aa3c 08dc c6bd 5e48 a93c
00000130: 2f3d 7dbd 4986 9cbd a179 8a3c 2bb0 c6bd
00000140: fbf3 1e3a 0e99 9e3b 44ab 87bd 187d a2bd
00000150: 6dd7 663d 24a7 ad3a 4cfb 96bd 2e0c c53c
00000160: 2c1a abbd f61a 27bd 9326 b2bd 61a2 273d
00000170: 081d 643d 7ac3 81bd 0f10 133d 69c7 a5bd
00000180: af23 c6bd e0fa a23c 4580 40bd 1677 6b3d
00000190: 16a1 5c3c 0cfc cabd 9ef5 923d 9a6e 943c
000001a0: 1ed6 b0bc a421 6dbd 042f f63c 92c2 99bd
000001b0: b49f 90bc 33e7 443d b8b1 acbd 424a 08bd
000001c0: a7b2 0fbc dc0e 483c 398f 9a3d 97ad dbbc
000001d0: 49a6 1cbd 43e2 e7bc f508 303d 0962 8abd
000001e0: c158 b83c ac5a a9bd ac25 b8bd 8321 9ebd
000001f0: c0d0 7e3d 6002 353d 79bd 173c d373 3abd
00000200: 5a39 a4bd f3d6 9ebd 7d75 fdbb 23e8 8ebd
00000210: b129 603c f0a0 bdba 1720 67bc fd8a 2b3d
00000220: d06d 62bd e89c 7abd e517 babc 298d 9fbd
00000230: 9760 f5bc 7469 b33a 2e1d 8cbd e7f3 a0bd
00000240: 2da1 d83d a464 863c 9a98 94bc b037 3b3d
00000250: 2bc6 dbbd ad46 b7ba 93c2 60bd 20bf 8cbd
00000260: 6201 8abd c127 29bd fd5d e439 3363 8cbd
00000270: d5c0 c13d a88e 113d 0dc9 8f3d d133 e4bd
00000280: c0bd cebd 5d65 6d3b df18 dc3d 9f74 943d
00000290: 315d 1ebd 7943 c33a c586 54bd 8600 233c
000002a0: c019 ffbc 5f3c 43bd 5d7f 6cbd b0a1 283d
000002b0: 61ae f2bc 8609 96ba 4959 4e3d 523a 3cbd
000002c0: 7ee5 42bd ca86 163d 85fa 693d 2e77 183d
000002d0: 0265 7f3c 76f1 2abd d04d d13b 4c6f e3bc
000002e0: ddba 82bd 8c8c 13bd ff80 3abd 7451 dfbc
000002f0: 081b 323b 67ed dabc e2f7 8c3b 7aa8 9fbc
00000300: e64d 26bd b088 86bc 6403 353d 0c33 eabd
00000310: f0a2 5d3d c8fe dabd 306d 6abc 4885 96bd
00000320: d04a b1bd dcae 683d a1d9 4cbd a0cb eb3c
00000330: 4081 69bd bc09 c6bd e160 87bd 08a2 1a3d
00000340: b0d8 38bd 2ee2 5dbd 0afa 913d 2ede 09bd
00000350: 9062 b8bc e1c7 5e3c 92f5 2bbd 13af 18be
00000360: 9b08 76bd c94f f63b a95a aa3d e54b 0d3d
00000370: 6b43 9fba d4e3 00ba 6194 97bd 5e06 cabc
00000380: a156 ffbc 4ad3 9e3d b745 103d 96f5 97bd
00000390: b6de 863c 8430 2f3d 1617 50bd 6f76 87bd
000003a0: 132f 64bd 31c6 98bd 3c1d a9bc fba5 3f3c
000003b0: 4132 4d3c d298 b33d e3bd 7d3d a2cb 223c
000003c0: 1acc ab3d 3f64 9a3c ba0d 19bd 91b2 9c3c
000003d0: f513 803c d0a6 4cbd ab63 4e3d 3774 d03c
000003e0: ec35 8c3d 083f b73d e114 ef3d d2b5 48bc
000003f0: e2c0 9cbd e053 933d f60e fabc ad1b ffbc

convBlock2.2.bias f4 [16]
0.02842997 -0.0011600871 0.03440321 -0.08260665 -0.027060037 0.032050174 -0.058502384 -0.086096376
-0.017620776 0.013527333 0.014714916 -0.05373088 -0.0072721248 -0.087517895 0.048526596 -0.06548501
00000000: f8e5 e83c 100e 98ba 61ea 0c3d ad2d a9bd
00000010: 03ad ddbc 0b47 033d 32a0 6fbd 4c53 b0bd
00000020: 7259 90bc bfa1 5d3c d516 713c e914 5cbd
00000030: 014b eebb 953c b3bd d3c3 463d 011d 86bd

classifier.1.weight f4 [3, 5776]
-0.012354073 -0.009632454 -0.013542167 0.004076751 -0.01293161 -0.003604167 -0.012304307 0.0072438647
0.0022480043 -0.0031083464 -0.007011921 -0.0015985309 -0.011071694 0.0063143633 0.0049755084 -0.01412399
-0.014734275 0.008765881 0.008085138 -0.0026071959 0.0013906013 0.009110239 -0.00578282 -0.010823273
0.010195092 -0.013439943 -0.011408494 0.008071982 -0.01168415 -0.007414585 0.004687386 0.00990891
-0.008161415 -0.002892034 0.008488642 -0.00027220638 0.008205027 -0.0024057364 -0.015139249 0.01194757
-0.00685243 0.0028230958 -0.00046870133 -0.00168222 0.002640265 0.006534529 -0.00044993602 0.010686852
0.0015141751 0.0046585123 0.010726123 -0.008616696 0.0034977768 -0.0034157406 -0.0020746156 0.0005483447
-0.010133986 0.0059287786 -0.0118986 -0.0063868295 -0.012769352 -0.002984111 0.0057322206 -0.007929173
-0.005635739 -0.0032028635 0.006445897 -0.002640379 0.010886051 0.0040652794 0.008025443 -0.007084527
0.0073742075 -0.0045983447 0.008087093 -0.0012839367 -0.0068117753 -0.011849955 -0.0064710174 0.0088593215
-0.0072348127 -0.006871755 0.0005966916 -0.0012732081 -0.011361531 -0.008362994 0.0004576183 -0.00040598877
-0.0105844075 -0.011847424 0.014744236 0.010915721 -0.009398853 0.0073419455 -0.010261586 -0.012396
-0.010413945 0.0015063279 -0.012556103 -0.0035805153 -0.00015779729 0.0010156777 -0.013042489 -0.0032529107
0.0050477684 -0.016671328 -0.0006622995 0.004984318 -0.0036489023 0.0061261393 0.014304296 -0.012077093
-0.002239877 -0.00041599546 -0.0010466741 -0.007992659 -0.011068379 -0.01595996 -0.0080309305 -0.013358709
-0.002297698 0.004385829 3.57396e-05 -0.017552244 -0.01415181 -0.0009985616 -0.0045712884 -0.007191139
0.0020496717 -0.0101954425 0.0017763848 -0.01697549 0.014560244 0.005925136 0.007629688 -0.0025887862
-0.0071681 -0.0011513737 -0.0015127127 -0.005972933 -0.0043874653 0.001604821 -0.0014366056 -0.015586579
-0.008105674 -0.018161168 0.005543887 0.007587059 -0.00982409 -0.004127381 -0.0124945445 0.013601645
-0.017277746 -0.0046022697 0.0044788453 -0.0062847277 -0.007462499 -0.0032867824 -0.0017167686 0.0005529721
-0.007205861 0.006604563 -0.011848132 -0.007139354 0.0058993422 -0.0012554843 -0.013106904 -0.010351829
-0.011547261 0.0038337181 -0.0030535609 -0.004055597 -0.013186334 0.0020973429 -0.0078796465 -0.0013139155
0.0070007523 0.008643625 0.0020044693 -0.009743012 0.009165204 -0.008438499 0.0015513371 0.006143194
-0.0043754564 -0.004758949 0.005846012 -0.00268652 -0.012737521 -0.0072987876 -0.009514763 0.005774057
0.007120187 -0.015914554 -0.0039006595 -0.0021901 -0.0014290598 0.003286655 -0.012304639 0.002725547
-0.0010871505 -0.014504495 0.0050506582 -0.0044351434 0.0030705878 0.007063912 -0.011951861 0.0044482304
0.012193754 -0.018702907 -0.007707718 -0.012029676 0.0024136812 -0.012957479 0.003983308 -0.0046845754
-0.003179171 0.0019865425 -0.01578743 -0.014835567 -0.013159613 -0.0054140203 -0.0070091225 0.008065601
0.009852975 -0.009432545 -0.010498442 0.01458263 -0.0081547 -0.0052363686 -0.010446747 -0.010757254
-0.0088105025 0.002044031 -0.015356192 -0.0005247286 -0.00010020668 0.0018652506 0.005290043 -0.010174275
-0.0046309866 -0.014424125 -0.0015005247 0.007866861 0.0061662877 -0.0029430478 0.009325507 -0.0021372566
-0.0021536434 -0.010069893 -0.0017713784 0.0024556695 -0.0073569124 0.003046925 -0.002476874 0.0019501979
00000000: bd68 4abc 71d1 1dbc f7df 5dbc 4496 853b
00000010: 1bdf 53bc e333 6cbb 0198 49bc f15d ed3b
00000020: 4153 133b 66b5 4bbb 42c4 e5bb cc85 d1ba
00000030: 0d66 35bc b8e8 ce3b 9709 a33b 4f68 67bc
00000040: 0768 71bc c59e 0f3c 8777 043c 7ddd 2abb
00000050: d644 b63a 1d43 153c cf7d bdbb 1954 31bc
00000060: 5109 273c 3533 5cbc b1ea 3abc 5940 043c
00000070: e16e 3fbc 0cf6 f2bb a598 993b fb58 223c
00000080: 75b7 05bc 4788 3dbb f213 0b3c ecb6 8eb9
00000090: 616e 063c 8fa9 1dbb 9d0a 78bc bebf 433c
000000a0: 598a e0bb b003 393b 07bc f5b9 f07d dcba
000000b0: 4c08 2d3b 9a1f d63b 64e5 ebb9 e817 2f3c
000000c0: 4977 c63a 6fa6 983b 9fbc 2f3c 0b2d 0dbc
000000d0: f53a 653b 9eda 5fbb 46f6 07bb cabe 0f3a
000000e0: 0509 26bc 3346 c23b 58f2 42bc 9c48 d1bb
000000f0: 8b36 51bc 1391 43bb 5ad5 bb3b 5de9 01bc
00000100: 01ac b8bb 22e7 51bb 1a38 d33b 350a 2dbb
00000110: 685b 323c 0936 853b 267d 033c 5225 e8bb
00000120: 56a3 f13b b6ad 96bb ba7f 043c c449 a8ba
00000130: 5035 dfbb 5026 42bc d40a d4bb b026 113c
00000140: 0212 edbb 752c e1bb 4c6b 1c3a c6e1 a6ba
00000150: b725 3abc f004 09bc 7dec ef39 e4da d4b9
00000160: 396a 2dbc b31b 42bc cf91 713c dad7 323c
00000170: a6fd 19bc b494 f03b 3620 28bc 9818 4bbc
00000180: 409f 2abc fa6f c53a 1db8 4dbc 14a7 6abb
00000190: 6376 25b9 7d20 853a 2ab0 55bc c92e 55bb
000001a0: c067 a53b 4f92 88bc 2b9e 2dba 7d53 a33b
000001b0: 6c22 6fbb c8bd c83b 915c 6a3c 00df 45bc
000001c0: e6ca 12bb f719 dab9 8e30 89ba a4f3 02bc
000001d0: 2558 35bc 76be 82bc 2a94 03bc 7dde 5abc
000001e0: fa94 16bb 00b7 8f3b 1ae7 1538 b9c9 8fbc
000001f0: fedc 67bc 2be2 82ba bfca 95bb a5a3 ebbb
00000200: c953 063b c90a 27bc 95d5 e83a 2f10 8bbc
00000210: 178e 6e3c a527 c23b 7602 fa3b a0a8 29bb
00000220: 62e2 eabb b1e9 96ba 3746 c6ba 98b8 c3bb
00000230: bac4 8fbb db58 d23a 7c4c bcba da5e 7fbc
00000240: a9cd 04bc bbc6 94bc 7fa9 b53b dd9c f83b
00000250: 38f5 20bc fb3e 87bb ebb5 4cbc 6fd9 5e3c
00000260: 0f8a 8dbc a3ce 96bb 47c3 923b 1ef0 cdbb
00000270: fb87 f4bb 0f67 57bb 3205 e1ba 54f5 103a
00000280: 251f ecbb 176b d83b ab1e 42bc 3ef1 e9bb
00000290: 454f c13b 108f a4ba 57be 56bc b89a 29bc
000002a0: b930 3dbc 1e3f 7b3b 401e 48bb d0e4 84bb
000002b0: 7e0b 58bc 9373 093b a219 01bc b037 acba
000002c0: 9166 e53b fe9d 0d3c 6a5d 033b 27a1 1fbc
000002d0: a729 163c a141 0abc 3c56 cb3a d94c c93b
000002e0: fd5f 8fbb f5f0 9bbb e78f bf3b 5410 30bb
000002f0: 09b1 50bc ab2a efbb cfe3 1bbc 4d34 bd3b
00000300: 7550 e93b 3d5f 82bc 35a2 7fbb c887 0fbb
00000310: 4a4f bbba ec64 573b 6699 49bc 179f 323b
00000320: b87e 8eba 43a4 6dbc fe7f a53b ae54 91bb
00000330: ea3b 493b 6478 e73b bdd1 43bc 76c2 913b
00000340: 50c8 473c d736 99bc 0691 fcbb 1e18 45bc
00000350: da2e 1e3b 9b4b 54bc 6986 823b 1181 99bb
00000360: a359 50bb a730 023b a454 81bc e110 73bc
00000370: 6b9b 57bc 1868 b1bb c8ac e5bb 9525 043c
00000380: 5f6e 213c f68a 1abc a801 2cbc fceb 6e3c
00000390: 4a9b 05bc d895 abbb d528 2bbc 323f 30bc
000003a0: ed59 10bc 26f5 053b 8a98 7bbc f18d 09ba
000003b0: 0d26 d2b8 6d7b f43a 1958 ad3b 01b2 26bc
000003c0: 88bf 97bb 2a53 6cbc 41ad c4ba 02e4 003c
000003d0: 920e ca3b 26e0 40bb 03ca 183c 3711 0cbb
000003e0: 2424 0dbb 31fc 24bc 992d e8ba 4cef 203b
000003f0: 4112 f1bb ebae 473b 0d53 22bb c89d ff3a

classifier.1.bias f4 [3]
0.00915895 0.010185337 -0.00586975
00000000: 6c0f 163c 66e0 263c 0857 c0bb
