06_PyTorch_Going_Modular/models/model2.pth (torch, 433642 bytes, 10 tensors)

convBlock1.0.weight f4 [10, 3, 3, 3]
000000 42 32 07 bd f2 44 4c 3e db 42 cf 3d 77 3d 08 3e
       -0.033006914 0.19948176 0.101201735 0.13304697
000010 00 fc bc bd 3e cf 13 3d 90 77 93 bd 9c 50 21 3e
       -0.09227753 0.036086313 -0.07200539 0.15753406
000020 94 25 0e be a6 7d 2f 3e ea b1 96 bd d8 54 f7 bc
       -0.13881522 0.17137775 -0.07358153 -0.030191824
000030 cc 26 42 3e 09 05 3b 3e b0 da 4a 3e 1f f6 2a 3e
       0.18960112 0.1826364 0.19809985 0.1669545
000040 6c dc 19 3d 88 51 19 3e 28 3e 8a 3c d7 e2 e1 bd
       0.037563726 0.14972508 0.016875342 -0.110295944
000050 12 6d 3c 3e 3c 81 c3 bd 36 d6 2c 3e d2 84 31 be
       0.18400982 -0.09546134 0.1687859 -0.17335823
000060 e7 d4 1b 3d fa 68 46 3d 31 2c cc bd 28 7a 28 3e
       0.038044836 0.048439957 -0.09969366 0.16452849
000070 ab 41 93 bb 51 b5 46 be 5f d6 76 bd 23 b2 37 be
       -0.004493912 -0.19405104 -0.060263034 -0.17939048
000080 15 e3 39 3e 8e 60 e6 3c c0 2d 35 be a5 5d 8d 3d
       0.18153031 0.028122213 -0.17693233 0.06902627
000090 25 e4 b8 3d 3c 24 1e 3e 74 5d fe 3d 23 a3 13 bd
       0.0902789 0.1544351 0.124201685 -0.03604425
0000a0 93 3d 2c 3e 52 6d 1d be b2 7b 00 be 80 ab e4 3b
       0.16820364 -0.15373734 -0.12547186 0.006978452
0000b0 04 49 d8 3d 87 39 81 bc 1b b2 43 be 20 d6 3b bd
       0.105608016 -0.015774501 -0.1911091 -0.045858502
0000c0 29 ac 4b bd 5b 14 41 bc 2c 6c d3 bc 11 2f 2a 3e
       -0.04972473 -0.011784638 -0.025808416 0.16619517
0000d0 6d 50 d7 3d aa a3 5d bd de 92 c7 3d 83 ed 07 3e
       0.10513387 -0.05411116 0.097448096 0.13274197
0000e0 5f c1 33 3e aa 25 1f 3e e5 42 8f bd 9e bd c8 3d
       0.17554234 0.15541711 -0.06995181 0.098017916
0000f0 7e ae 98 bd 68 26 f8 3d 7e 59 dc 3d 9e 46 17 3e
       -0.07455157 0.121167004 0.10759257 0.14773032
000100 17 4c b5 3d 67 5c 26 3e 14 16 ab bc a1 04 c9 3d
       0.088524036 0.16246186 -0.020884551 0.09815336
000110 98 c0 96 3d 91 e5 3c be 5b f2 fa bd 79 bb bf 3d
       0.07360953 -0.18446948 -0.12253257 0.093619294
000120 9b 8b 8a 3c ef 7a c5 3c b7 81 18 be c3 e5 3c be
       0.016912272 0.02410647 -0.14893232 -0.18447022
000130 75 ab 03 3e b1 1c 10 3e 74 12 b3 bd dc 9f c2 3d
       0.12858374 0.14073445 -0.08743754 0.09503147
000140 a2 61 2b bd 3b 63 ae bd 01 44 69 3d 4a c2 26 3e
       -0.041841157 -0.085150205 0.05694962 0.16285053
000150 62 66 08 3e c5 f3 b0 bd 61 57 ca 3d 9a 05 50 3d
       0.13320306 -0.08640245 0.098799475 0.050786592
000160 6d 35 0b 3d 90 41 36 be 1f 90 0c be 20 d2 ae bc
       0.033986498 -0.17798448 -0.13726853 -0.02134043
000170 91 7b 41 3e 79 3c 0f be bf aa a2 bc da c3 88 3d
       0.18894793 -0.13987912 -0.019856809 0.06677981
000180 97 99 46 be 57 79 0b 3e 3c 2a 12 3e 39 7d 0a 3e
       -0.19394527 0.13620506 0.14273924 0.13524331
000190 d2 79 f2 3d 8c 61 05 be 01 e6 fd 3c e1 19 cc bd
       0.11839642 -0.13025492 0.030993463 -0.099658735
0001a0 7c 5f f2 bc 6c 10 c9 bd 49 fe 0f be 8c 60 f0 3d
       -0.029586546 -0.09817585 -0.14061846 0.11737165
0001b0 32 68 1d 3d 0c 77 4d 3e 4b 6f 00 3e 6d c4 8c 3b
       0.038429447 0.20064944 0.12542455 0.0042958767
0001c0 2f ad 9e bd 50 d7 ae bd eb a0 a8 bd 09 eb 1b 3e
       -0.07747876 -0.08537161 -0.08233818 0.15226378
0001d0 41 7c 65 3d d8 f0 83 bd 75 d6 23 3c 4f eb 39 be
       0.0560267 -0.06442422 0.009999861 -0.1815617
0001e0 a7 a8 b8 3d a7 22 bb 3d 79 bf a3 3d a8 2b 25 3e
       0.09016543 0.09137469 0.07995505 0.16129935
0001f0 7a b1 37 be d3 64 b6 bc 4f 3d f1 bd 94 de e1 bc
       -0.17938796 -0.022264874 -0.11779272 -0.027571954
000200 f2 bb 82 bd 0d bb cb 3d 61 e1 46 bb 64 5f 1a 3c
       -0.06383504 0.099477865 -0.0030346739 0.009422157
000210 75 3e cd bc 90 92 01 be 65 0d 5d bd 66 5c 38 3e
       -0.025054196 -0.12653565 -0.053967852 0.18003997
000220 71 5e fc bc cd ba b6 bd 82 80 bf bb 29 4c b5 bb
       -0.030806752 -0.08922348 -0.0058441767 -0.0055327606
000230 66 e7 9a bd 72 4f 07 bd cc de c8 bd f4 d6 21 3d
       -0.07563667 -0.03303475 -0.0980812 0.039511636
000240 b3 c1 c1 bd 1a 8f 3a 3e 32 af f6 bd 48 81 44 be
       -0.09460773 0.18218651 -0.120451346 -0.19189942
000250 98 9a 01 3e cc 14 ba 3c 1e 2a 4b bc 3b 5c a6 3d
       0.12656629 0.022714995 -0.012400178 0.0812306
000260 9a 2c d5 bd db 85 fb 3d 19 cb 43 3e d4 ab db bd
       -0.10408898 0.1228139 0.19120444 -0.10726133
000270 99 27 38 3e 2a 19 35 bd 78 e6 a5 bd 20 d2 ec 3d
       0.17983855 -0.04421345 -0.08100599 0.11563516
000280 9a 8a 12 3e 5d 78 27 be 22 61 13 3e d9 79 3a 3e
       0.14310685 -0.16354509 0.14392522 0.18210544
000290 72 de db bd 09 a7 27 bd 13 aa 16 3e 66 42 3c 3e
       -0.107357875 -0.04093078 0.14713316 0.18384704
0002a0 5a cf 61 bd 7b b6 89 bd 09 5b 32 bd cd 80 37 3e
       -0.055129386 -0.067242585 -0.04354385 0.17920227
0002b0 de 69 fb 3d 38 63 e9 3d 91 78 98 bc 16 c8 1b 3e
       0.12276052 0.113958776 -0.018612178 0.15213045
0002c0 66 9d 29 3e 60 36 db 3d 7d f8 57 bd 0f 58 fe 3d
       0.16563949 0.107037306 -0.05272721 0.124191396
0002d0 6c 0c 01 be f9 b5 0b bd 5d 78 57 bd f2 c1 fc bd
       -0.12602395 -0.03410909 -0.05260502 -0.1234168
0002e0 a2 a3 9c 3d ef 24 f4 bd ea da 07 be 37 eb ef 3d
       0.07648398 -0.11921107 -0.13267103 0.117147855
0002f0 4f 4b bd 3d c3 46 e3 3d 6f 4c 05 3d 67 c8 d2 3d
       0.092428796 0.11097481 0.032543596 0.1029213
000300 79 2d 1f bd 38 b1 fd bd 22 29 72 3d 07 26 dc 3d
       -0.038861725 -0.123873174 0.05912126 0.10749441
000310 2f 37 4a 3e 0f df 0f be 1c e9 40 3e a6 ee 0a be
       0.19747613 -0.14049934 0.18838924 -0.135676
000320 0a c4 41 3e 92 ee 24 3e 3e f6 94 bd 4a 19 bb bd
       0.18922439 0.16106632 -0.072735295 -0.09135683
000330 b1 f8 32 3e 29 54 3d be d1 28 1c 3e c4 0c cf bd
       0.1747768 -0.18489136 0.15249945 -0.10109857
000340 ae d4 ce 3d 4f d1 82 3d 56 a1 a5 bd d8 a6 1b be
       0.10099159 0.06387579 -0.08087413 -0.15200365
000350 8e 61 0d 3e 40 a5 7d bd ad 48 b4 3d 0d 1f 36 3e
       0.13806745 -0.061925173 0.08802924 0.17785282
000360 79 15 b5 3d 45 27 0c 3e 56 71 01 be 09 69 b2 3d
       0.08841986 0.13686855 -0.1264089 0.0871144
000370 a2 47 db 3d 62 ff bb bd 8a d4 08 bd a6 f9 79 bd
       0.10707022 -0.0917957 -0.033405818 -0.0610291
000380 f6 74 95 bd 48 41 fe 3d cb a4 0b 3e 20 22 94 bd
       -0.07297699 0.12414795 0.13637082 -0.07233071
000390 05 da 21 be b6 1c 38 be b7 44 85 3d 84 8d f5 3b
       -0.15805824 -0.17979702 0.06507247 0.0074936766
0003a0 4c c4 ce bd 96 07 27 3e 30 eb af 3d e1 df 36 bb
       -0.100960344 0.16311488 0.0858978 -0.0027904438
0003b0 37 d6 a6 bd 9e 0e 8e 3d dd cb 18 bd d3 05 44 3d
       -0.08146327 0.06936382 -0.037303794 0.047857117
0003c0 42 30 a3 3d 93 84 aa bc 7b f3 1c 3e 91 3e 9a 3d
       0.07968189 -0.02081517 0.15327255 0.07531465
0003d0 ad 13 5a bd d0 3b dd 3d 2e f6 0d 3e 4f fb f1 bb
       -0.05324142 0.10802424 0.13863441 -0.0073846946
0003e0 a9 db f6 3d 00 dc 81 bd 2b fe 69 3d 8f 6f 29 3d
       0.120536156 -0.0634079 0.05712716 0.041366156
0003f0 92 f6 26 3e 2f 73 45 be 28 b4 27 bd 18 3d 15 3e
       0.16304997 -0.1928222 -0.040943295 0.14574087

convBlock1.0.bias f4 [10]
000000 16 b4 16 bd 21 96 89 3d 60 e5 06 be 15 f6 e2 3d
       -0.036792837 0.06718088 -0.13173437 0.11082093
000010 8f d2 40 3e 62 55 90 3d cf 0e 07 3e 5d 0e 8d 3d
       0.18830322 0.070475355 0.13189243 0.06887505
000020 f8 42 48 3d f2 95 de bd
       0.04889199 -0.108684435

convBlock1.2.weight f4 [10, 10, 3, 3]
000000 4b f7 a0 3c 99 99 d9 3d 7f bd 82 bd 8c b2 e1 3d
       0.019649168 0.106249996 -0.063838 0.11020383
000010 4b 03 ea 3d 75 9a 86 3d aa d3 9c 3d 01 a9 bd 3d
       0.11426409 0.06572429 0.07657559 0.092607506
000020 48 c6 72 3d 17 52 63 3d bd 55 88 3d 8a 3a b4 bd
       0.059271127 0.05549821 0.06656978 -0.08800228
000030 20 f1 b2 bd d0 49 02 bd 22 8a 52 bd d9 be 81 bc
       -0.08737397 -0.031808674 -0.051401265 -0.015838074
000040 49 a9 de 3c 34 3d 08 3d b3 de fb 3d 90 43 bd 3d
       0.02718033 0.033261493 0.12298336 0.09241402
000050 1c 73 9f bc 6d 3f ac 3d c5 ad d2 3c 42 23 15 3d
       -0.019464068 0.08410535 0.025717625 0.036410578
000060 77 09 98 3c 76 ff 5a 3d db f5 c9 3d d8 ac 71 3d
       0.0185592 0.053466283 0.09861346 0.059002727
000070 ce 31 b4 3d 6b b8 20 3d 2e 90 af 3c 40 53 a3 bd
       0.08798562 0.039238375 0.021431055 -0.07974863
000080 60 0b 51 3d e3 1a 3a bd 9e d6 95 3b a6 2b 44 bc
       0.05103624 -0.045435797 0.0045727035 -0.011973297
000090 85 4b e5 bc 96 49 cc 3c 6b c9 ee 3d af f8 64 3b
       -0.027990112 0.024937432 0.11659511 0.0034938266
0000a0 70 97 6a 3d 0d a7 d0 bb df 46 e8 3d 90 73 75 bd
       0.05727333 -0.0063675703 0.113416426 -0.059924662
0000b0 03 70 e6 3d d4 2d 34 bc 46 8a 51 3b 17 fa ad 3d
       0.11251833 -0.010997254 0.0031973287 0.084949665
0000c0 91 3a 41 3d 1b fb 9d 3d 7b 57 41 bc 85 fd 03 bd
       0.047174994 0.0771391 -0.011800642 -0.032224197
0000d0 dc eb 1b bd 57 8d 37 bc 7b 03 69 bd 7d aa 9d 3d
       -0.03806673 -0.011203132 -0.056888085 0.07698534
0000e0 2b 9f 44 bd b2 c6 e4 3b 89 4d 89 bd ae 4b b9 bd
       -0.048003357 0.006981694 -0.06704242 -0.09047638
0000f0 f0 75 e4 bc 70 53 db 3d 16 c2 c9 3d af fd 05 3d
       -0.027888268 0.10709274 0.09851472 0.032712635
000100 d8 f8 c4 bc 6e d9 26 3d 33 39 87 3d 26 fd e3 3d
       -0.02404444 0.0407347 0.06602707 0.111322686
000110 26 4f ab 3c f2 08 bf 3d e7 5f 90 3d 59 02 a9 3d
       0.020911764 0.09327878 0.07049542 0.08252401
000120 dc d4 d1 3d 72 88 1e bd 1d da cc bc 1b a0 00 bd
       0.10245678 -0.038704343 -0.025006348 -0.03140269
000130 1e 3c 67 bd 01 22 d2 3d b5 8e a8 bc b2 93 ed 3d
       -0.056453817 0.10260392 -0.02057586 0.11600436
000140 ef c9 a6 bd 6d db 0c bd cb 52 b7 3d 47 f1 a5 bd
       -0.081439845 -0.03438895 0.089513384 -0.081026606
000150 2a 1e 8f bd fe 2a 08 3d 88 22 93 3d 16 b3 4b 3d
       -0.06988175 0.033244126 0.07184321 0.049731337
000160 ee 1d 94 bd c1 72 d5 bc 07 72 55 bd 33 be e0 bd
       -0.07232271 -0.026055695 -0.052110698 -0.109737776
000170 90 2d dc 3a 7f 46 80 3c 16 39 d5 bc 87 39 ef 3c
       0.0016798247 0.015658615 -0.026028197 0.029202236
000180 2c 92 a7 3b c0 18 82 bd 27 1b e5 bb f2 e8 84 bd
       0.0051138606 -0.06352377 -0.006991762 -0.06489743
000190 a2 7d fd bc 7c 7d d4 bd ce 55 9b 3c 07 ab 63 bd
       -0.030943695 -0.10375497 0.018961813 -0.055583026
0001a0 67 8a 56 bd 33 35 9b bd 5e ba 7b 3d ed 72 88 3d
       -0.052378085 -0.07578506 0.06145703 0.06662545
0001b0 5d 85 eb bd 22 fc 95 bd 86 c4 c1 bd de a2 4f bd
       -0.115000464 -0.07323481 -0.09461312 -0.05069243
0001c0 ab 47 92 bd 41 af ae 3d 90 27 81 bd 60 89 48 3d
       -0.07142576 0.08529521 -0.06306374 0.048959136
0001d0 b0 4a 2d bd ca 3a 0c bc d8 af b0 3c 3f 52 cf bd
       -0.042307556 -0.008558938 0.021568224 -0.10123109
0001e0 20 da 64 3c 4a d3 ee bc 0d 62 e9 bb 82 60 7b bd
       0.013968021 -0.029153485 -0.0071222843 -0.061371334
0001f0 a4 8b 85 bd 47 69 8b bb 79 aa 4a 3d 6c ff b0 3d
       -0.06520775 -0.0042544934 0.04947898 0.08642468
000200 09 04 ad 3d 7f c3 c6 bd f1 12 42 bc 12 f2 bd 3c
       0.08448035 -0.09705257 -0.011845336 0.023186717
000210 eb b4 a1 bc ef c3 9f bc af f3 9f bc 8d 71 b0 bd
       -0.019739589 -0.019502608 -0.019525377 -0.08615408
000220 53 62 9f bd ce 45 49 bd 41 b8 1a bd fa 01 2b 3a
       -0.07782426 -0.049138837 -0.037773374 0.0006523427
000230 15 8a 44 3d 85 0a 97 bd 53 cd 58 bd c4 c9 a2 bd
       0.047983248 -0.07375053 -0.052930187 -0.0794864
000240 a3 7f e6 bd 7e 36 98 bd 67 69 54 bc 9a 84 94 bd
       -0.112548135 -0.074322686 -0.012964583 -0.07251854
000250 58 ec a2 3a 3a 3e 8b 3d c8 14 f8 3b 4f 84 15 3d
       0.0012430055 0.06798978 0.0075708367 0.036503132
000260 b5 0c cc bc 5f 59 a2 3d a6 d0 0c bd 31 c5 c7 bd
       -0.024908403 0.079272024 -0.03437867 -0.09754408
000270 e9 4f 1a 3d 21 3f 8c bd c2 90 8a 3c f3 f8 01 bd
       0.037673865 -0.068479784 0.016914729 -0.031731557
000280 bd dc 1a 3d 5c 10 00 bd 5c b2 0c bb c1 6e 6b 3c
       0.03780817 -0.0312656 -0.0021468615 0.0143696675
000290 83 4d db bd 4a e4 a6 3d ed 87 c6 bd a6 6f b6 bd
       -0.107081436 0.081490114 -0.096938945 -0.08908014
0002a0 73 d6 7b 3c ab fa 93 3d 5a 76 36 3d cd 75 32 3c
       0.015370953 0.072255455 0.044546463 0.010892344
0002b0 32 67 be bd 24 fa d5 bc 92 4b 95 bc 3d 29 7f bc
       -0.09297027 -0.026120253 -0.018224511 -0.015573797
0002c0 12 c9 a2 3d 09 c0 f4 3c df ab 8f bd 4f e3 a9 3d
       0.07948507 0.029876726 -0.07015204 0.08295309
0002d0 29 2e be bd 9a e8 3f bd 62 93 45 bd 0a b0 e8 bd
       -0.09286148 -0.046852686 -0.04823626 -0.11361702
0002e0 52 0a d8 3b a4 36 5b 3c f7 b2 24 bd 2e ba 82 3d
       0.006593027 0.013379727 -0.040209737 0.06383167
0002f0 16 ad 7a 3c 3b af a2 3d c6 7e 99 bb 21 71 5f bb
       0.015300056 0.07943579 -0.004684302 -0.003409453
000300 5d ec 3a bb 2c cb 21 bd fc d3 2b bd 50 2e 44 bc
       -0.002852223 -0.0395004 -0.04195021 -0.011973932
000310 a4 55 97 ba 12 34 ac 3d bf 89 5e bd 9f 78 a5 bc
       -0.0011545909 0.08408369 -0.054330584 -0.020199118
000320 e7 74 99 bd d5 c3 6f 3c fb 7f 0e 3b 9d 2c ab bd
       -0.074930005 0.014634092 0.0021743763 -0.08358119
000330 d0 f1 ef bc b7 9d 25 3d 6a 4f 46 bd a6 f3 f1 3c
       -0.02929011 0.04043361 -0.04841558 0.029535126
000340 87 0d 9a bc 17 1c cc 3c 3d 19 06 bd 37 1e 21 bd
       -0.018805278 0.024915738 -0.032738913 -0.039335456
000350 40 3e 0e bd 7d 77 9c 3d e3 9b e7 bd f2 8a 21 3c
       -0.034727335 0.07639978 -0.1130903 0.009859787
000360 0f 08 ce bc 2d 72 8f 3d 8b 4c 29 bd fd a7 8e 3d
       -0.025150327 0.07004199 -0.041332763 0.06965635
000370 93 28 65 bd e0 9c 00 3d 6e b9 9f 3b 3c 29 8d bd
       -0.055946898 0.031399608 0.0048744 -0.068926305
000380 24 08 83 bd 9a 51 6b bd b0 2b 2a 3b 8d 83 82 3d
       -0.06398037 -0.05745087 0.0025965981 0.063727476
000390 4f ff 7a 3d 2a 50 a5 3c 1f ac 75 3c df 22 7b bd
       0.061278637 0.020179827 0.01499465 -0.061312553
0003a0 d7 9e eb bc fd 56 98 3d 3c ae a3 3d b5 d5 2f 3d
       -0.028762264 0.07438467 0.07992217 0.042928416
0003b0 2f 07 81 3c 65 36 d9 bd dc 9b 80 bd 23 48 c9 bd
       0.015750496 -0.10606078 -0.06279728 -0.09828212
0003c0 38 20 90 3d b9 cb c1 3d 3e 00 d4 bd 8c 02 57 bd
       0.07037395 0.09462685 -0.10351609 -0.052492663
0003d0 c5 85 a3 3d 98 74 7b 3c 1f 7d 38 3d ae 83 61 bd
       0.07984499 0.015347622 0.0450412 -0.05505722
0003e0 1d d4 3d bd d6 a8 c5 bd 3b d7 a5 3d d2 8a 92 bd
       -0.046344865 -0.096513435 0.080976926 -0.07155384
0003f0 27 47 5b bd 69 4c 35 bd d5 b7 83 3d 57 54 ae bd
       -0.053534653 -0.044262324 0.064315476 -0.0851218

convBlock1.2.bias f4 [10]
000000 40 c3 ca bb b4 23 14 bc a5 c3 e0 bd 8f 7f 3c bc
       -0.0061878264 -0.009041715 -0.10974816 -0.011505022
000010 29 e1 4c bc 16 a9 51 bd 4a 80 db bd f6 fe b7 3d
       -0.012504854 -0.051186644 -0.107178286 0.08984177
000020 a6 85 e7 3b 34 1c 4f 3d
       0.0070654927 0.050564006

convBlock2.0.weight f4 [10, 10, 3, 3]
000000 08 8c e1 3c 93 79 9e bd 46 19 9f 3d b3 c4 70 bd
       0.027532592 -0.07738032 0.077684924 -0.058781337
000010 cf 5c 2f 3d 2c f5 23 3c 14 0d b6 bd 7f e5 ae bd
       0.04281312 0.010007184 -0.08889213 -0.08539867
000020 f6 b7 d3 bc df 97 02 3d cc ac 31 3c fb 19 5b bc
       -0.025844555 0.031883117 0.010844421 -0.013372893
000030 93 b7 9c 3d 32 94 17 3d 67 b5 cb 3d 99 fe 86 bb
       0.076522015 0.037006564 0.09946709 -0.004119706
000040 4c 1c 7d 3d 71 d8 93 3d 74 01 9d 3d 31 c3 8e bd
       0.061794564 0.07219017 0.07666293 -0.069708236
000050 79 29 ae bc 6e cc 01 bc 7e b8 e5 bc 1f 48 18 bc
       -0.02126001 -0.007922275 -0.028042074 -0.009294539
000060 41 3d c6 3d 7e 67 f8 bc e7 77 93 bd f0 ac cc 3a
       0.09679652 -0.030322786 -0.07200604 0.0015615504
000070 5a 2b d8 3d dd 83 9c 3d 61 c3 af 3d fd 23 d6 3c
       0.10555144 0.076423384 0.085821874 0.026140207
000080 7c bb 83 bb 36 fa 68 bd e6 41 c8 bd 0d 5a 76 3d
       -0.0040201526 -0.056879245 -0.09778194 0.060144473
000090 b4 b5 8e bd 29 22 07 3d 0a 30 9d 3c ca 8f ca 3c
       -0.06968251 0.032991562 0.019187946 0.024726767
0000a0 ef 4e d1 3d 1f a5 53 3d 03 29 a1 3b 13 99 b7 bd
       0.102201335 0.051671144 0.004918219 -0.089647435
0000b0 a4 4d ac 3c 93 b0 8b bd 43 54 a0 3d aa 41 85 3d
       0.021033116 -0.06820788 0.07828572 0.06506665
0000c0 e8 c1 79 3d 51 a0 87 3d f9 59 42 3c 83 28 98 bd
       0.06097594 0.06622375 0.011862271 -0.07429602
0000d0 d0 3e f7 bc 64 b0 90 bc 8f 99 ad 3d 8b ba b6 bd
       -0.030181319 -0.017662235 0.084765546 -0.08922299
0000e0 5b 1d f1 3c c8 67 bb 3d d4 a4 94 3d 9c 2b 51 3b
       0.029432943 0.09150654 0.07258001 0.0031916862
0000f0 32 a9 d4 3d 05 7f 43 3d 66 dd a9 bc 24 78 bc 3c
       0.10383834 0.047728557 -0.020735454 0.023006506
000100 b3 aa db bc ae 49 70 3d a3 36 8d bd c4 c8 3d bd
       -0.026814794 0.058664016 -0.06895187 -0.046334043
000110 58 66 6c 3d cb 28 ab 3b 7b 23 a6 bd 97 aa dc 3c
       0.05771479 0.0052233688 -0.08112236 0.026936812
000120 46 5d a6 3d df 42 9d 3c f1 f1 a4 3d 35 e9 cc 3d
       0.08123259 0.019196926 0.08053959 0.10005418
000130 6d 38 62 3d 36 7a 8b 3d d8 01 98 3d a7 36 48 bd
       0.055229593 0.06810419 0.07422227 -0.048880246
000140 5a eb 6c bc 39 1e 2b 3d ed 9a 3b 3c 1c d8 9a bd
       -0.014460409 0.04177687 0.011450511 -0.07560751
000150 c8 45 8c bd d1 e1 e3 3d c5 d0 8a 3c 5a e4 73 3c
       -0.06849247 0.111270554 0.016945252 0.014885986
000160 ae dc 22 bc 30 33 89 3d f1 99 c2 bd 90 73 95 3d
       -0.009940309 0.06699216 -0.09502018 0.072974324
000170 07 a6 af bd 50 a3 c3 bc 80 3a 4f 3d 00 29 7e bd
       -0.08576589 -0.023881584 0.0505929 -0.06205082
000180 0e d6 91 bb 92 0f b9 3d 07 e8 b5 3d a4 0a ce bc
       -0.004450566 0.09036173 0.08882146 -0.025151558
000190 18 cf 81 3d 89 07 29 bb 4c 33 92 bc a5 91 90 3d
       0.06338328 -0.0025791845 -0.017846726 0.070590295
0001a0 4b 22 aa 3d 3c 2b 87 3d 81 76 b1 3d 4b 07 02 3d
       0.08307322 0.06600043 0.08665181 0.031745236
0001b0 9c 7f 49 3d 94 98 34 3d 68 bc ab bd 36 86 5e 3d
       0.049193963 0.044090822 -0.08385545 0.054327212
0001c0 10 f6 c4 3c 16 63 c4 bd 3a 29 b1 bd 4b 56 15 3d
       0.024043113 -0.09589212 -0.086504415 0.03645925
0001d0 af ec a0 bd 00 33 ef bc 1a c5 92 bd 8d 49 95 3d
       -0.07857644 -0.029199123 -0.071665004 0.07289419
0001e0 17 0e 8f bd 5a 99 31 bd 5c 99 2b 3b 8f 73 3b 3d
       -0.06985109 -0.043359138 0.0026183939 0.045764502
0001f0 4c a6 e3 bc 6d f3 31 bd 0b 6e b4 3d 05 4b bc bd
       -0.027789257 -0.04344504 0.088100515 -0.09193996
000200 a0 a5 b6 39 4d b4 1f 3d b3 40 15 3c 65 6b 31 bd
       0.00034837145 0.038990308 0.009109664 -0.04331531
000210 6f 8b cf 3d 1d 4c b0 bd 6f 45 2f 3d b2 8a bf bd
       0.10134017 -0.086082675 0.042790826 -0.09352626
000220 8b be 7a bd 0b 15 97 3d 1f 7e a2 3d 90 9d b4 bd
       -0.061216872 0.073770605 0.07934212 -0.08819115
000230 64 dd a6 3d 06 e0 19 3d 65 cc c0 bd 3c ff 35 bd
       0.08147696 0.03756716 -0.09413985 -0.044432864
000240 b0 7f ad bd 30 f6 df bd 42 1a ac 3d 08 2a 73 bb
       -0.0847162 -0.109356284 0.08403446 -0.003710391
000250 ae 19 ed 3c 6a f1 59 3c bf 9e b4 bd cb 8f 57 3c
       0.02894291 0.0133021865 -0.08819341 0.0131568415
000260 8d d6 83 3d a8 d3 c5 bd 5e 51 31 3d e6 bc b6 3c
       0.06437407 -0.09659511 0.04329049 0.02230687
000270 79 a0 a4 3c d9 b8 4e bd aa c7 4e bd 22 7d 35 3d
       0.02009605 -0.050469253 -0.050483383 0.04430879
000280 8d 93 a8 3d 94 cd a0 3d af 40 96 bd 5f 1b 91 3b
       0.08231268 0.07851711 -0.07336556 0.0044283117
000290 8b 60 f6 bc d4 61 90 3d d4 96 47 bc 3d 6d 6f 3c
       -0.030075332 0.07049909 -0.012181956 0.014613447
0002a0 1f 84 c0 3d 32 e2 b5 bc 78 68 a4 3d bd 4e f5 bc
       0.094002 -0.022202585 0.08027738 -0.029944772
0002b0 9a d1 8c bb 09 09 46 bd ac 15 10 bc 8c 31 1e 3d
       -0.0042974474 -0.04834846 -0.0087942295 0.03862147
0002c0 03 6c cf bd e1 85 6b bd 40 bd 77 bd 94 da 47 3d
       -0.101280235 -0.057500724 -0.060483217 0.048792437
0002d0 fa 4b 62 bd 12 f2 c5 bd c3 b3 d8 bd cf 76 10 bd
       -0.05524824 -0.09665312 -0.10581162 -0.035269555
0002e0 c9 3a 72 3d 0f 23 cb 3c c1 9f 9f bd 2d 47 a8 3d
       0.059138093 0.02479699 -0.077941425 0.08216701
0002f0 70 9f 2d bd b4 a2 8c bd aa 22 c5 3c fe d0 8a bd
       -0.04238838 -0.06866971 0.02406438 -0.06778143
000300 73 74 52 bc f2 f8 49 3d 4c aa 97 3d 86 8c 3e bd
       -0.0128451465 0.04930968 0.074055284 -0.046520732
000310 8b 2d 85 3d a4 d3 a9 bd 6f 37 82 bd bf 81 b3 bd
       0.06502827 -0.0829232 -0.06358229 -0.087649815
000320 04 c1 f0 bc a4 ba 38 bc 72 c4 ec 3c 82 27 22 bd
       -0.029388912 -0.011274967 0.028902266 -0.03958846
000330 af de 58 bd 6e 86 af bd eb 3c b6 bd a6 c2 94 3c
       -0.052946743 -0.08570562 -0.08898338 0.018159222
000340 b5 0d 04 3d c8 a4 44 3d fe 8b dc bb 05 e3 5e 3d
       0.032239635 0.04800871 -0.0067305556 0.05441572
000350 d7 5d e8 3b 46 ae e5 bc 9b c6 ae bd e8 88 f7 bc
       0.0070912647 -0.028037202 -0.08533975 -0.03021665
000360 e7 b6 e3 3b 52 35 89 bd 52 5a 72 bd 81 4d d6 bd
       0.006949294 -0.06699623 -0.059168167 -0.104640014
000370 fe 43 95 3b b5 b6 cb 3c 5a 88 b7 3d 26 93 e3 3d
       0.0045552244 0.024867395 0.08961554 0.11112051
000380 a6 92 a7 bd 61 be 33 bd 9a 6d 81 3d 22 85 7d bc
       -0.08182268 -0.04388273 0.06319733 -0.015473636
000390 a6 e1 3c bd 7a f1 c4 bd bb 04 c7 bc 23 c1 d5 3c
       -0.046113633 -0.096163705 -0.024294248 0.026093071
0003a0 79 21 7a bd ce 98 be bd 04 8c cf bd 22 b3 00 bd
       -0.06106708 -0.09306489 -0.10134128 -0.031420834
0003b0 c8 cd c7 bc f9 f8 96 bd d0 04 d3 3d f6 92 ee 3c
       -0.024390116 -0.073717065 0.10303652 0.02912281
0003c0 00 59 aa bd 04 2a 23 bd d4 17 85 3d 8e 5f c5 3d
       -0.08317757 -0.03983499 0.064986855 0.09637366
0003d0 3a d5 6d bd 18 e5 b7 bc e0 c7 2d bc 11 19 1a 3d
       -0.058064677 -0.022448108 -0.010606736 0.03762156
0003e0 c5 07 c7 bb 23 20 43 bd e3 d1 8e bd 16 83 19 bd
       -0.0060739242 -0.04763807 -0.069736265 -0.03747853
0003f0 95 f0 05 bd ef 07 14 3d 39 89 7a bd 80 59 1f bd
       -0.03270014 0.03614038 -0.061166022 -0.038903713

convBlock2.0.bias f4 [10]
000000 f7 86 a3 3c 42 47 87 3d 4e de b8 3b c6 f4 1d 3d
       0.019961817 0.06605388 0.005641735 0.038563512
000010 0c e0 3a bd 7c f6 5f bd 4a 9f 31 3c f7 1d ab 3d
       -0.045623824 -0.054678425 0.0108412 0.08355325
000020 67 be 09 bd 22 11 89 3b
       -0.033628847 0.0041829506

convBlock2.2.weight f4 [10, 10, 3, 3]
000000 e8 fb a6 bd 33 66 57 bc e1 9f e8 3d 20 65 99 3d
       -0.08153516 -0.013146925 0.113586195 0.07489991
000010 d7 14 95 bd 64 88 27 bc ae d1 35 bd be 6a 00 3d
       -0.072793655 -0.010225389 -0.04438942 0.031351797
000020 77 f8 d6 3d fa 9d 96 3c af d3 d1 bd 0c 50 5c bc
       0.1049661 0.018385876 -0.102454536 -0.013446819
000030 40 a0 92 bd e1 47 93 3d c4 3f ec bc bb 4c 1a bd
       -0.071594715 0.07191444 -0.028839 -0.037670832
000040 a6 71 7c 3d 0e 24 92 bd b2 e9 9b 3d 20 48 a7 3d
       0.06163182 -0.07135783 0.07612933 0.081680536
000050 24 03 a0 bd 31 09 cd 3c d8 75 3e 3d de 8e 33 3d
       -0.07813099 0.025028797 0.046499103 0.04383742
000060 9e 19 84 3d d4 c3 7e 3d 14 be c5 bd 1c 3e f8 bc
       0.064501986 0.062198475 -0.09655395 -0.030303054
000070 67 3c 35 3c c3 25 15 3d cf 5b ce bd 97 e9 2b 3d
       0.011061764 0.036412966 -0.10076105 0.041970816
000080 e5 9e 3e 3d 55 10 58 3c 73 0e 55 3d 24 fe b2 3d
       0.046538252 0.013187488 0.052015733 0.0873988
000090 fa 60 ce bd 93 40 ef bd d7 ae 72 3d 7c a4 1d bc
       -0.100770906 -0.116822384 0.05924877 -0.009621736
0000a0 b4 66 83 bd 8a 1e 7a ba e6 6a 8a 3d 4e 06 98 3d
       -0.064160734 -0.0009541294 0.067586705 0.074230775
0000b0 79 b8 07 3d 8e 6c 25 3d f4 ec 25 3c f0 53 3b bb
       0.03313491 0.04038673 0.010127295 -0.0028583966
0000c0 3c 2a ba 3d 18 4a a6 bd c9 e8 d0 3d 00 cd cc 3b
       0.09090087 -0.08119601 0.1020065 0.006250024
0000d0 16 07 cd 3c 0a 6b 00 3d 53 81 56 3d 81 45 d2 bc
       0.025027793 0.03135208 0.052369427 -0.025667908
0000e0 59 a5 c0 bd bf 95 8b ba 76 4e 9d 3d ef cf b8 bd
       -0.094065376 -0.0010649486 0.07680981 -0.09024035
0000f0 ff c1 7a bd 29 4d b0 3d 5f 6c b7 3d 87 6d 92 3d
       -0.061220165 0.08608467 0.08956217 0.07149797
000100 e4 07 36 bd 2e b6 4a 3d b6 de 1b bd 23 f9 c7 3d
       -0.04444112 0.049490146 -0.03805419 0.09764316
000110 2e ab 70 3d 0c 13 03 3d e3 4e 79 bd 88 a0 12 3d
       0.058757 0.032000586 -0.060866248 0.035797626
000120 da a2 7e bd 36 3d 41 bd 90 dd 32 3c 8e f2 54 3c
       -0.062167026 -0.047177516 0.010917082 0.012997283
000130 8e 0e 1a bd b3 9b 75 bd 07 fe 92 bd 6a 03 df 3d
       -0.037611537 -0.05996294 -0.07177358 0.10889323
000140 89 4e e7 3a 1e 5a a8 3d c7 25 c1 3c c0 60 8a bd
       0.0017647307 0.082203135 0.023577584 -0.06756735
000150 78 46 42 bd 0e 86 51 bd e2 4e 81 bd c1 d6 5f 3c
       -0.047430485 -0.051153235 -0.06313874 0.013662041
000160 62 79 3b 3d 54 fa c8 3c 5c 7c 71 3d 4a 98 aa bd
       0.045770057 0.024533428 0.05895649 -0.08329828
000170 46 4d 80 3c c5 1d 56 3d da 76 e9 bd cc 46 21 3b
       0.015661847 0.052274484 -0.11399622 0.0024608849
000180 b2 9f 15 bd 78 e3 a9 bd e4 41 74 bd a3 a1 c0 bd
       -0.03652925 -0.08295339 -0.05963315 -0.0940583
000190 45 72 85 3d 62 73 f5 b8 92 d8 cb bc 97 04 3d bc
       0.06515936 -0.00011704002 -0.024883542 -0.011536739
0001a0 a6 6c 38 bd e1 a6 48 bd 64 39 d9 3c 2e 74 92 bd
       -0.04502549 -0.048987273 0.026516624 -0.07151066
0001b0 d6 b6 88 bd 15 e4 75 3d 0f 70 39 3d da c0 be 3d
       -0.06675498 0.06003197 0.045272883 0.09314127
0001c0 4b db 9a 3d e0 27 af 3b d0 01 a0 bc 63 20 a4 bd
       0.07561358 0.0053453296 -0.019532114 -0.0801399
0001d0 d5 a9 90 bd ad 4d 9c 3d 30 9d c0 bd aa 59 2d 3c
       -0.07063643 0.07632003 -0.09404981 0.01058046
0001e0 42 0d dc bd e0 be 68 3d 29 fc 9d 3c 33 39 b7 bd
       -0.10744716 0.056822658 0.019285278 -0.08946457
0001f0 77 c2 8b bd 0e fe 89 3c 8f 49 91 3d 26 d7 e6 bd
       -0.068242006 0.016844776 0.07094108 -0.11271505
000200 53 8d 9f bd aa 29 ea bd 43 33 3a 3c f1 8a d4 bc
       -0.07790627 -0.11433728 0.011364761 -0.025945159
000210 04 bf 86 bc 93 96 73 bd 7e 4e ef bd 64 5e 84 bd
       -0.016448505 -0.05946977 -0.11684893 -0.06463316
000220 3a 8f 57 3d 60 79 c6 bd 38 6f 20 bd 14 d3 c9 3c
       0.052626826 -0.09691119 -0.039168566 0.024636783
000230 7a d4 35 3d dc 1d 89 bc f0 82 c0 bd 18 f1 48 bc
       0.044392087 -0.01673787 -0.09399974 -0.0122645125
000240 0a 5a de bd db f0 46 bd 13 e3 57 3d f5 60 be 3c
       -0.10857017 -0.04856954 0.05270679 0.023239592
000250 07 ee 18 bd 6d 78 36 3d e1 78 ad 3b 73 ee e2 bd
       -0.037336376 0.04454844 0.005293951 -0.11080637
000260 ce b4 06 bd b5 9d 06 3c 18 5e de bd a8 48 43 3d
       -0.032887273 0.008216311 -0.10857791 0.047676712
000270 84 53 9f bc 57 78 22 bd e1 3f da bc b0 f0 21 ba
       -0.019449003 -0.039665546 -0.026641788 -0.0006177528
000280 f3 e9 ab 3d 35 b4 2c bd 69 0a a4 3d 16 69 87 3d
       0.08394232 -0.042164046 0.08009798 0.066118404
000290 c9 9b 13 bd c5 03 95 3d a8 14 ad bd 46 01 d6 bb
       -0.03603724 0.072761096 -0.084512055 -0.0065309135
0002a0 52 eb f7 bb e3 6e 5d bd 3c c7 fb bc 65 ad 04 bd
       -0.007565894 -0.054060828 -0.03073465 -0.032391924
0002b0 25 50 b0 3d c3 ff fe bc 8c 81 c7 bd 46 c8 bf bd
       0.08609036 -0.031127816 -0.09741506 -0.09364371
0002c0 2c ad b9 bc c0 21 b3 bd ab 3e 60 3d 40 ca c7 ba
       -0.022665583 -0.08746672 0.054747265 -0.001524277
0002d0 b9 56 02 bc 49 3c 9d 3d f4 19 59 bd 98 58 a6 3c
       -0.007955247 0.07677514 -0.053003266 0.020305917
0002e0 76 b0 e0 bd 08 e5 62 bd 27 72 ba 3d 04 a5 9c 3d
       -0.10971157 -0.055394202 0.09103804 0.07648662
0002f0 f0 4b 5b 3d 34 0d 97 bd bb 6d 89 3d c7 5c b5 bd
       0.053539217 -0.07375565 0.067103826 -0.088555865
000300 09 43 c9 3c db 91 0a bd 31 16 51 bd 36 71 87 3c
       0.024568098 -0.033830505 -0.051046554 0.016533475
000310 9b 75 1b 3c 75 3c 20 bd e0 c8 b3 3d 48 db 7b bd
       0.009488489 -0.039120156 0.08778548 -0.06148842
000320 c2 a1 c4 3c 0c 93 a0 bd ed e5 18 3d 15 7b e9 bc
       0.024002913 -0.07840547 0.03732865 -0.028501073
000330 8e 2d c1 3d 82 e7 58 bd 17 22 b6 bd f4 2c 1c 3c
       0.09432517 -0.052955158 -0.08893221 0.009532202
000340 19 80 ca bd b8 40 ed bd 5b c6 c2 bb f0 7c b0 bc
       -0.09887714 -0.1158461 -0.005944056 -0.02154395
000350 29 65 38 bd bc 05 b4 3d 19 6b d3 bd a6 8b 8f 3d
       -0.04501835 0.08790156 -0.10323162 0.07009058
000360 fa e7 f0 bd 8c a3 aa bd ca 66 dc 3c 19 52 bd 3b
       -0.11762996 -0.08331975 0.026904482 0.005777609
000370 ab df 6f bd 9c 97 2c 3d 2d 0d 94 bb 00 8a 31 3b
       -0.058562916 0.042136773 -0.0045181722 0.002709031
000380 7d e8 9f bc 0a 2d c9 ba 6f 26 4c 3d 01 5c 59 3a
       -0.019520039 -0.0015348506 0.04984134 0.0008291603
000390 58 b0 4a 3d ee f0 6b 3c 99 c3 8e bd bc 36 52 3d
       0.04948458 0.014400704 -0.06970901 0.05132173
0003a0 e5 12 ab bd 8e 6d 2e 3d 3c 01 bd 3d 66 9e 30 bd
       -0.08353213 0.04258495 0.09228751 -0.04311981
0003b0 f0 8e b2 bd 74 14 ca bc 7b 0c 86 bd ea fd bf bd
       -0.087186694 -0.024667956 -0.06545349 -0.09374602
0003c0 05 5d 91 3d 98 67 99 3b 55 89 c1 bd 07 a7 34 3d
       0.0709782 0.004681539 -0.09450022 0.044104602
0003d0 5a 37 26 bd 02 dd e0 3c 23 43 02 3d f1 92 ac 3d
       -0.04058013 0.027449135 0.031802308 0.08426464
0003e0 5d 8a 9e bd 5b 99 ba ba c1 15 95 3d 20 d9 84 bd
       -0.077412345 -0.0014236377 0.0727954 -0.06486726
0003f0 39 75 92 3d dd bf 11 bb 7f 45 ac 3d 10 d5 a3 bd
       0.07151265 -0.0022239604 0.08411693 -0.07999623

convBlock2.2.bias f4 [10]
000000 cc f9 6a bd 0b 00 8f 3c f9 d2 a0 3d 1e 12 56 bc
       -0.05736713 0.017456075 0.0785274 -0.013065843
000010 d7 5e 9a bb e6 e0 86 3d 48 c7 64 3d e1 4b b7 bd
       -0.004711013 0.06585865 0.055854112 -0.0895002
000020 81 59 bf bd d6 02 9a bd
       -0.093432434 -0.07520072

classifier.1.weight f4 [3, 34810]
000000 98 e2 a9 bb 09 d1 83 bb f4 0d 8f bb ec 4b dd 3b
       -0.005184483 -0.0040227217 -0.004365677 0.0067534354
000010 85 d6 34 3b 4d f1 bc 3b 3f 4e 10 3c ac 73 2a 3b
       0.0027593684 0.00576607 0.008807718 0.0026008887
000020 5e d4 41 3b 99 c3 8c ba 4b 65 c8 3a 19 34 d1 38
       0.0029576044 -0.0010739445 0.0015288977 9.9756006e-05
000030 2f cd 5a b9 fe 11 ed ba 50 e4 cc 3a 20 6a 0d 3c
       -0.00020866537 -0.0018087027 0.0015632007 0.008631259
000040 6b d0 cb 3b 85 c4 84 3b 32 3e ce 3b a2 8c e4 3a
       0.0062199137 0.0040517473 0.0062940354 0.0017436931
000050 f7 ef 24 3c fd 23 45 3c e3 3d 19 3c 4b 93 2b 3b
       0.010066978 0.012032506 0.009353134 0.0026180323
000060 ee 3b 41 3c e6 57 71 3b 5f b3 a7 3b c0 ac d1 3a
       0.0117940735 0.0036826073 0.0051178182 0.0015996918
000070 50 ee 1a 3c 3c 7b de 39 7e 30 90 3b 3f f1 e2 3a
       0.009456232 0.00042434956 0.004400312 0.0017314329
000080 76 ca c1 bb 6d 1c 23 bc 65 70 24 bb 83 d0 02 bc
       -0.005914028 -0.009955508 -0.0025091406 -0.007984283
000090 9c 27 33 39 99 c7 de ba a6 e6 35 bb c4 f3 a7 3b
       0.00017085526 -0.0016996741 -0.0027755885 0.0051254947
0000a0 73 eb 34 3b b3 4f 8b bb 37 52 86 bb 8f ec 1e 3a
       0.002760616 -0.0042514442 -0.0040991562 0.00060624717
0000b0 b0 ee 8a 39 46 9f 76 bb b5 05 c8 bb f4 59 ee bb
       0.00026499247 -0.0037631555 -0.006104196 -0.007273907
0000c0 45 36 1f 3a 3d 60 1e bb 2b 43 85 3b 39 a1 89 37
       0.00060734554 -0.002416625 0.004066845 1.6406748e-05
0000d0 af 25 0f 3c 84 aa 78 bb f1 34 85 3b f1 46 1f 3c
       0.008737012 -0.0037943432 0.004065149 0.009721504
0000e0 35 5d 09 bc d3 a8 08 bc 3c 21 f7 ba e3 d5 2a 3a
       -0.008384039 -0.008341032 -0.0018854509 0.0006516857
0000f0 cc 24 b0 3b 6f 18 4b 3a 3f 96 92 ba de a5 92 ba
       0.0053754803 0.00077474763 -0.0011183693 -0.0011188348
000100 97 87 15 b8 41 93 5e bb 47 31 b7 3a 4d 94 6b 3a
       -3.5650646e-05 -0.0033962282 0.0013976478 0.0008986637
000110 bc a2 86 3b ed 75 61 39 54 be 3a bc 6f 1a 61 bc
       0.004108755 0.00021501603 -0.011397917 -0.013739212
000120 46 e4 10 bc 6e cc 21 bc 9b b9 4c bc 85 0c 58 bc
       -0.008843487 -0.0098754 -0.012495424 -0.013186579
000130 7f 07 39 bc 4e 24 0d bc b5 3e 26 bc 2e dd 40 bc
       -0.011293291 -0.008614613 -0.010146786 -0.011771483
000140 d6 04 27 bc 20 93 a0 bc 14 03 8c bc ef 24 6b bc
       -0.010194024 -0.019601405 -0.017091312 -0.014352067
000150 76 32 91 bc d5 9e 67 bc c9 31 47 bc a1 9a 39 bc
       -0.017724257 -0.01413699 -0.012157866 -0.01132837
000160 a7 a9 8a bc c4 04 51 bc 6b b0 43 bb ad dd a6 bb
       -0.0169266 -0.012757484 -0.0029859792 -0.005092344
000170 52 97 21 bb 87 0e d5 bb 3c 5d ea bb 2b 39 82 3a
       -0.0024656844 -0.006501976 -0.0071522277 0.000993525
000180 66 88 a7 bb b6 7c 8a bb ca 85 13 bc 95 b1 84 bb
       -0.0051126955 -0.0042262925 -0.009004066 -0.0040494897
000190 ed ae 0b bc 3c d9 86 bc af f7 7e bc da 68 44 bc
       -0.008525592 -0.016461007 -0.015561982 -0.011987889
0001a0 d7 d3 2c bc 15 e2 2d bc 98 be ae bb 7b 37 83 bb
       -0.010548553 -0.010612984 -0.005332779 -0.0040044165
0001b0 3c b0 56 bb 65 69 20 3a a2 b3 63 3b b0 7e 05 bc
       -0.0032758852 0.00061192206 0.003474452 -0.00814788
0001c0 50 6a 1a bc 60 52 3d bc 97 12 71 bb 32 85 49 bc
       -0.009424761 -0.011555284 -0.0036784762 -0.012299823
0001d0 8f ab 13 3b 38 c2 3c ba e9 1f 12 3c c8 34 a9 3b
       0.0022532677 -0.00072005717 0.008918741 0.0051637627
0001e0 0e 9a 90 bb 6d ac 39 bc 0f d5 68 3b 41 77 1b bc
       -0.004412896 -0.011332613 0.0035527383 -0.009488882
0001f0 39 a7 e4 bb 3b 8c 4b bb c1 4f 24 b9 7f ee 8f bc
       -0.0069779423 -0.0031058926 -0.0001566997 -0.017569778
000200 74 47 7f bc 8d 59 60 bc 35 50 cb bb e0 ab a0 bc
       -0.015581001 -0.013693226 -0.00620463 -0.019613206
000210 6c 5a 3a bc ed 43 53 bb 09 43 0c ba ed c1 12 3b
       -0.011374097 -0.0032236532 -0.0005350565 0.002239342
000220 c4 47 09 bc 2e 15 e9 bb bc fc 31 bb 66 2a a2 bb
       -0.008378927 -0.0071131205 -0.0027158698 -0.004948902
000230 ea e4 3a bb 5b fe 10 bb 9e 9e b8 bb c2 9e 55 bb
       -0.002851779 -0.0022124264 -0.005634143 -0.0032595848
000240 44 8b 38 ba 69 51 cf bb 10 d2 0e bc 74 57 c8 bb
       -0.0007039795 -0.0063268435 -0.008717075 -0.006113941
000250 38 15 81 bc df e1 3c bc 89 2d 46 bc 78 3c a3 bc
       -0.015757188 -0.011528461 -0.012095817 -0.019926295
000260 eb 30 19 bc bc 6b 9d bc f9 f4 ec bc 45 ce de bc
       -0.009350042 -0.01921641 -0.028925406 -0.027197966
000270 48 f0 2e bc 25 62 36 bc 0f 26 45 bc 94 ca 18 3c
       -0.010677405 -0.011131798 -0.012033 0.009325642
000280 6b 11 9a 3a 78 8e 44 bc 03 e9 42 3b 98 16 17 3c
       0.0011754459 -0.011996858 0.0029740937 0.009221695
000290 ce 47 ea b9 7e 36 2a 3b 48 bf 91 3c 32 3d c6 3b
       -0.00044685457 0.0025972421 0.017791405 0.0060497755
0002a0 d7 5e 4f bc a1 04 41 bc 69 96 0a bc 9a 6b 66 3a
       -0.012656889 -0.011780889 -0.008458712 0.00087898376
0002b0 53 3a cf bb 4a ac c9 ba 83 9e 53 bb 80 c9 e4 ba
       -0.0063240915 -0.0015386429 -0.0032290525 -0.0017455071
0002c0 ba ac 56 3b 5d 86 48 3b 30 ec 46 bc 88 3d 70 bb
       0.0032756762 0.0030597665 -0.012141272 -0.003665777
0002d0 b6 50 fe bb 3c 89 9b bc 72 3c 44 bc a4 14 d0 bb
       -0.0077610863 -0.018986337 -0.011977302 -0.006350117
0002e0 07 08 58 3a af 55 04 b9 81 c6 37 bc a0 22 8b bc
       0.0008240942 -0.0001262042 -0.011216761 -0.016984284
0002f0 84 db b3 bb be f5 c8 3b 27 0d 2a bb 03 71 88 b9
       -0.005488815 0.0061328104 -0.002594778 -0.00026024142
000300 f8 42 8c 3c b2 90 c4 3b 29 4d b6 bb 24 00 4a ba
       0.017121777 0.0059986943 -0.0055633974 -0.00077057094
000310 71 33 8a 37 06 cc 21 3b 05 ac 97 bb 09 f8 d5 3b
       1.6474836e-05 0.0024688258 -0.0046286606 0.0065298122
000320 fb 7c ff 3b d4 3d 12 bb 17 e0 86 bc cc f7 ab bc
       0.0077968813 -0.0022314684 -0.016464276 -0.020992182
000330 32 cd 33 bc 94 27 bd bb 35 8e 64 bc e4 26 9d bb
       -0.010974215 -0.0057725403 -0.01394992 -0.004795896
000340 41 c8 4d bc 9e d2 f2 bb 88 39 db bb 51 74 81 3b
       -0.012559951 -0.0074103614 -0.006690208 0.0039506336
000350 0b 28 60 bc e2 9e 7a bc 96 45 20 bc f3 8a 56 bb
       -0.013681422 -0.01529667 -0.009782216 -0.0032736629
000360 f1 74 b8 ba d0 b7 2c 3c 58 cc 2a 3a 6a 4b ba bb
       -0.0014072937 0.010541871 0.0006515435 -0.0056852596
000370 a3 a9 26 3b 0c 00 94 3b 5d 7c 43 39 92 69 0e bb
       0.0025430701 0.004516607 0.00018642978 -0.0021730405
000380 be ce 36 3b 6d 37 0c 3c d1 2d 3f 3c f8 8e 0c bc
       0.0027894224 0.008558136 0.011668638 -0.008579008
000390 25 99 22 bc b1 39 a4 bc c5 af 38 bb 3f b7 0f bc
       -0.009924208 -0.02004704 -0.0028180939 -0.008771717
0003a0 6d c9 37 bc 90 c0 c8 bb e0 4c d7 b9 48 79 ae bb
       -0.011217457 -0.006126471 -0.00041065272 -0.0053245164
0003b0 04 7e 84 bc 3a f2 2b bc b8 df 9e bc 34 a7 d8 bc
       -0.01617337 -0.010494763 -0.019393787 -0.026446916
0003c0 fc fb 27 bc c5 bb e8 bb 8a ba 89 bc 4c 6c 8a bc
       -0.010252949 -0.007102462 -0.016812582 -0.016897343
0003d0 a7 f9 62 bc 83 aa 4c bc 73 73 d3 bb 81 5e 8a 3c
       -0.013853467 -0.012491825 -0.0064529716 0.016890766
0003e0 8e 79 c5 3a 5a 3d 42 bc ae c6 ef 3b ad 4e 0d bc
       0.0015066133 -0.011855448 0.0073173856 -0.008624715
0003f0 63 b6 74 bc 0c 0a ef bb fc fe 77 bc 42 ff 61 bc
       -0.0149360625 -0.007294899 -0.015136477 -0.013793768

classifier.1.bias f4 [3]
000000 01 35 fd ba 4a 23 fb bb 09 47 26 3b
       -0.0019318165 -0.007664119 0.002537193
