06_PyTorch_Going_Modular/models/model1.pth (torch, 433642 bytes, 10 tensors)

convBlock1.0.weight f4 [10, 3, 3, 3]
000000 92 31 07 bd 15 45 4c 3e 0d 43 cf 3d ac 3d 08 3e
       -0.03300626 0.19948228 0.10120211 0.13304776
000010 bb fb bc bd 9d cf 13 3d 4c 77 93 bd a9 50 21 3e
       -0.09227701 0.036086667 -0.072004884 0.15753426
000020 ab 25 0e be c1 7d 2f 3e b9 b1 96 bd 29 54 f7 bc
       -0.13881557 0.17137815 -0.07358117 -0.030191498
000030 f0 26 42 3e 04 05 3b 3e b8 da 4a 3e 33 f6 2a 3e
       0.18960166 0.18263632 0.19809997 0.1669548
000040 0d dc 19 3d 51 51 19 3e ae 3e 8a 3c fb e2 e1 bd
       0.037563372 0.14972426 0.016875591 -0.11029621
000050 0a 6d 3c 3e 29 81 c3 bd 15 d6 2c 3e dd 84 31 be
       0.1840097 -0.0954612 0.16878541 -0.1733584
000060 ef d4 1b 3d 53 68 46 3d b5 2c cc bd 3d 7a 28 3e
       0.038044866 0.048439335 -0.09969465 0.1645288
000070 6b 40 93 bb 48 b5 46 be 69 d6 76 bd 25 b2 37 be
       -0.004493763 -0.19405091 -0.06026307 -0.1793905
000080 14 e3 39 3e e9 60 e6 3c bc 2d 35 be c7 5d 8d 3d
       0.1815303 0.028122382 -0.17693228 0.06902652
000090 73 e4 b8 3d 57 24 1e 3e 9f 5d fe 3d f0 a2 13 bd
       0.09027948 0.1544355 0.124202006 -0.03604406
0000a0 98 3d 2c 3e 49 6d 1d be 9d 7b 00 be 86 ae e4 3b
       0.16820371 -0.1537372 -0.12547155 0.0069788126
0000b0 44 49 d8 3d 0f 38 81 bc 06 b2 43 be a0 d5 3b bd
       0.10560849 -0.015773801 -0.1911088 -0.045858026
0000c0 ae ab 4b bd 50 13 41 bc 82 6b d3 bc 43 2f 2a 3e
       -0.049724273 -0.01178439 -0.0258081 0.16619591
0000d0 ba 50 d7 3d c4 a2 5d bd 06 93 c7 3d 8a ed 07 3e
       0.10513444 -0.054110304 0.09744839 0.13274208
0000e0 5e c1 33 3e ba 25 1f 3e d5 42 8f bd 8f bd c8 3d
       0.17554232 0.15541735 -0.06995169 0.098017804
0000f0 73 ae 98 bd 74 26 f8 3d 6a 59 dc 3d b7 46 17 3e
       -0.074551485 0.12116709 0.10759242 0.1477307
000100 25 4c b5 3d 61 5c 26 3e bd 15 ab bc a5 04 c9 3d
       0.08852414 0.16246177 -0.020884389 0.09815339
000110 88 c0 96 3d 8f e5 3c be 6f f2 fa bd 5d bb bf 3d
       0.07360941 -0.18446945 -0.12253272 0.093619086
000120 c2 8b 8a 3c 86 7a c5 3c ba 81 18 be cf e5 3c be
       0.016912345 0.024106275 -0.14893237 -0.1844704
000130 66 ab 03 3e 92 1c 10 3e 82 12 b3 bd b1 9f c2 3d
       0.12858352 0.14073399 -0.087437645 0.09503115
000140 0e 62 2b bd 81 63 ae bd 95 43 69 3d 2d c2 26 3e
       -0.04184156 -0.085150726 0.056949217 0.1628501
000150 3c 66 08 3e f9 f3 b0 bd 30 57 ca 3d 50 05 50 3d
       0.1332025 -0.08640284 0.09879911 0.050786316
000160 1b 35 0b 3d a2 41 36 be 3d 90 0c be 0b d3 ae bc
       0.033986192 -0.17798474 -0.13726898 -0.021340868
000170 75 7b 41 3e 93 3c 0f be 60 ab a2 bc b1 c3 88 3d
       0.18894751 -0.13987951 -0.019857109 0.0667795
000180 9e 99 46 be 4e 79 0b 3e 30 2a 12 3e 17 7d 0a 3e
       -0.19394538 0.13620493 0.14273906 0.1352428
000190 9a 79 f2 3d ab 61 05 be ee e4 fd 3c 05 1a cc bd
       0.118396 -0.13025539 0.030992951 -0.099659
0001a0 15 60 f2 bc 90 10 c9 bd 5a fe 0f be 6d 60 f0 3d
       -0.029586831 -0.09817612 -0.14061871 0.11737142
0001b0 a5 67 1d 3d f4 76 4d 3e 3e 6f 00 3e e8 c0 8c 3b
       0.03842892 0.20064908 0.12542436 0.004295457
0001c0 77 ad 9e bd b7 d7 ae bd 40 a1 a8 bd d7 ea 1b 3e
       -0.077479295 -0.08537238 -0.08233881 0.15226303
0001d0 fd 7a 65 3d f1 f0 83 bd d0 d6 23 3c 3f eb 39 be
       0.056025494 -0.0644244 0.009999946 -0.18156146
0001e0 a4 a8 b8 3d 8f 22 bb 3d 47 bf a3 3d 92 2b 25 3e
       0.09016541 0.09137451 0.07995468 0.16129902
0001f0 8f b1 37 be 6d 66 b6 bc 34 3d f1 bd b9 dd e1 bc
       -0.17938827 -0.022265637 -0.11779252 -0.027571546
000200 a0 bb 82 bd 49 bb cb 3d 10 e0 46 bb 37 5f 1a 3c
       -0.06383443 0.09947831 -0.0030345954 0.009422115
000210 f8 3d cd bc 88 92 01 be f7 0d 5d bd 15 5d 38 3e
       -0.025053963 -0.12653553 -0.053968396 0.18004258
000220 e0 5d fc bc a6 ba b6 bd 51 4f bf bb f5 2b b5 bb
       -0.030806482 -0.08922319 -0.0058383127 -0.0055289217
000230 35 e5 9a bd 4b 4b 07 bd ff dc c8 bd a4 da 21 3d
       -0.07563249 -0.03303079 -0.09807777 0.039515153
000240 45 c0 c1 bd 0e 8f 3a 3e 4f af f6 bd 91 7f 44 be
       -0.09460501 0.18218634 -0.12045156 -0.19189288
000250 ba 9b 01 3e 9e 1e ba 3c 9d 15 4b bc 66 5e a6 3d
       0.12657061 0.022719678 -0.01239529 0.08123474
000260 4b 2a d5 bd f2 85 fb 3d 31 ca 43 3e 25 ad db bd
       -0.10408457 0.122814074 0.19120099 -0.10726384
000270 88 28 38 3e 04 18 35 bd 37 e5 a5 bd 13 d4 ec 3d
       0.17984211 -0.044212356 -0.0810036 0.115638874
000280 3a 8b 12 3e 96 77 27 be 26 61 13 3e d6 79 3a 3e
       0.14310923 -0.16354212 0.14392528 0.18210539
000290 7c de db bd e6 a6 27 bd 19 aa 16 3e 53 42 3c 3e
       -0.10735795 -0.04093065 0.14713325 0.18384676
0002a0 26 cf 61 bd 81 b6 89 bd 21 5b 32 bd d0 80 37 3e
       -0.055129193 -0.06724263 -0.04354394 0.17920232
0002b0 ca 69 fb 3d 24 63 e9 3d 40 78 98 bc 0d c8 1b 3e
       0.12276037 0.11395863 -0.018612027 0.15213032
0002c0 57 9d 29 3e 83 36 db 3d 88 f8 57 bd 09 58 fe 3d
       0.16563927 0.10703757 -0.052727252 0.12419135
0002d0 70 0c 01 be 39 b6 0b bd 8a 78 57 bd d9 c1 fc bd
       -0.12602401 -0.034109328 -0.05260519 -0.12341661
0002e0 81 a3 9c 3d 04 25 f4 bd dd da 07 be 2a eb ef 3d
       0.076483734 -0.11921123 -0.13267083 0.11714776
0002f0 51 4b bd 3d ac 46 e3 3d 1b 4c 05 3d 40 c8 d2 3d
       0.09242881 0.11097464 0.032543283 0.10292101
000300 a4 2d 1f bd 5e b1 fd bd 9c 28 72 3d e0 25 dc 3d
       -0.038861886 -0.12387346 0.05912076 0.107494116
000310 0e 37 4a 3e 46 df 0f be 15 e9 40 3e b5 ee 0a be
       0.19747564 -0.14050016 0.18838914 -0.13567622
000320 f4 c3 41 3e 8d ee 24 3e 6a f6 94 bd 98 19 bb bd
       0.18922406 0.16106625 -0.07273562 -0.09135741
000330 9a f8 32 3e 53 54 3d be 9c 28 1c 3e dd 0c cf bd
       0.17477646 -0.18489198 0.15249866 -0.10109875
000340 82 d4 ce 3d 2a d1 82 3d 62 a1 a5 bd 03 a7 1b be
       0.100991264 0.06387551 -0.08087422 -0.15200429
000350 67 61 0d 3e 9a a5 7d bd 41 48 b4 3d cc 1e 36 3e
       0.13806687 -0.061925508 0.08802844 0.17785186
000360 9f 15 b5 3d 59 27 0c 3e 4a 71 01 be 38 69 b2 3d
       0.088420145 0.13686885 -0.12640873 0.08711475
000370 d5 47 db 3d 27 ff bb bd 27 d4 08 bd 56 f9 79 bd
       0.1070706 -0.09179526 -0.03340545 -0.0610288
000380 cd 74 95 bd 7f 41 fe 3d e4 a4 0b 3e 03 22 94 bd
       -0.072976686 0.12414836 0.1363712 -0.0723305
000390 f4 d9 21 be a6 1c 38 be e6 44 85 3d 56 90 f5 3b
       -0.15805799 -0.17979679 0.06507282 0.007494013
0003a0 28 c4 ce bd a5 07 27 3e 69 eb af 3d 8d dc 36 bb
       -0.100960076 0.1631151 0.08589823 -0.0027902455
0003b0 17 d6 a6 bd c7 0e 8e 3d 87 cb 18 bd 37 06 44 3d
       -0.08146303 0.06936412 -0.037303474 0.04785749
0003c0 6d 30 a3 3d df 83 aa bc 8a f3 1c 3e ed 3e 9a 3d
       0.07968221 -0.020814834 0.15327278 0.075315334
0003d0 38 13 5a bd da 3b dd 3d 49 f6 0d 3e 13 fa f1 bb
       -0.053240985 0.108024314 0.13863482 -0.0073845475
0003e0 cd db f6 3d de db 81 bd 0d fe 69 3d 59 6f 29 3d
       0.120536424 -0.063407645 0.057127047 0.041365955
0003f0 c7 f6 26 3e 02 73 45 be fe b3 27 bd 33 3d 15 3e
       0.16305076 -0.19282153 -0.04094314 0.14574127

convBlock1.0.bias f4 [10]
000000 c4 b3 16 bd 44 96 89 3d 53 e5 06 be d8 f5 e2 3d
       -0.03679253 0.06718114 -0.13173418 0.11082047
000010 6b d2 40 3e 89 56 90 3d cd 0e 07 3e 45 0e 8d 3d
       0.18830268 0.07047755 0.1318924 0.06887487
000020 9a 43 48 3d 74 95 de bd
       0.048892595 -0.1086835

convBlock1.2.weight f4 [10, 10, 3, 3]
000000 f2 f7 a0 3c ac 99 d9 3d 6d bd 82 bd e5 b2 e1 3d
       0.01964948 0.10625014 -0.06383786 0.110204495
000010 7f 03 ea 3d 93 9a 86 3d 05 d4 9c 3d 30 a9 bd 3d
       0.11426448 0.065724514 0.07657627 0.092607856
000020 17 c6 72 3d 5d 52 63 3d c7 55 88 3d 95 3a b4 bd
       0.059270944 0.05549847 0.06656986 -0.08800236
000030 23 f1 b2 bd 0d 4a 02 bd 61 8a 52 bd c2 be 81 bc
       -0.087373994 -0.0318089 -0.0514015 -0.01583803
000040 33 a9 de 3c 0f 3d 08 3d ab de fb 3d 88 43 bd 3d
       0.02718029 0.033261355 0.1229833 0.09241396
000050 39 73 9f bc 9c 3f ac 3d 86 ae d2 3c a5 23 15 3d
       -0.019464122 0.0841057 0.025717985 0.036410946
000060 48 0a 98 3c 97 ff 5a 3d 03 f6 c9 3d d1 ac 71 3d
       0.01855959 0.053466406 0.09861376 0.0590027
000070 d6 31 b4 3d 41 b8 20 3d c5 8f af 3c 2a 53 a3 bd
       0.08798568 0.03923822 0.02143086 -0.07974847
000080 49 0b 51 3d 8b 1a 3a bd 20 d7 95 3b 09 2c 44 bc
       0.051036153 -0.04543547 0.004572764 -0.011973389
000090 11 4b e5 bc 2a 4a cc 3c 6c c9 ee 3d cc fd 64 3b
       -0.027989896 0.024937708 0.11659512 0.0034941314
0000a0 d1 97 6a 3d d0 a5 d0 bb 06 47 e8 3d 57 73 75 bd
       0.05727369 -0.0063674226 0.11341672 -0.05992445
0000b0 01 70 e6 3d 4f 2d 34 bc 93 87 51 3b f7 f9 ad 3d
       0.11251832 -0.010997131 0.0031971678 0.08494943
0000c0 d3 3a 41 3d 0d fb 9d 3d dc 56 41 bc b2 fc 03 bd
       0.04717524 0.077139 -0.011800494 -0.03222341
0000d0 3c eb 1b bd 5b 8b 37 bc 60 03 69 bd 9a aa 9d 3d
       -0.038066134 -0.0112026585 -0.056887984 0.07698555
0000e0 0c 9f 44 bd 7f c8 e4 3b 72 4d 89 bd 96 4b b9 bd
       -0.04800324 0.006981909 -0.06704225 -0.0904762
0000f0 4f 75 e4 bc 83 53 db 3d 0d c2 c9 3d ef fd 05 3d
       -0.027887968 0.10709288 0.098514654 0.032712873
000100 1c f8 c4 bc 7d d9 26 3d 41 39 87 3d 44 fd e3 3d
       -0.024044089 0.040734757 0.06602717 0.11132291
000110 21 4f ab 3c 10 09 bf 3d 16 60 90 3d 58 02 a9 3d
       0.020911755 0.093279004 0.07049577 0.082524
000120 ef d4 d1 3d 44 88 1e bd 4b da cc bc 25 a0 00 bd
       0.10245692 -0.03870417 -0.025006434 -0.031402726
000130 39 3c 67 bd ea 21 d2 3d 22 8e a8 bc ce 93 ed 3d
       -0.056453917 0.10260375 -0.020575587 0.11600457
000140 dc c9 a6 bd 1b db 0c bd f4 52 b7 3d 29 f1 a5 bd
       -0.0814397 -0.034388643 0.08951369 -0.08102638
000150 db 1d 8f bd aa 2b 08 3d b6 22 93 3d 71 b3 4b 3d
       -0.06988116 0.033244766 0.07184355 0.049731676
000160 bc 1d 94 bd a8 72 d5 bc ba 71 55 bd 33 be e0 bd
       -0.07232234 -0.026055649 -0.05211041 -0.109737776
000170 be 2d dc 3a 6f 47 80 3c 16 39 d5 bc 86 39 ef 3c
       0.00167983 0.015659062 -0.026028197 0.029202234
000180 07 95 a7 3b c3 18 82 bd 68 1a e5 bb bb e8 84 bd
       0.005114201 -0.06352379 -0.0069916733 -0.06489702
000190 a2 7d fd bc 7b 7d d4 bd cc 56 9b 3c 06 ab 63 bd
       -0.030943695 -0.10375496 0.018962286 -0.055583023
0001a0 68 8a 56 bd 29 35 9b bd df ba 7b 3d 3b 73 88 3d
       -0.05237809 -0.07578499 0.06145751 0.066626035
0001b0 5b 85 eb bd 22 fc 95 bd 86 c4 c1 bd dd a2 4f bd
       -0.11500045 -0.07323481 -0.09461312 -0.050692428
0001c0 aa 47 92 bd 41 af ae 3d 90 27 81 bd 66 89 48 3d
       -0.07142575 0.08529521 -0.06306374 0.04895916
0001d0 90 4a 2d bd cc 3a 0c bc d8 af b0 3c 3f 52 cf bd
       -0.042307436 -0.00855894 0.021568224 -0.10123109
0001e0 1c da 64 3c 4a d3 ee bc 0b 62 e9 bb 5e 60 7b bd
       0.013968017 -0.029153485 -0.0071222833 -0.0613712
0001f0 1d 8b 85 bd da 60 8b bb e0 aa 4a 3d 6c ff b0 3d
       -0.065206744 -0.004253489 0.049479365 0.08642468
000200 0a 04 ad 3d 47 c3 c6 bd f3 12 42 bc 10 f2 bd 3c
       0.08448036 -0.09705215 -0.011845338 0.023186713
000210 79 b4 a1 bc 8e c2 9f bc 15 f3 9f bc 72 71 b0 bd
       -0.019739376 -0.01950195 -0.01952509 -0.08615388
000220 54 62 9f bd d1 45 49 bd ff b7 1a bd 31 01 2b 3a
       -0.077824265 -0.049138848 -0.03777313 0.000652331
000230 15 8a 44 3d 89 0a 97 bd 39 cd 58 bd 94 c9 a2 bd
       0.047983248 -0.07375056 -0.05293009 -0.07948604
000240 75 7f e6 bd 7e 36 98 bd 68 69 54 bc 7d 84 94 bd
       -0.11254779 -0.074322686 -0.012964584 -0.07251833
000250 5e ec a2 3a 3a 3e 8b 3d e2 15 f8 3b b8 84 15 3d
       0.0012430062 0.06798978 0.007570968 0.036503524
000260 dd 0b cc bc 9e 59 a2 3d a5 d0 0c bd 30 c5 c7 bd
       -0.024908 0.07927249 -0.034378666 -0.097544074
000270 73 50 1a 3d 21 3f 8c bd c0 90 8a 3c bf f8 01 bd
       0.03767438 -0.068479784 0.016914725 -0.031731363
000280 4d dd 1a 3d c4 0f 00 bd ed ad 0c bb bf 6e 6b 3c
       0.037808705 -0.031265035 -0.0021465973 0.014369666
000290 84 4d db bd 7d e4 a6 3d ed 87 c6 bd a6 6f b6 bd
       -0.10708144 0.081490494 -0.096938945 -0.08908014
0002a0 d7 d6 7b 3c 41 fb 93 3d 01 77 36 3d b8 76 32 3c
       0.015371046 0.07225657 0.044547085 0.010892563
0002b0 32 67 be bd 22 fa d5 bc d0 4a 95 bc 3b 29 7f bc
       -0.09297027 -0.02612025 -0.01822415 -0.015573795
0002c0 13 c9 a2 3d 04 c1 f4 3c df ab 8f bd 50 e3 a9 3d
       0.07948508 0.029877193 -0.07015204 0.082953095
0002d0 1f 2e be bd 7c e8 3f bd 33 93 45 bd dc af e8 bd
       -0.09286141 -0.046852574 -0.048236083 -0.113616675
0002e0 0d 0d d8 3b 8c 38 5b 3c 49 b2 24 bd 7c ba 82 3d
       0.0065933526 0.013380181 -0.04020909 0.06383225
0002f0 88 b0 7a 3c 68 af a2 3d c8 7b 99 bb dc 6b 5f bb
       0.015300877 0.07943612 -0.0046839453 -0.0034091389
000300 f9 e3 3a bb 9e ca 21 bd 77 d3 2b bd ad 2b 44 bc
       -0.002851723 -0.03949987 -0.041949715 -0.011973304
000310 ce 41 97 ba 50 34 ac 3d c9 89 5e bd 89 78 a5 bc
       -0.0011539997 0.08408415 -0.05433062 -0.020199077
000320 c1 74 99 bd a1 c3 6f 3c a0 80 0e 3b 64 2c ab bd
       -0.07492972 0.014634044 0.0021744147 -0.08358076
000330 0c f1 ef bc 45 9e 25 3d 02 4e 46 bd bd f3 f1 3c
       -0.029289745 0.04043414 -0.048414238 0.029535169
000340 be 0c 9a bc e2 1d cc 3c 3c 19 06 bd 2b 1e 21 bd
       -0.018804904 0.024916593 -0.03273891 -0.03933541
000350 08 3e 0e bd 73 77 9c 3d e8 9b e7 bd bc 8b 21 3c
       -0.034727126 0.07639971 -0.11309034 0.009859975
000360 97 07 ce bc 3c 72 8f 3d 69 4c 29 bd fa a7 8e 3d
       -0.025150103 0.0700421 -0.041332636 0.06965633
000370 91 28 65 bd df 9c 00 3d ba ba 9f 3b 2a 29 8d bd
       -0.05594689 0.031399604 0.0048745545 -0.06892617
000380 12 08 83 bd b4 50 6b bd ee 2f 2a 3b c2 83 82 3d
       -0.06398024 -0.05745001 0.002596851 0.06372787
000390 2d 00 7b 3d b3 50 a5 3c 81 ad 75 3c da 21 7b bd
       0.061279465 0.020180082 0.01499498 -0.06131158
0003a0 4f 9e eb bc 22 57 98 3d 4f ae a3 3d e9 d5 2f 3d
       -0.02876201 0.07438494 0.07992231 0.04292861
0003b0 ec 07 81 3c 4d 36 d9 bd b6 9b 80 bd d6 47 c9 bd
       0.015750848 -0.1060606 -0.062796995 -0.09828155
0003c0 71 20 90 3d f1 cb c1 3d d5 ff d3 bd 38 02 57 bd
       0.07037438 0.09462727 -0.103515305 -0.05249235
0003d0 04 86 a3 3d 69 76 7b 3c a1 7d 38 3d da 82 61 bd
       0.07984546 0.015348055 0.045041684 -0.05505643
0003e0 61 d3 3d bd 9d a8 c5 bd 94 d7 a5 3d 78 8a 92 bd
       -0.046344165 -0.09651301 0.08097759 -0.07155317
0003f0 b3 46 5b bd fa 4b 35 bd 0d b8 83 3d 18 54 ae bd
       -0.05353422 -0.04426191 0.06431589 -0.08512133

convBlock1.2.bias f4 [10]
000000 b6 c1 ca bb 0b 21 14 bc 5c c3 e0 bd 67 ba 3c bc
       -0.006187643 -0.009041081 -0.10974762 -0.011519051
000010 53 df 4c bc b0 aa 51 bd 5a 80 db bd d2 fe b7 3d
       -0.0125044165 -0.05118817 -0.107178405 0.0898415
000020 97 8b e7 3b 7a 1b 4f 3d
       0.007066201 0.050563313

convBlock2.0.weight f4 [10, 10, 3, 3]
000000 e4 8a e1 3c 8b 79 9e bd 11 1a 9f 3d 82 cf 70 bd
       0.027532049 -0.07738026 0.07768644 -0.058791645
000010 ef 5e 2f 3d 48 0c 24 3c 88 11 b6 bd 65 e0 ae bd
       0.042815145 0.010012694 -0.088900626 -0.085388936
000020 b8 a2 d3 bc e0 97 02 3d 33 b4 31 3c 9e 15 5b bc
       -0.025834426 0.03188312 0.0108461855 -0.013371853
000030 93 b7 9c 3d 2c 95 17 3d 9d b0 cb 3d 5a fe 86 bb
       0.076522015 0.037007496 0.09945796 -0.0041196765
000040 49 1c 7d 3d 08 da 93 3d 76 01 9d 3d 18 c3 8e bd
       0.061794553 0.072193205 0.07666294 -0.06970805
000050 1c 29 ae bc cd cb 01 bc 2b b8 e5 bc a7 47 18 bc
       -0.021259837 -0.007922125 -0.02804192 -0.009294427
000060 99 3d c6 3d a4 66 f8 bc c7 77 93 bd ff f0 cc 3a
       0.096797176 -0.03032238 -0.0720058 0.0015635787
000070 2a 2e d8 3d eb 84 9c 3d 2f c7 af 3d 85 29 d6 3c
       0.1055568 0.076425396 0.08582913 0.026142845
000080 d7 9f 83 bb 2b 5b 69 bd 39 72 c8 bd 73 f3 75 3d
       -0.004016857 -0.05697171 -0.09787411 0.060046624
000090 8f b5 8e bd ca 54 07 3d 69 9d 9d 3c fa 8e ca 3c
       -0.06968223 0.033039846 0.019240098 0.02472638
0000a0 d4 5e d1 3d 46 70 53 3d 15 11 a1 3b e8 99 b7 bd
       0.10223165 0.051620744 0.0049153664 -0.08964902
0000b0 6e 60 ac 3c df a7 8b bd 04 5b a0 3d 64 49 85 3d
       0.021042075 -0.06819128 0.0782986 0.06508139
0000c0 c0 c5 79 3d 1c a2 87 3d f3 74 42 3c 2c 34 98 bd
       0.060979605 0.06622717 0.011868703 -0.07431826
0000d0 60 44 f7 bc 9c c5 90 bc 8c 99 ad 3d 8f ba b6 bd
       -0.03018397 -0.017672352 0.08476552 -0.08922302
0000e0 6c 1d f1 3c c8 67 bb 3d cd a4 94 3d 9d 2b 51 3b
       0.029432975 0.09150654 0.07257996 0.0031916865
0000f0 32 a9 d4 3d 12 7f 43 3d 6b dd a9 bc ba 78 bc 3c
       0.10383834 0.047728606 -0.020735463 0.023006786
000100 bb a5 db bc ad 4e 70 3d 6e 36 8d bd 20 c6 3d bd
       -0.026812425 0.05866878 -0.06895147 -0.046331525
000110 2f 6b 6c 3d a7 08 ab 3b ed 1f a6 bd 16 b9 dc 3c
       0.057719406 0.0052195373 -0.08111558 0.026943725
000120 ce 58 a6 3d 84 43 9d 3c 44 f2 a4 3d 3b e8 cc 3d
       0.08122407 0.019197233 0.08054021 0.10005232
000130 55 38 62 3d 5d 7c 8b 3d 65 f7 97 3d dd 36 48 bd
       0.055229504 0.0681083 0.07420234 -0.048880447
000140 ce c2 6c bc 75 1e 2b 3d 3c 9e 3b 3c 8b d8 9a bd
       -0.014450742 0.041777093 0.0114513 -0.075608335
000150 9e 45 8c bd 1b e2 e3 3d 5f ce 8a 3c a7 fb 73 3c
       -0.06849216 0.111271106 0.016944109 0.014891542
000160 b9 d2 22 bc f0 34 89 3d 2b 9a c2 bd 53 73 95 3d
       -0.0099379355 0.0669955 -0.095020615 0.07297387
000170 56 a6 af bd f0 a3 c3 bc 4b 3a 4f 3d 6c 29 7e bd
       -0.08576648 -0.023881882 0.050592702 -0.06205122
000180 d1 d7 91 bb 88 0f b9 3d cb e7 b5 3d 82 0a ce bc
       -0.004450776 0.090361655 0.088821016 -0.025151495
000190 f8 ce 81 3d e0 06 29 bb e2 32 92 bc a7 91 90 3d
       0.06338304 -0.0025791451 -0.017846528 0.07059031
0001a0 44 22 aa 3d c7 2b 87 3d 7b 75 b1 3d 02 07 02 3d
       0.08307317 0.06600147 0.08664986 0.031744964
0001b0 a9 7f 49 3d 8f 98 34 3d 62 bc ab bd 46 86 5e 3d
       0.04919401 0.044090804 -0.083855405 0.054327272
0001c0 f9 f5 c4 3c 19 63 c4 bd 35 29 b1 bd 49 56 15 3d
       0.02404307 -0.09589214 -0.08650438 0.03645924
0001d0 ae ec a0 bd 07 2c ef bc f5 c5 92 bd 23 4a 95 3d
       -0.07857643 -0.029195799 -0.071666636 0.07289531
0001e0 18 0e 8f bd a3 9d 31 bd b9 52 2b 3b 8d 71 3b 3d
       -0.0698511 -0.043363225 0.0026141836 0.045762587
0001f0 2d b2 e3 bc 9e 00 32 bd 93 6d b4 3d f5 4b bc bd
       -0.027794922 -0.04345762 0.08809962 -0.09194175
000200 c1 d0 b5 39 51 b1 1f 3d 38 38 15 3c fa 6a 31 bd
       0.00034678544 0.03898746 0.009107642 -0.04331491
000210 1d 8b cf 3d aa 4c b0 bd 9d 41 2f 3d 5a 8a bf bd
       0.10133956 -0.086083725 0.042787183 -0.0935256
000220 38 bd 7a bd 63 15 97 3d 7d 7e a2 3d 4c 9d b4 bd
       -0.06121561 0.07377126 0.07934282 -0.088190645
000230 71 dd a6 3d 52 e0 19 3d 06 cc c0 bd 21 fe 35 bd
       0.08147705 0.037567444 -0.094139144 -0.04443181
000240 b0 7f ad bd 2e f6 df bd 45 1a ac 3d e0 29 73 bb
       -0.0847162 -0.10935627 0.08403448 -0.0037103817
000250 b8 19 ed 3c 77 f1 59 3c be 9e b4 bd dd 8f 57 3c
       0.028942928 0.013302199 -0.0881934 0.013156858
000260 8b d6 83 3d e1 d3 c5 bd 10 51 31 3d 22 bc b6 3c
       0.06437405 -0.09659553 0.043290198 0.022306506
000270 b5 9f a4 3c 10 b9 4e bd ea c7 4e bd e3 7c 35 3d
       0.020095685 -0.050469458 -0.05048362 0.044308554
000280 6f 93 a8 3d 70 cd a0 3d f5 3f 96 bd 63 1b 91 3b
       0.08231246 0.07851684 -0.073364176 0.0044283136
000290 30 60 f6 bc 2f 65 90 3d df a0 47 bc 19 85 6f 3c
       -0.030075163 0.07050549 -0.012184351 0.014619135
0002a0 b8 85 c0 3d 8c e7 b5 bc ac 68 a4 3d f3 4e f5 bc
       0.09400505 -0.022205137 0.08027777 -0.029944872
0002b0 b2 d2 8c bb 07 09 46 bd 3d 16 10 bc 90 31 1e 3d
       -0.004297578 -0.048348453 -0.0087943645 0.038621485
0002c0 04 6c cf bd da 85 6b bd 67 bd 77 bd 5f da 47 3d
       -0.10128024 -0.057500698 -0.060483363 0.04879224
0002d0 72 54 62 bd 04 e4 c5 bd bb d0 d8 bd ba aa 10 bd
       -0.055256315 -0.09662631 -0.10586687 -0.035319068
0002e0 73 1b 72 3d d5 42 cb 3c ff b5 9f bd 58 49 a8 3d
       0.05910821 0.024812141 -0.07798385 0.08217114
0002f0 bf 6f 2d bd d6 a2 8c bd a7 22 c5 3c 00 d1 8a bd
       -0.042342898 -0.06866996 0.024064375 -0.06778145
000300 1a 8f 51 bc 78 ec 49 3d ed a1 97 3d 86 8c 3e bd
       -0.012790466 0.04929778 0.07403932 -0.046520732
000310 fc 6d 85 3d 56 e7 a9 bd 4b 37 82 bd 28 81 b3 bd
       0.065151185 -0.08296077 -0.063582025 -0.08764869
000320 04 c1 f0 bc 12 b7 38 bc 5c c6 ec 3c 82 27 22 bd
       -0.029388912 -0.011274116 0.028903179 -0.03958846
000330 a4 dd 58 bd 6e 86 af bd f6 3c b6 bd 6e ff 94 3c
       -0.052945748 -0.08570562 -0.08898346 0.018188205
000340 c9 2a 04 3d 44 68 44 3d 80 f7 df bb 84 8e 5e 3d
       0.032267366 0.047950998 -0.006834924 0.054335132
000350 d7 5d e8 3b 8b 73 e5 bc 81 c6 ae bd e8 88 f7 bc
       0.0070912647 -0.028009197 -0.08533955 -0.03021665
000360 f9 a2 e3 3b 5b 35 89 bd 4a 5a 72 bd 05 5e d6 bd
       0.006946918 -0.0669963 -0.059168138 -0.104671516
000370 eb 1b 98 3b f3 3f cd 3c eb 86 b7 3d f2 5a e3 3d
       0.004642 0.025054907 0.089612804 0.11101331
000380 ea 91 a7 bd 18 9d 33 bd db 78 81 3d fa cc 7d bc
       -0.08182128 -0.04385099 0.063218795 -0.015490765
000390 c3 2b 3d bd 56 f1 c4 bd fd 06 c7 bc b3 64 d3 3c
       -0.046184313 -0.09616344 -0.024295324 0.025804853
0003a0 2e 1e 7a bd 2c 68 be bd 04 8c cf bd 22 b3 00 bd
       -0.061063938 -0.09297213 -0.10134128 -0.031420834
0003b0 c8 cd c7 bc f9 f8 96 bd d1 04 d3 3d f6 92 ee 3c
       -0.024390116 -0.073717065 0.10303653 0.02912281
0003c0 6e 59 aa bd 03 2a 23 bd e9 17 85 3d bd 5e c5 3d
       -0.083178386 -0.039834987 0.06498701 0.096372105
0003d0 12 bb 6d bd 10 6c b8 bc f2 46 2e bc 33 e7 19 3d
       -0.058039732 -0.022512466 -0.010637032 0.037574004
0003e0 db b4 c7 bb 70 2d 43 bd cb 19 8f bd aa dc 19 bd
       -0.0060945577 -0.047650754 -0.069873415 -0.037563957
0003f0 d0 b4 05 bd a9 14 14 3d 1c fd 7d bd 45 13 1f bd
       -0.03264314 0.036152516 -0.062008962 -0.038836736

convBlock2.0.bias f4 [10]
000000 32 91 a3 3c 0c 47 87 3d 84 5d b7 3b cd f4 1d 3d
       0.019966695 0.06605348 0.0055958647 0.03856354
000010 64 e0 3a bd 4d f6 5f bd 74 9d 31 3c be 1d ab 3d
       -0.04562415 -0.05467825 0.010840762 0.08355282
000020 67 be 09 bd 55 12 89 3b
       -0.033628847 0.0041830936

convBlock2.2.weight f4 [10, 10, 3, 3]
000000 50 0a a7 bd cb 78 57 bc 09 a1 e8 3d c5 56 99 3d
       -0.08156264 -0.013151358 0.1135884 0.07487253
000010 af 16 95 bd d4 7d 27 bc f7 ec 35 bd c0 66 00 3d
       -0.07279717 -0.010222871 -0.04441544 0.03134799
000020 39 fa d6 3d 2f a0 96 3c 40 d3 d1 bd 8f 4d 5c bc
       0.10496945 0.018386928 -0.10245371 -0.013446226
000030 6d 9f 92 bd a8 48 93 3d e1 3c ec bc 30 4b 1a bd
       -0.07159314 0.071915925 -0.028837623 -0.03766936
000040 fe 72 7c 3d 73 23 92 bd 0c 56 9c 3d 92 43 a7 3d
       0.061633103 -0.07135668 0.076336 0.08167185
000050 31 c7 9f bd a3 42 cd 3c 7c ff 42 3d de 8e 33 3d
       -0.078016646 0.025056189 0.04760693 0.04383742
000060 fe 47 84 3d d4 c3 7e 3d 14 be c5 bd 62 3d f8 bc
       0.06459044 0.062198475 -0.09655395 -0.030302707
000070 7c 3b 35 3c 4e 25 15 3d 7c 5b ce bd da e9 2b 3d
       0.011061545 0.03641253 -0.10076043 0.041971065
000080 f6 9e 3e 3d a5 14 58 3c 18 0f 55 3d 63 fe b2 3d
       0.046538316 0.013188516 0.052016348 0.08739927
000090 d6 60 ce bd b4 40 ef bd 35 ae 72 3d 23 a1 1d bc
       -0.10077064 -0.11682263 0.059248168 -0.0096209375
0000a0 85 66 83 bd 23 19 7a ba 8b 6b 8a 3d c5 06 98 3d
       -0.064160384 -0.0009540489 0.067587934 0.07423166
0000b0 2e b9 07 3d 8e 6c 25 3d a9 f6 25 3c 91 62 3b bb
       0.033135585 0.04038673 0.010129609 -0.0028592686
0000c0 96 28 ba 3d bf 49 a6 bd e9 e6 d0 3d 00 cd cc 3b
       0.090897724 -0.08119535 0.102002926 0.006250024
0000d0 59 01 cd 3c 17 6b 00 3d c2 80 56 3d 7f 48 d2 bc
       0.025025057 0.03135213 0.052368887 -0.025669334
0000e0 96 a6 c0 bd 42 a9 8b ba cc 4d 9d 3d ca d0 b8 bd
       -0.09406774 -0.0010655301 0.07680854 -0.09024198
0000f0 20 c1 7a bd 5a 4d b0 3d 4f 6c b7 3d fd 6b 92 3d
       -0.061219335 0.08608504 0.08956205 0.071495034
000100 4c 02 36 bd 67 ba 4a 3d ea 01 1c bd df f9 c7 3d
       -0.044435784 0.049494173 -0.038087763 0.09764456
000110 7b ab 70 3d aa e6 02 3d 3a 4d 79 bd 92 a0 12 3d
       0.058757287 0.03195826 -0.060864665 0.035797663
000120 da a2 7e bd 36 3d 41 bd 90 dd 32 3c 8e f2 54 3c
       -0.062167026 -0.047177516 0.010917082 0.012997283
000130 8e 0e 1a bd b3 9b 75 bd 07 fe 92 bd dc 02 df 3d
       -0.037611537 -0.05996294 -0.07177358 0.10889217
000140 34 46 e7 3a 1e 5a a8 3d c6 25 c1 3c c0 60 8a bd
       0.0017644824 0.082203135 0.023577582 -0.06756735
000150 76 46 42 bd 0e 86 51 bd dc 4e 81 bd c1 d6 5f 3c
       -0.047430478 -0.051153235 -0.06313869 0.013662041
000160 62 79 3b 3d 4b fa c8 3c c1 7b 71 3d 83 98 aa bd
       0.045770057 0.024533411 0.05895591 -0.083298706
000170 03 4c 80 3c 39 1d 56 3d d9 76 e9 bd 88 3c 21 3b
       0.015661245 0.052273963 -0.113996215 0.002460273
000180 fa 9f 15 bd 5e e3 a9 bd 62 42 74 bd 9e a1 c0 bd
       -0.03652952 -0.0829532 -0.05963362 -0.09405826
000190 45 72 85 3d 22 5e f5 b8 87 d8 cb bc 7a 04 3d bc
       0.06515936 -0.00011700044 -0.024883522 -0.011536712
0001a0 9c 6c 38 bd c1 a6 48 bd a0 39 d9 3c 1d 74 92 bd
       -0.045025453 -0.048987154 0.026516736 -0.07151053
0001b0 b8 b1 88 bd d9 e7 75 3d 8b 76 39 3d ac c3 be 3d
       -0.06674522 0.06003556 0.045279067 0.09314665
0001c0 4b db 9a 3d 9d 25 af 3b ee fb 9f bc dc 24 a4 bd
       0.07561358 0.00534506 -0.01952931 -0.08014843
0001d0 7e ce 90 bd b1 4d 9c 3d 2d 9d c0 bd b7 59 2d 3c
       -0.07070635 0.07632006 -0.09404979 0.010580472
0001e0 38 0d dc bd e9 be 68 3d 39 fc 9d 3c 25 39 b7 bd
       -0.10744709 0.05682269 0.019285308 -0.08946446
0001f0 6b c2 8b bd 44 fe 89 3c 91 49 91 3d 26 d7 e6 bd
       -0.06824192 0.016844876 0.0709411 -0.11271505
000200 53 8d 9f bd a3 29 ea bd 6d 33 3a 3c bd 8a d4 bc
       -0.07790627 -0.11433723 0.0113648 -0.025945062
000210 d6 be 86 bc 86 96 73 bd 6d 4e ef bd 64 5e 84 bd
       -0.01644842 -0.059469722 -0.116848804 -0.06463316
000220 3a 8f 57 3d 60 79 c6 bd 38 6f 20 bd 14 d3 c9 3c
       0.052626826 -0.09691119 -0.039168566 0.024636783
000230 7a d4 35 3d dc 1d 89 bc f0 82 c0 bd 18 f1 48 bc
       0.044392087 -0.01673787 -0.09399974 -0.0122645125
000240 06 5a de bd d4 f0 46 bd 1c e3 57 3d 06 61 be 3c
       -0.10857014 -0.048569515 0.052706823 0.023239624
000250 fc ed 18 bd 79 78 36 3d 0e 79 ad 3b 71 ee e2 bd
       -0.037336335 0.044548485 0.005293972 -0.11080635
000260 ca b4 06 bd c9 9d 06 3c 17 5e de bd b5 48 43 3d
       -0.032887258 0.00821633 -0.1085779 0.04767676
000270 7c 53 9f bc 52 78 22 bd ce 3f da bc 4d eb 21 ba
       -0.019448988 -0.039665528 -0.026641753 -0.0006176725
000280 01 ea ab 3d 15 b4 2c bd 69 0a a4 3d 16 69 87 3d
       0.08394242 -0.042163927 0.08009798 0.066118404
000290 c9 9b 13 bd c5 03 95 3d a8 14 ad bd 46 01 d6 bb
       -0.03603724 0.072761096 -0.084512055 -0.0065309135
0002a0 52 eb f7 bb e3 6e 5d bd 3c c7 fb bc 4c ad 04 bd
       -0.007565894 -0.054060828 -0.03073465 -0.03239183
0002b0 eb 4f b0 3d 63 ff fe bc 8e 81 c7 bd 48 c8 bf bd
       0.08608993 -0.031127637 -0.097415075 -0.093643725
0002c0 29 ad b9 bc c0 21 b3 bd ab 3e 60 3d b1 cb c7 ba
       -0.022665577 -0.08746672 0.054747265 -0.00152432
0002d0 b6 4d 02 bc 5a 3b 9d 3d 3d 1b 59 bd bc 61 a6 3c
       -0.007953098 0.07677336 -0.053004492 0.020310275
0002e0 18 b0 e0 bd 7d e4 62 bd cb 73 ba 3d bc a4 9c 3d
       -0.10971087 -0.055393685 0.09104117 0.07648608
0002f0 bc 4b 5b 3d 3f 0d 97 bd b5 6d 89 3d c9 5c b5 bd
       0.053539023 -0.07375573 0.06710378 -0.08855588
000300 ec 42 c9 3c ed 91 0a bd 30 16 51 bd 34 71 87 3c
       0.024568044 -0.033830572 -0.05104655 0.016533472
000310 77 75 1b 3c 6a 3c 20 bd 06 d6 b3 3d f4 ec 7b bd
       0.009488455 -0.039120115 0.08781056 -0.061505273
000320 2e a7 c4 3c 4f 88 a0 bd 50 be 18 3d d4 54 e9 bc
       0.024005499 -0.07838499 0.03729087 -0.028482832
000330 c6 3c c1 3d bf e7 58 bd 9a 19 b6 bd b1 2c 1c 3c
       0.0943542 -0.052955385 -0.08891602 0.00953214
000340 21 80 ca bd b2 40 ed bd 34 c7 c2 bb 23 7d b0 bc
       -0.0988772 -0.11584605 -0.005944157 -0.021544045
000350 1f 65 38 bd ac 05 b4 3d 29 6b d3 bd ad 8b 8f 3d
       -0.04501831 0.08790144 -0.103231736 0.07009063
000360 0b e8 f0 bd 90 a3 aa bd f6 66 dc 3c d4 50 bd 3b
       -0.11763009 -0.08331978 0.026904564 0.0057774577
000370 be df 6f bd 9b 97 2c 3d ce 0e 94 bb ff 87 31 3b
       -0.058562987 0.04213677 -0.0045183664 0.0027089117
000380 7b e8 9f bc d6 da c8 ba 75 25 4c 3d 7b c7 59 3a
       -0.019520035 -0.0015324007 0.04984041 0.0008307618
000390 65 b7 4a 3d 65 eb 6b 3c 9b c4 8e bd 49 34 52 3d
       0.049491305 0.014399384 -0.06971093 0.051319394
0003a0 db 12 ab bd 72 5e 2e 3d 20 01 bd 3d 91 9e 30 bd
       -0.08353206 0.04257054 0.0922873 -0.04311997
0003b0 f2 8e b2 bd 0d 15 ca bc 9d 0c 86 bd fa fd bf bd
       -0.08718671 -0.02466824 -0.065453745 -0.09374614
0003c0 d9 5c 91 3d 11 65 99 3b 6d 89 c1 bd 4a a7 34 3d
       0.070977874 0.0046812375 -0.0945004 0.04410485
0003d0 a8 37 26 bd fb dc e0 3c 69 43 02 3d ca 92 ac 3d
       -0.04058042 0.027449122 0.03180257 0.08426435
0003e0 5d 8a 9e bd fd 8e ba ba 9e 15 95 3d 1e d9 84 bd
       -0.077412345 -0.0014233288 0.07279514 -0.06486724
0003f0 2c 75 92 3d dd bf 11 bb 7f 45 ac 3d 10 d5 a3 bd
       0.07151255 -0.0022239604 0.08411693 -0.07999623

convBlock2.2.bias f4 [10]
000000 30 f9 6a bd 3a 00 8f 3c f7 d2 a0 3d f7 11 56 bc
       -0.05736655 0.017456163 0.07852738 -0.013065807
000010 a4 5e 9a bb fb e0 86 3d 49 c7 64 3d e1 4b b7 bd
       -0.004710989 0.0658588 0.055854116 -0.0895002
000020 81 59 bf bd d6 02 9a bd
       -0.093432434 -0.07520072

classifier.1.weight f4 [3, 34810]
000000 98 e2 a9 bb 09 d1 83 bb f4 0d 8f bb b2 75 dd 3b
       -0.005184483 -0.0040227217 -0.004365677 0.006758415
000010 da 7d 35 3b 3a f2 bc 3b ad 4e 10 3c 3c 83 2a 3b
       0.0027693422 0.0057661803 0.00880782 0.0026018163
000020 eb 09 42 3b 4f f1 8c ba 00 40 c8 3a 37 ae ce 38
       0.0029607962 -0.0010753068 0.0015277863 9.8552955e-05
000030 10 24 5c b9 31 e7 ec ba 3a cc cc 3a 2c 65 0d 3c
       -0.0002099427 -0.0018074272 0.0015624829 0.008630078
000040 ed c9 cb 3b c4 c8 84 3b b0 3b ce 3b bc 51 e4 3a
       0.00621914 0.0040522534 0.0062937364 0.0017419378
000050 27 ed 24 3c 16 21 45 3c 88 3c 19 3c 0b 9b 2b 3b
       0.010066307 0.012031814 0.009352811 0.0026184942
000060 01 42 41 3c 27 82 71 3b f6 c7 a7 3b 60 a3 d1 3a
       0.011795522 0.0036851258 0.0051202727 0.0015994124
000070 86 ee 1a 3c 13 7e de 39 af 32 90 3b 18 48 e3 3a
       0.0094562825 0.00042437072 0.004400573 0.0017340211
000080 94 bd c1 bb 57 1c 23 bc b4 6f 24 bb 4d 92 01 bc
       -0.005912492 -0.009955487 -0.0025090994 -0.007908416
000090 64 e5 36 39 a9 a0 de ba f8 d1 35 bb c4 01 a8 3b
       0.00017442327 -0.0016985136 -0.002774356 0.0051271636
0000a0 e5 09 35 3b f5 20 8b bb dd 47 86 bb 05 2b 1f 3a
       0.0027624306 -0.004245872 -0.0040979222 0.0006071779
0000b0 6d 00 8b 39 e1 9d 76 bb 5b 05 c8 bb 00 59 ee bb
       0.00026512463 -0.0037630724 -0.006104154 -0.007273793
0000c0 2d 09 20 3a 7c c1 1d bb c7 44 85 3b ae da 89 37
       0.0006104883 -0.0024071625 0.004067037 1.6433503e-05
0000d0 fa 25 0f 3c 84 aa 78 bb f1 34 85 3b 4e 48 1f 3c
       0.008737082 -0.0037943432 0.004065149 0.009721829
0000e0 98 57 09 bc f3 a8 08 bc 3c 21 f7 ba e5 01 2b 3a
       -0.0083827 -0.008341062 -0.0018854509 0.00065234146
0000f0 d0 e7 af 3b ca 5d 4a 3a 95 b1 92 ba e9 b6 92 ba
       0.0053682104 0.0007719664 -0.001119184 -0.0011193427
000100 d4 d5 17 b8 57 90 5e bb 76 28 b7 3a 44 7f 6b 3a
       -3.620035e-05 -0.0033960545 0.001397385 0.00089835026
000110 44 a1 86 3b d1 3a 61 39 d6 c0 3a bc 8f 1d 61 bc
       0.00410858 0.00021479583 -0.011398515 -0.0137399575
000120 a2 e8 10 bc 66 cf 21 bc 0c bb 4c bc b9 0d 58 bc
       -0.0088445265 -0.009876108 -0.012495767 -0.0131868655
000130 5d 0a 39 bc 43 27 0d bc e9 41 26 bc 5f df 40 bc
       -0.011293975 -0.008615318 -0.01014755 -0.011772006
000140 a0 06 27 bc c0 93 a0 bc b2 03 8c bc ea 26 6b bc
       -0.010194451 -0.019601703 -0.017091606 -0.01435254
000150 af 33 91 bc 8f a0 67 bc fc 32 47 bc a4 9b 39 bc
       -0.01772484 -0.014137401 -0.012158152 -0.0113286115
000160 ad ab 8a bc 79 07 51 bc cf b4 43 bb 8e e0 a6 bb
       -0.016927565 -0.012758129 -0.002986241 -0.005092687
000170 c1 99 21 bb 90 10 d5 bb b1 5f ea bb 68 35 82 3a
       -0.0024658295 -0.0065022185 -0.0071525206 0.0009934129
000180 e9 8f a7 bb 60 84 8a bb 7f 89 13 bc ac b6 84 bb
       -0.005113591 -0.004227206 -0.00900495 -0.0040500965
000190 ed b1 0b bc 15 db 86 bc b8 fd 7e bc 45 6c 44 bc
       -0.0085263075 -0.016461888 -0.015563421 -0.011988704
0001a0 b8 d8 2c bc 6c e4 2d bc 56 bd ae bb 95 39 83 bb
       -0.010549717 -0.010613542 -0.005332629 -0.004004667
0001b0 e4 a7 56 bb 51 ab 20 3a 9a be 63 3b 99 7c 05 bc
       -0.003275388 0.0006129044 0.0034751059 -0.008147382
0001c0 14 6c 1a bc 14 57 3d bc ae 17 71 bb a1 88 49 bc
       -0.009425182 -0.011556406 -0.0036787796 -0.012300641
0001d0 95 d9 13 3b 38 c2 3c ba 15 2b 12 3c c0 32 a9 3b
       0.002256011 -0.00072005717 0.008921404 0.0051635206
0001e0 07 a6 90 bb 74 b0 39 bc aa b4 68 3b 67 7c 1b bc
       -0.0044143233 -0.011333574 0.0035508075 -0.009490109
0001f0 f3 ae e4 bb 3c 83 4b bb 8b 98 25 b9 6b f1 8f bc
       -0.0069788634 -0.0031053564 -0.00015792453 -0.017571172
000200 cb 4e 7f bc 07 5e 60 bc 29 55 cb bb d8 ab a0 bc
       -0.015582751 -0.013694293 -0.0062052202 -0.019613191
000210 81 54 3a bc f4 14 53 bb 55 54 0c ba 6f c2 12 3b
       -0.011372686 -0.0032208534 -0.00053531426 0.0022393723
000220 ce 46 09 bc 30 24 e9 bb fa 11 32 bb 40 32 a2 bb
       -0.008378698 -0.0071149096 -0.002717136 -0.004949838
000230 ac dc 3a bb a0 fb 10 bb 03 a3 b8 bb 8c 94 55 bb
       -0.0028512878 -0.0022122636 -0.005634667 -0.0032589762
000240 25 6e 38 ba a0 4e cf bb 15 d3 0e bc 09 5a c8 bb
       -0.0007035456 -0.0063265115 -0.008717318 -0.0061142487
000250 1e 17 81 bc 45 eb 3c bc f3 32 46 bc 4d 42 a3 bc
       -0.015758093 -0.011530702 -0.012097108 -0.019929076
000260 c0 3c 19 bc fb 6e 9d bc de f8 ec bc b4 d2 de bc
       -0.009352863 -0.019217959 -0.028927263 -0.02720008
000270 21 fa 2e bc fc 66 36 bc 60 1c 45 bc 5c cf 18 3c
       -0.010679753 -0.011132952 -0.012030691 0.009326782
000280 04 30 9a 3a cd 83 44 bc b4 e4 42 3b 79 19 17 3c
       0.0011763577 -0.011994314 0.0029738368 0.009222382
000290 d7 4b ea b9 a8 d5 29 3b 2b c1 91 3c 58 3b c6 3b
       -0.00044688463 0.0025914703 0.017792305 0.006049555
0002a0 60 5c 4f bc d2 03 41 bc 29 d7 0a bc 43 14 66 3a
       -0.012656301 -0.011780696 -0.00847415 0.0008776823
0002b0 16 3d cf bb 79 a6 c9 ba f1 a3 53 bb 80 c9 e4 ba
       -0.0063244207 -0.0015384696 -0.0032293762 -0.0017455071
0002c0 ba ac 56 3b 7a 93 48 3b c5 f3 46 bc 53 45 70 bb
       0.0032756762 0.003060548 -0.01214308 -0.0036662414
0002d0 3b 54 fe bb e2 8a 9b bc 75 40 44 bc ca 18 d0 bb
       -0.007761506 -0.018987123 -0.011978258 -0.0063506113
0002e0 da 5c 58 3a 58 d6 05 b9 6b c8 37 bc ad 22 8b bc
       0.0008253582 -0.00012763718 -0.011217217 -0.016984308
0002f0 3c cd b3 bb e8 fb c8 3b 15 e6 29 bb f8 33 87 b9
       -0.0054871123 0.006133545 -0.0025924493 -0.00025787926
000300 9b 43 8c 3c 71 8c c4 3b e6 4d b6 bb 0d 15 4a ba
       0.01712208 0.005998187 -0.0055634854 -0.0007708825
000310 58 9a 83 37 44 c2 21 3b 13 b7 97 bb 54 04 d6 3b
       1.5688289e-05 0.0024682442 -0.0046299784 0.0065312777
000320 ca 75 ff 3b 16 53 12 bb ff e0 86 bc 4f fb ab bc
       0.007796024 -0.0022327355 -0.016464708 -0.020993857
000330 98 d2 33 bc e3 2c bd bb 3a 90 64 bc 72 2d 9d bb
       -0.010975502 -0.005773173 -0.013950402 -0.0047966773
000340 58 ce 4d bc 75 cd f2 bb a1 3c db bb 71 78 81 3b
       -0.012561403 -0.0074097463 -0.006690577 0.0039511253
000350 2b 2e 60 bc e7 a3 7a bc ce 4b 20 bc 57 89 56 bb
       -0.013682882 -0.015297866 -0.009783698 -0.003273567
000360 2f 41 b8 ba 20 bb 2c 3c 31 29 2b 3a 05 3c ba bb
       -0.0014057512 0.010542661 0.00065292703 -0.0056834244
000370 63 b3 26 3b 2d 03 94 3b 8b 4a 44 39 30 6e 0e bb
       0.0025436513 0.00451698 0.00018719786 -0.0021733157
000380 3e db 36 3b b9 31 0c 3c 71 2e 3f 3c a1 9b 0c bc
       0.0027901675 0.008556777 0.011668787 -0.008582027
000390 26 a6 22 bc a4 3d a4 bc 0d e2 3b bb 5f b3 0f bc
       -0.009927308 -0.020048924 -0.0028668672 -0.008770793
0003a0 34 d0 37 bc 06 db c8 bb e0 4c d7 b9 48 79 ae bb
       -0.011219073 -0.0061296253 -0.00041065272 -0.0053245164
0003b0 d7 7a 84 bc e5 f3 2b bc 93 e2 9e bc f0 a6 d8 bc
       -0.016171856 -0.010495161 -0.019395148 -0.02644679
0003c0 c2 ff 27 bc 9c bd e8 bb 65 ba 89 bc 03 6d 8a bc
       -0.0102538485 -0.0071026813 -0.016812513 -0.016897684
0003d0 6e f9 62 bc b1 a5 4c bc 41 64 d3 bb d4 63 8a 3c
       -0.013853414 -0.012490676 -0.00645116 0.016893305
0003e0 20 ae c5 3a 50 41 42 bc 13 c6 ef 3b 87 4b 0d bc
       0.00150818 -0.011856392 0.0073173135 -0.008623964
0003f0 93 bd 74 bc 7d 16 ef bb 7c 0c 78 bc 26 0a 62 bc
       -0.014937776 -0.007296382 -0.015139695 -0.013796365

classifier.1.bias f4 [3]
000000 1d 33 fd ba fc 22 fb bb 86 45 26 3b
       -0.0019317601 -0.0076640826 0.002537103
