10_PyTorch_RNN_and_LSTM/LSTM/lightning_logs/version_1/checkpoints/epoch=1000-step=2002.ckpt (torch, 7020 bytes, 12 tensors)

lstm.weight_ih_l0 f4 [4, 1]
1.4365274 0.39367807 0.99135804 0.7535471
00000000: 21e0 b73f 2c90 c93e a4c9 7d3f 76e8 403f

lstm.weight_hh_l0 f4 [4, 1]
0.55851483 1.3859335 1.6858022 1.0297004
00000000: d4fa 0e3f 4566 b13f 5ec8 d73f 39cd 833f

lstm.bias_ih_l0 f4 [4]
-0.5038076 0.9363494 0.1485723 0.86225444
00000000: 89f9 00bf 98b4 6f3f 5623 183e b5bc 5c3f

lstm.bias_hh_l0 f4 [4]
0.9253685 0.7066065 -0.41863006 1.5020342
00000000: f3e4 6c3f 2ae4 343f ae56 d6be a842 c03f

exp_avg f4 [4, 1]
-0.00023719925 -8.445297e-05 -0.0006224444 -0.0005451412
00000000: b0b8 78b9 581c b1b8 892b 23ba cfe7 0eba

exp_avg_sq f4 [4, 1]
0.0021580623 0.00072014594 0.009318083 0.0020010986
00000000: 476e 0d3b 2dc8 3c3a dfaa 183c dd24 033b

exp_avg f4 [4, 1]
-0.00019802903 -9.015544e-05 -0.0003877329 -0.0004905716
00000000: 03a6 4fb9 d511 bdb8 a148 cbb9 b499 00ba

exp_avg_sq f4 [4, 1]
0.00034894142 0.00018253039 0.001005768 0.00026226713
00000000: 20f2 b639 a165 3f39 f9d3 833a e680 8939

exp_avg f4 [4]
-0.00044638352 -0.00014608959 -0.00016812947 -0.0005773902
00000000: 9508 eab9 a02f 19b9 e94b 30b9 005c 17ba

exp_avg_sq f4 [4]
0.0037545445 0.0013527679 0.024779411 0.0019856992
00000000: ce0e 763b 5c4f b13a 31fe ca3c 8122 023b

exp_avg f4 [4]
-0.00044638352 -0.00014608959 -0.00016812947 -0.0005773902
00000000: 9508 eab9 a02f 19b9 e94b 30b9 005c 17ba

exp_avg_sq f4 [4]
0.0037545445 0.0013527679 0.024779411 0.0019856992
00000000: ce0e 763b 5c4f b13a 31fe ca3c 8122 023b
