10_PyTorch_RNN_and_LSTM/LSTM/lightning_logs/version_2/checkpoints/epoch=500-step=1002.ckpt (torch, 7020 bytes, 12 tensors)

lstm.weight_ih_l0 f4 [4, 1]
00000000: 7779 f63f 616d 1b40 2953 3540 b328 843f
1.9255818 2.428551 2.8332007 1.032492

lstm.weight_hh_l0 f4 [4, 1]
00000000: 6fd4 b740 b690 0840 9358 d73f 857a 1840
5.744682 2.1338325 1.6823906 2.382478

lstm.bias_ih_l0 f4 [4]
00000000: ca1e d5be 1bdf 0040 b098 a5be 8019 d43e
-0.41625053 2.0136173 -0.32343054 0.41425705

lstm.bias_hh_l0 f4 [4]
00000000: 0892 cd3e e9fc dd3f a9d6 18bf 17ea 163f
0.40150476 1.7342807 -0.59702545 0.5895094

exp_avg f4 [4, 1]
00000000: 6229 20b7 0124 feb3 277f 8cb7 650f 5fb9
-9.546378e-06 -1.1834346e-07 -1.674851e-05 -0.00021272672

exp_avg_sq f4 [4, 1]
00000000: 252d bb36 e387 4f35 785d 9a39 c613 ef3b
5.57829e-06 7.731125e-07 0.0002944281 0.0072960583

exp_avg f4 [4, 1]
00000000: 6bb3 19b5 0fd6 96b4 4b37 acb7 4814 5eb9
-5.725803e-07 -2.8095425e-07 -2.0529746e-05 -0.00021179125

exp_avg_sq f4 [4, 1]
00000000: 0ca1 4c34 9036 3834 379c 1f38 3daf e93a
1.9057569e-07 1.7156185e-07 3.805404e-05 0.0017828714

exp_avg f4 [4]
00000000: bcbb 16b7 c42d 9cb4 1e3d 18b8 854f 6cb9
-8.984407e-06 -2.9090563e-07 -3.6296544e-05 -0.00022536337

exp_avg_sq f4 [4]
00000000: 4769 9037 c96a 3436 e848 3a3b 9b49 1c3c
1.7215161e-05 2.6884247e-06 0.0028424803 0.009539033

exp_avg f4 [4]
00000000: bcbb 16b7 c42d 9cb4 1e3d 18b8 854f 6cb9
-8.984407e-06 -2.9090563e-07 -3.6296544e-05 -0.00022536337

exp_avg_sq f4 [4]
00000000: 4769 9037 c96a 3436 e848 3a3b 9b49 1c3c
1.7215161e-05 2.6884247e-06 0.0028424803 0.009539033
