09_PyTorch_Transformers_via_Paper_Replication/Vision Transformer/weights/ViT_4_epochs.pth (torch, 856578 bytes, 44 tensors)

cls_token f4 [1, 1, 16]
0	0xbbb55043	-0.0055332496
1	0xbc0db10c	-0.008648168
2	0x3cee6ed3	0.02910558
3	0xbb9e0ded	-0.0048234374
4	0xbc1cd406	-0.009572035
5	0x39fd7818	0.00048345397
6	0xbad968cc	-0.0016587018
7	0xbba6630e	-0.005077726
8	0xbba00994	-0.0048839543
9	0xbbca5a86	-0.006175342
10	0xbae5affb	-0.001752376
11	0xbb18d770	-0.002332177
12	0xbbac02fd	-0.0052493797
13	0xbbf5e648	-0.0075042583
14	0xbb999a2f	-0.0046875696
15	0xbbee1a1c	-0.007266296

positional_embeddings f4 [1, 50, 16]
0	0xbbb55043	-0.0055332496
1	0xbc0db10c	-0.008648168
2	0x3cee6ed3	0.02910558
3	0xbb9e0ded	-0.0048234374
4	0xbc1cd406	-0.009572035
5	0x39fd7818	0.00048345397
6	0xbad968cc	-0.0016587018
7	0xbba6630e	-0.005077726
8	0xbba00994	-0.0048839543
9	0xbbca5a86	-0.006175342
10	0xbae5affb	-0.001752376
11	0xbb18d770	-0.002332177
12	0xbbac02fd	-0.0052493797
13	0xbbf5e648	-0.0075042583
14	0xbb999a2f	-0.0046875696
15	0xbbee1a1c	-0.007266296
16	0xb39185bc	-6.776415e-08
17	0x339a8d91	7.1969346e-08
18	0x3559bff4	8.111813e-07
19	0x36aab2f6	5.0872286e-06
20	0xb4c59bf3	-3.6807577e-07
21	0xb6993725	-4.566175e-06
22	0xb32d5185	-4.0353843e-08
23	0xb40236ee	-1.2127177e-07
24	0xb232d7b2	-1.0410007e-08
25	0xaff5f502	-4.473933e-10
26	0xb6ae7c51	-5.2000764e-06
27	0xb2735a92	-1.4165055e-08
28	0xb5a5644b	-1.2322647e-06
29	0x305ce7d0	8.036496e-10
30	0xb0cf204d	-1.5070413e-09
31	0x3512cccb	5.468725e-07
32	0x34e1c9cb	4.205634e-07
33	0xb5e3e202	-1.6978595e-06
34	0xb69ea8b6	-4.7284075e-06
35	0xb12a7cfb	-2.48093e-09
36	0x30d64222	1.5589345e-09
37	0xb31f3b28	-3.7073875e-08
38	0x34aee913	3.257961e-07
39	0xb6c10ad5	-5.7531092e-06
40	0x39e16452	0.0004299009
41	0xba606fd3	-0.0008561585
42	0xb6a664ac	-4.9589053e-06
43	0x30e6054f	1.6736211e-09
44	0x316bb660	3.430067e-09
45	0x33b20fc7	8.291641e-08
46	0x3103996f	1.9150226e-09
47	0x320850dd	7.934628e-09
48	0xb3d0b31e	-9.718336e-08
49	0x304fda1f	7.561613e-10
50	0x31373c7e	2.666439e-09
51	0xb375a1a2	-5.7190512e-08
52	0x33c4abeb	9.158233e-08
53	0xb4556b85	-1.9876286e-07
54	0xb3a4076e	-7.6381966e-08
55	0x32ae9ebb	2.0328448e-08
56	0xb20ea129	-8.302131e-09
57	0xb9ac1e12	-0.000328288
58	0xb3d7b2eb	-1.0044263e-07
59	0x34c55fe9	3.6763893e-07
60	0x330a7b31	3.224267e-08
61	0x34d98b22	4.0520632e-07
62	0xb312fcb2	-3.42231e-08
63	0x36498c23	3.0032904e-06
64	0xb5f27e43	-1.8067152e-06
65	0xb520ba5c	-5.9875833e-07
66	0x346e9058	2.2217989e-07
67	0x32e28b61	2.6373245e-08
68	0x3960723d	0.00021404862
69	0xb1af9576	-5.110162e-09
70	0xb82f96e3	-4.1863776e-05
71	0x34c03123	3.5798539e-07
72	0x331c2653	3.6356436e-08
73	0xb524ab1f	-6.1343775e-07
74	0xb7f639df	-2.9352434e-05
75	0xb074fc5f	-8.9125324e-10
76	0xb203769f	-7.652175e-09
77	0x33c625ba	9.226956e-08
78	0x337ca82a	5.8826267e-08
79	0x39c731d7	0.0003799337
80	0xb7bce82d	-2.2519462e-05
81	0xb81249e3	-3.4877925e-05
82	0xb3b8737f	-8.589176e-08
83	0x36bddd03	5.658368e-06
84	0xb2369177	-1.0626869e-08
85	0x3270052a	1.3971013e-08
86	0x32805f45	1.4944485e-08
87	0xb707eba4	-8.101491e-06
88	0x345d72dc	2.0624014e-07
89	0x2f4c953f	1.8606715e-10
90	0x358a9b60	1.0327021e-06
91	0xb65be7e1	-3.2768514e-06
92	0xb3c69a7e	-9.2481955e-08
93	0x35ef4808	1.7827851e-06
94	0xb6583f2f	-3.2223286e-06
95	0x352d1926	6.448412e-07
96	0x31b06265	5.1334603e-09
97	0x30a6ca34	1.2135559e-09
98	0xb8695198	-5.562752e-05
99	0x36be31a1	5.668219e-06
100	0xb4b8d5f2	-3.4428336e-07
101	0xb4d8ad9c	-4.0359453e-07
102	0xba358975	-0.0006925085
103	0x37894348	1.6363003e-05
104	0xb191d7d7	-4.2445936e-09
105	0xaf1845f3	-1.384917e-10
106	0x349b038e	2.8873586e-07
107	0x35176ba4	5.640852e-07
108	0xb58dd85e	-1.056829e-06
109	0x3783ed34	1.5726873e-05
110	0x31ac24d2	5.010045e-09
111	0xb3b04dea	-8.209811e-08
112	0x333ce475	4.397994e-08
113	0xb1abfeb8	-5.005713e-09
114	0x31448581	2.8597642e-09
115	0xb7c1f257	-2.3120241e-05
116	0x312302a5	2.3721125e-09
117	0xaf90589e	-2.6256414e-10
118	0x375082ed	1.242825e-05
119	0xb60780e9	-2.0191603e-06
120	0xb0c41b28	-1.4268595e-09
121	0x352b4ef6	6.381737e-07
122	0xb58cd51a	-1.0492834e-06
123	0x35c4f693	1.46749e-06
124	0x34c5254d	3.672125e-07
125	0xb39494c0	-6.9188445e-08
126	0xb25c4970	-1.2822383e-08
127	0x380b10a0	3.3155666e-05
128	0x2e470f48	4.5260934e-11
129	0xb0b02a32	-1.2817678e-09
130	0xaed6ace2	-9.7623035e-11
131	0x345ad853	2.038153e-07
132	0xb6690581	-3.472291e-06
133	0x38375d70	4.371762e-05
134	0xb949b8e9	-0.00019237738
135	0xb4a03703	-2.984235e-07
136	0x3a6ec839	0.0009108815
137	0xaf2c9737	-1.5697031e-10
138	0x3027715b	6.0915334e-10
139	0xb5cad12f	-1.5111053e-06
140	0xb6c6d019	-5.9250856e-06
141	0x34f6ca0a	4.5968073e-07
142	0x394b74f7	0.00019403161
143	0x3120defd	2.3409819e-09
144	0xb0dc25e4	-1.6017876e-09
145	0x345c32c1	2.0507561e-07
146	0xb4017622	-1.2057038e-07
147	0xb4b7c01c	-3.4226184e-07
148	0xbaa5542e	-0.0012613588
149	0xb303e84d	-3.071209e-08
150	0xb6ba8040	-5.5581622e-06
151	0x312a1acc	2.4753488e-09
152	0xb5724083	-9.02459e-07
153	0x2ef6c1c1	1.12212024e-10
154	0xb01d809d	-5.729904e-10
155	0x384d1240	4.8892805e-05
156	0x35de35c0	1.6555932e-06
157	0x39d84ea8	0.00041257334
158	0x31182f61	2.2145843e-09
159	0x36ad7d8f	5.1704187e-06
160	0x3815ac68	3.5684934e-05
161	0xb79ede50	-1.893859e-05
162	0x35357b8a	6.760753e-07
163	0xb3f97602	-1.16164316e-07
164	0xaf5ccd74	-2.0081875e-10
165	0xb362c1a0	-5.2795826e-08
166	0xb30beb4e	-3.2577468e-08
167	0x3578ed0c	9.273215e-07
168	0xb55d57d5	-8.245673e-07
169	0x2f3fa2ce	1.7429189e-10
170	0xba200af6	-0.0006105149
171	0xb4b88fe2	-3.437736e-07
172	0x32f7a68b	2.883032e-08
173	0xb8123b39	-3.4864268e-05
174	0xb19b30de	-4.5166493e-09
175	0x347fdfaa	2.3830094e-07
176	0xb479b137	-2.3254402e-07
177	0xb4023b80	-1.212884e-07
178	0xb8857f41	-6.365637e-05
179	0x34f274c7	4.516098e-07
180	0x39d1851c	0.0003996276
181	0xb20e1ad7	-8.2715905e-09
182	0x39911e38	0.0002767907
183	0x3a67b424	0.0008838794
184	0x32d26eea	2.4497655e-08
185	0xb080de3b	-9.376387e-10
186	0xb74bbb54	-1.2143359e-05
187	0x33a2f180	7.5876414e-08
188	0x388a672f	6.599572e-05
189	0xb5bc3c09	-1.4024564e-06
190	0x3a66a8d5	0.00087989616
191	0x3a76fe4c	0.00094220485
192	0xb1361ad9	-2.6499747e-09
193	0xb2bc60eb	-2.1930154e-08
194	0xb2969b3c	-1.753289e-08
195	0x341e30db	1.473267e-07
196	0xb0231376	-5.932671e-10
197	0xb465748a	-2.1369684e-07
198	0xb869d786	-5.575225e-05
199	0xb79397a4	-1.7594379e-05
200	0xba4d4619	-0.0007830575
201	0x2f263d69	1.511943e-10
202	0x317e6f3e	3.7025099e-09
203	0x32522239	1.223139e-08
204	0x3481a0e9	2.41452e-07
205	0xb841a6b1	-4.617003e-05
206	0xb236cbb1	-1.0640108e-08
207	0x377d320a	1.5091626e-05
208	0xb65d47a1	-3.297326e-06
209	0xba0389e4	-0.0005017801
210	0xb2ce9fd7	-2.4054243e-08
211	0xb57a17b5	-9.3166756e-07
212	0x34f7a066	4.612404e-07
213	0xb2bf670a	-2.2282183e-08
214	0xb3aef92a	-8.147829e-08
215	0xb2f79372	-2.8821635e-08
216	0xb55bc296	-8.186702e-07
217	0xb18e931c	-4.1494683e-09
218	0x34efec18	4.4689e-07
219	0x36830d54	3.905656e-06
220	0xb4552b37	-1.9852892e-07
221	0x34074a07	1.2599786e-07
222	0x3604f939	1.98146e-06
223	0x33c52ca6	9.181649e-08
224	0x3485266c	2.4801136e-07
225	0x35db9700	1.6360718e-06
226	0xb3a7cb55	-7.8135294e-08
227	0xb0a35c83	-1.1886104e-09
228	0xb9e86ee3	-0.00044333105
229	0x318a0540	4.0169255e-09
230	0xb6f92cb6	-7.4259833e-06
231	0xb5194a9b	-5.7105507e-07
232	0xb4ff3bf8	-4.7541084e-07
233	0xb00c1f10	-5.0975846e-10
234	0xb7be44e6	-2.2681848e-05
235	0x3318aa33	3.5545053e-08
236	0xb1679268	-3.3698146e-09
237	0x33097183	3.2001036e-08
238	0xb3fbd293	-1.17264015e-07
239	0x323158e8	1.0322971e-08
240	0xb30c05c8	-3.2601548e-08
241	0xb5a2fd65	-1.2143688e-06
242	0xb156ebfa	-3.1275236e-09
243	0x38dbf037	0.00010487477
244	0xb2fd5711	-2.949267e-08
245	0xb4968ff5	-2.804442e-07
246	0xb3969709	-7.0123924e-08
247	0xb299b1bd	-1.789237e-08
248	0x363caa11	2.8113175e-06
249	0x30cd33eb	1.4930469e-09
250	0xb30b7083	-3.246579e-08
251	0x37ed5a4b	2.8294648e-05
252	0x30f0ac0f	1.75112e-09
253	0xb0f75ae9	-1.7997454e-09
254	0xb4827b60	-2.4304154e-07
255	0x376cf26d	1.412314e-05

weight f4 [16, 1, 4, 4]
0	0x2f8a9206	2.520581e-10
1	0xb0428bbd	-7.077537e-10
2	0x2f5c5a73	2.0041017e-10
3	0xafcbca85	-3.7069384e-10
4	0x2f0d0a75	1.282759e-10
5	0xb0757c2c	-8.930694e-10
6	0x2fc5cd0e	3.597979e-10
7	0x2ee61a0e	1.0463817e-10
8	0xb0046c6d	-4.81754e-10
9	0xb038ca51	-6.722632e-10
10	0x2dcc5375	2.3229177e-11
11	0xb0d48800	-1.5463684e-09
12	0xafa6e81a	-3.0360142e-10
13	0xb03d272e	-6.8813477e-10
14	0xb07c5874	-9.1802765e-10
15	0x2f43281c	1.7749396e-10
16	0xae5fe773	-5.0909898e-11
17	0x2f7020cc	2.1839525e-10
18	0xb01d9b15	-5.733665e-10
19	0x2f54ffa9	1.9372116e-10
20	0xb08ec15f	-1.0386819e-09
21	0xb0637c17	-8.275846e-10
22	0xb0896065	-9.995459e-10
23	0xb02849ec	-6.1223093e-10
24	0xb0ad0225	-1.2588016e-09
25	0xb02363e0	-5.9440985e-10
26	0xb098480f	-1.1079936e-09
27	0xb0a8dde6	-1.2286676e-09
28	0xb019c6e0	-5.5943694e-10
29	0x2e86a2a9	6.122509e-11
30	0xb0198498	-5.5849503e-10
31	0x2ebff2d7	8.7288114e-11
32	0xae910abb	-6.595743e-11
33	0x32dd7f43	2.5785658e-08
34	0x32f50d76	2.8527875e-08
35	0xb2b20e9f	-2.0728576e-08
36	0x32dacd15	2.54718e-08
37	0x32d8f82e	2.5258569e-08
38	0x32c6715e	2.3101787e-08
39	0x32f10d6f	2.8062201e-08
40	0x32f5f861	2.8634703e-08
41	0x3309e165	3.2102793e-08
42	0x331052df	3.3602984e-08
43	0x32f97d26	2.9044326e-08
44	0x32fce967	2.94428e-08
45	0xb28b0347	-1.618322e-08
46	0x3229341d	9.848944e-09
47	0x32e022af	2.6092804e-08
48	0xb1b2e276	-5.2062274e-09
49	0xb171c4d6	-3.5182004e-09
50	0xb1a2249f	-4.718984e-09
51	0xb1a73bd6	-4.8671422e-09
52	0xb1bc5246	-5.4808735e-09
53	0x31eb5c33	6.849882e-09
54	0xb15fa04a	-3.2541885e-09
55	0x31fbfca8	7.333785e-09
56	0x31379f73	2.6720641e-09
57	0x31a5c17d	4.824129e-09
58	0xb17a17bc	-3.639328e-09
59	0xb18418f1	-3.844541e-09
60	0xb188ee35	-3.985202e-09
61	0xb117be3b	-2.2081525e-09
62	0xb03e951f	-6.933351e-10
63	0x313f03ce	2.779632e-09
64	0xb1ad0b2a	-5.036232e-09
65	0xb20bbe30	-8.1341085e-09
66	0x31a9c672	4.941108e-09
67	0xb11cf089	-2.2837716e-09
68	0x323f17fc	1.1123117e-08
69	0x3220db8a	9.363143e-09
70	0x311fafbd	2.323744e-09
71	0x313f7184	2.7858684e-09
72	0x31f8ea2e	7.244373e-09
73	0x32091a09	7.980369e-09
74	0xb0e49994	-1.6632833e-09
75	0xb1877c96	-3.943181e-09
76	0xb2281170	-9.782852e-09
77	0xb349c88c	-4.6981356e-08
78	0xb356ec52	-5.004069e-08
79	0xb1ecd43d	-6.8926327e-09
80	0x3193cade	4.3013264e-09
81	0x320b51a3	8.109427e-09
82	0x3327cfdf	3.9071775e-08
83	0x332db844	4.044729e-08
84	0x3272aabc	1.4125074e-08
85	0xb1c66748	-5.7743e-09
86	0x321745ae	8.8052e-09
87	0x331b225d	3.6120003e-08
88	0x323cb7a2	1.09847935e-08
89	0x332be515	4.002239e-08
90	0xb1ee2102	-6.930464e-09
91	0x332cfba3	4.0275733e-08
92	0x331074e0	3.363391e-08
93	0x32b57490	2.112418e-08
94	0x32b7e3c6	2.1407583e-08
95	0x33207fd1	3.736915e-08
96	0x32bbab00	2.1847427e-08
97	0xb2bd8af8	-2.2065691e-08
98	0x326ad18d	1.3668239e-08
99	0xb2a06525	-1.8672447e-08
100	0xb292ec70	-1.7104156e-08
101	0xb11261a9	-2.130131e-09
102	0x3304aa84	3.0888728e-08
103	0xb28adb6c	-1.6165096e-08
104	0x31ed26bb	6.902011e-09
105	0x32f9d6fa	2.9085175e-08
106	0x329c3ed0	1.8189354e-08
107	0x315b0f30	3.1877327e-09
108	0x32928c7d	1.7060524e-08
109	0xb2b01c28	-2.05019e-08
110	0x32756952	1.4284824e-08
111	0x33054a43	3.1034016e-08
112	0x30999dee	1.1177101e-09
113	0xb153a982	-3.0800895e-09
114	0x303ca36f	6.8626255e-10
115	0x30a69f49	1.2123361e-09
116	0x31314a17	2.5799005e-09
117	0x30df9860	1.6268693e-09
118	0x301b401d	5.647978e-10
119	0xb006d6c4	-4.9054116e-10
120	0x30210d23	5.8590127e-10
121	0x30e3e781	1.6582221e-09
122	0x30dcef8c	1.607519e-09
123	0x31328356	2.5977065e-09
124	0x3127a4bb	2.4395337e-09
125	0x30035494	4.7777715e-10
126	0xb0cbf348	-1.4839339e-09
127	0xb1614fc5	-3.2787153e-09
128	0xafc752e0	-3.6256775e-10
129	0xad4de601	-1.1703972e-11
130	0xafce9e82	-3.7583808e-10
131	0xafec2674	-4.2955473e-10
132	0x2d0fa1ec	8.164563e-12
133	0x2eb2afab	8.125708e-11
134	0xafdacab2	-3.9797993e-10
135	0x2f34b5ea	1.6435533e-10
136	0x2f0780e4	1.232397e-10
137	0xaf2a21e2	-1.5473448e-10
138	0xaf2de400	-1.581526e-10
139	0x2f3debdc	1.7273244e-10
140	0x2bf710d8	1.7555081e-12
141	0x2f31cfca	1.6171878e-10
142	0xaf9cbf52	-2.8512176e-10
143	0x2f17c7e4	1.3804385e-10
144	0xb1011f6f	-1.8789839e-09
145	0xb0ccecf1	-1.4910296e-09
146	0xb0cc11af	-1.484798e-09
147	0xb0be5499	-1.3848364e-09
148	0xb1082b78	-1.9815314e-09
149	0xb0c5c779	-1.439033e-09
150	0xb0c1240f	-1.4052847e-09
151	0xb0c2b3b8	-1.4166437e-09
152	0xb0e391d1	-1.6557867e-09
153	0xb101d0c2	-1.8890636e-09
154	0xb0f86563	-1.8073191e-09
155	0xb0ca9ae8	-1.4741461e-09
156	0xb02cfd07	-6.293281e-10
157	0xb0ef1656	-1.7395887e-09
158	0xb104287a	-1.9231536e-09
159	0xb0ebb790	-1.7150672e-09
160	0x2e8b0d80	6.323386e-11
161	0x2ed31c85	9.600235e-11
162	0x2d4db93a	1.1694029e-11
163	0xae8ac966	-6.311289e-11
164	0xaea6a287	-7.577677e-11
165	0xaea81640	-7.643708e-11
166	0x2f18dc93	1.3902683e-10
167	0xad9fbf2a	-1.8161101e-11
168	0xae505700	-4.7370996e-11
169	0xaf2ac53c	-1.5531482e-10
170	0x2f75324f	2.2300493e-10
171	0xada46608	-1.8689952e-11
172	0xaf2c80b8	-1.5689039e-10
173	0x2e396091	4.2149898e-11
174	0xae5b0dfc	-4.9807256e-11
175	0xaef7fc34	-1.127706e-10
176	0xaf62935b	-2.0606931e-10
177	0x30bdb065	1.3801694e-09
178	0xaf4325af	-1.7748535e-10
179	0x309e5d5f	1.1522551e-09
180	0xb04c3b43	-7.4298984e-10
181	0xb012967b	-5.3328336e-10
182	0xadea24ef	-2.6619122e-11
183	0x30ffd834	1.861514e-09
184	0xb02a5f52	-6.19811e-10
185	0xafffc016	-4.6520715e-10
186	0x302a58eb	6.1972e-10
187	0x2e7fdd56	5.8176873e-11
188	0xaee10061	-1.0231883e-10
189	0x30dd1f7a	1.6088813e-09
190	0xaff6df2e	-4.4905718e-10
191	0xb00f4b3e	-5.213002e-10
192	0x31a24152	4.7222466e-09
193	0x30bf7f4a	1.3933257e-09
194	0x318d29cd	4.1083923e-09
195	0x31a24456	4.7225894e-09
196	0x30d3d684	1.541324e-09
197	0x317b5685	3.6574488e-09
198	0xb09ce512	-1.14156e-09
199	0x318697cf	3.917172e-09
200	0x316fd3a5	3.4899383e-09
201	0xb12ec326	-2.5431262e-09
202	0x309ca55d	1.1397493e-09
203	0x31885f94	3.968987e-09
204	0x317efa50	3.710415e-09
205	0xb1aea5ae	-5.082902e-09
206	0x314f8d95	3.0202945e-09
207	0x2f01c41d	1.1802155e-10
208	0x31e78f72	6.7392927e-09
209	0x31f2d607	7.067459e-09
210	0x31ee06c6	6.9274817e-09
211	0x31f2b1de	7.063348e-09
212	0x31ca86fe	5.8943206e-09
213	0x31b8436f	5.362771e-09
214	0x31be75e4	5.5431304e-09
215	0x31c6e98b	5.789109e-09
216	0x31e59a31	6.6823067e-09
217	0x31e6b6c6	6.71466e-09
218	0x31bd4537	5.5084928e-09
219	0x31c5bf25	5.755185e-09
220	0x31e9bc55	6.8026034e-09
221	0x320052ca	7.469405e-09
222	0x31faaaea	7.2953883e-09
223	0x31f347da	7.0803994e-09
224	0xb05ee087	-8.10822e-10
225	0xb1061560	-1.9511717e-09
226	0x32057ca9	7.769963e-09
227	0x3046da6a	7.2342365e-10
228	0xb1bac95a	-5.4362035e-09
229	0x3177363a	3.5974055e-09
230	0xb206627a	-7.8222175e-09
231	0xb1584432	-3.1470901e-09
232	0xb1d46c1a	-6.182302e-09
233	0xb10816b5	-1.9803512e-09
234	0xb171be80	-3.5178402e-09
235	0x311fe98e	2.3270306e-09
236	0x31ef922d	6.9724337e-09
237	0xaeb7de8f	-8.361411e-11
238	0x307e461e	9.2504304e-10
239	0xb06f3dda	-8.703559e-10
240	0x30a0d3b5	1.1701703e-09
241	0x308ecc66	1.0389953e-09
242	0x301557fc	5.433092e-10
243	0x30ac875c	1.2553119e-09
244	0x2d8001bb	1.4552684e-11
245	0x30a86d3a	1.2254653e-09
246	0xb0c58859	-1.4372389e-09
247	0x30513d2c	7.612069e-10
248	0x30daf3e5	1.5930907e-09
249	0xb0519988	-7.625194e-10
250	0xb1219f49	-2.3519127e-09
251	0xb18e2342	-4.1367523e-09
252	0x31991319	4.455057e-09
253	0xb29111d9	-1.6888338e-08
254	0xb1f6fd8a	-7.1883663e-09
255	0xb07f97cd	-9.298418e-10

bias f4 [16]
0	0xb025fa23	-6.0382116e-10
1	0xb08a4f93	-1.0063438e-09
2	0x32856911	1.5531016e-08
3	0xb229d73b	-9.886032e-09
4	0xb2040b68	-7.686005e-09
5	0x32bf3928	2.2261318e-08
6	0x331937c7	3.5673818e-08
7	0x315df23f	3.2297434e-09
8	0x2f7b6c82	2.2866867e-10
9	0x31196fd8	2.2328006e-09
10	0x2e7eb27f	5.791145e-11
11	0x316fad1b	3.4877476e-09
12	0xb03a8706	-6.7858286e-10
13	0xb11d183d	-2.2860285e-09
14	0xb1a72026	-4.8639945e-09
15	0x31bad261	5.4372298e-09

in_proj_weight f4 [48, 16]
0	0x3e5c83ee	0.21534702
1	0x3e19cfec	0.15020722
2	0x3de9fb9d	0.114249445
3	0xbe2b1f4b	-0.16711156
4	0x3cd668ef	0.026173083
5	0xbe3be26b	-0.1834809
6	0x3dc195b7	0.09452384
7	0x3e634e5e	0.22197863
8	0x3d824f16	0.06362741
9	0xbe6132a5	-0.21991976
10	0x3dd91b7b	0.106009446
11	0x3d9cd952	0.07658638
12	0xbe45c18d	-0.19312115
13	0xbe1e8b92	-0.1548293
14	0xbcfebc6c	-0.031095706
15	0x3d937655	0.072003044
16	0x3cfe3534	0.031031229
17	0x3ce6420e	0.02810767
18	0xbdca5358	-0.09879178
19	0x3e858db0	0.2608466
20	0x3d11dde6	0.03561201
21	0xbd1f7bc1	-0.03893638
22	0xbe0e69ab	-0.13907497
23	0xbe4b7faf	-0.19872926
24	0x3e8ac57d	0.27103797
25	0x3e9064c5	0.2820188
26	0xbd9696be	-0.073529705
27	0xbde8e563	-0.11371877
28	0xbe1b2cf6	-0.1515387
29	0x3d86e438	0.06586498
30	0xbcdf4fc3	-0.027259713
31	0xbcc663f4	-0.024217583
32	0x3db26fcf	0.08712732
33	0x3e63d1dd	0.22248025
34	0xbe9ab5ef	-0.3021693
35	0x3e84444a	0.2583335
36	0x3e970999	0.2949951
37	0xbdd89623	-0.10575511
38	0xbe1a8795	-0.15090783
39	0xbd70276c	-0.058631346
40	0xbe0b516b	-0.13605277
41	0x3e101934	0.14072114
42	0xbe101e07	-0.14073955
43	0xbd8f9dad	-0.07012496
44	0x3d0904e3	0.033451926
45	0xbdf7194a	-0.120653704
46	0x3e4721a0	0.1944642
47	0x3e494ca7	0.19658147
48	0x3cecac70	0.028890818
49	0xbdc081dc	-0.09399769
50	0xbccaaf64	-0.024741836
51	0xbe4360d5	-0.19079907
52	0x3e8df9ef	0.27729747
53	0x3e1eb837	0.1549996
54	0x3e6e44eb	0.23268478
55	0x3de817f9	0.113326974
56	0xbcb724ba	-0.02235638
57	0x3e9350fa	0.28772718
58	0x3dd7d393	0.105384015
59	0xbd07f6c1	-0.033194307
60	0x3e5062e0	0.20350218
61	0x3e3de678	0.18544948
62	0x3e0fd15b	0.14044707
63	0xbe52291b	-0.20523493
64	0x3e6f9e0c	0.23400134
65	0x3e930d6e	0.28721184
66	0xbe036580	-0.12831688
67	0x3e0e4f94	0.13897544
68	0xbe17f533	-0.1483963
69	0xbdbea6a1	-0.09309126
70	0x3e8aa342	0.2707768
71	0x3e346ee9	0.17620434
72	0xbe694b8d	-0.22782727
73	0x3e1faccd	0.15593262
74	0x3e954711	0.29155782
75	0xbe98a20f	-0.2981114
76	0xbe77124d	-0.24128075
77	0xbc10799d	-0.008818057
78	0x3e17488a	0.14773765
79	0xbe0dc784	-0.1384564
80	0x3d760471	0.06006283
81	0xbdf52956	-0.11970775
82	0x3cb09e85	0.021559963
83	0x3e98c00a	0.29834014
84	0xbe9abe48	-0.30223298
85	0xbe98d18a	-0.29847366
86	0x3d201122	0.03907884
87	0x3e809510	0.25113726
88	0xbe6a391b	-0.22873347
89	0x3e92f818	0.28704906
90	0x3e80dea1	0.25169852
91	0x3e85f97b	0.261669
92	0x3e760f52	0.24029282
93	0x3d1844a5	0.03717484
94	0x3db04f1f	0.08608841
95	0x3e3f8c19	0.18705787
96	0xbe827c63	-0.25485525
97	0xbc0721c3	-0.0082477955
98	0xbe4186f0	-0.18899131
99	0x3e469b7f	0.19395255
100	0xbdfd881d	-0.12379477
101	0xbdbfebef	-0.09371173
102	0xbe060526	-0.13087901
103	0x3dd2c4b1	0.10291422
104	0xbdc2289c	-0.09480402
105	0x3e5bcba9	0.21464409
106	0xbe78d297	-0.24299084
107	0xbe58e242	-0.2118006
108	0x3d710774	0.058845
109	0x3e8fb25f	0.28065774
110	0xbe7cfcf7	-0.24705873
111	0xbe98fabe	-0.298788
112	0xbe6aec28	-0.22941649
113	0x3dc9bb21	0.09850145
114	0xbe8be1e9	-0.27320793
115	0xbe62aa7e	-0.2213535
116	0xbe4d9a5a	-0.20078412
117	0xbe6a851b	-0.22902338
118	0x3e21e32d	0.15809317
119	0x3c8cfdc5	0.01721085
120	0xbe018fd4	-0.12652522
121	0xbd6bab9b	-0.057536703
122	0xbdc74395	-0.09729687
123	0x3e87c584	0.2651788
124	0xbe6446ec	-0.2229268
125	0x3e8b7e80	0.2724495
126	0xbd8f3c7d	-0.06993959
127	0xbe903581	-0.2816582
128	0xbe1bb40a	-0.15205398
129	0x3deb944c	0.11502895
130	0xbe0cd7f9	-0.13754262
131	0xbd93488f	-0.07191574
132	0x3e8ab78b	0.27093157
133	0x3ce1d37b	0.027566662
134	0xbe844620	-0.2583475
135	0xbe0802a1	-0.13282253
136	0xbe900bfa	-0.28134137
137	0xbe7ebf8b	-0.24877755
138	0xbe5e70e3	-0.2172275
139	0x3daa5840	0.083176136
140	0xbd57319f	-0.052537557
141	0xbe82357d	-0.25431433
142	0x3e54c48a	0.20778099
143	0x3e90f46a	0.28311473
144	0x3e82c43c	0.2554034
145	0x3cd3d99e	0.025860604
146	0xbe5f24a8	-0.21791327
147	0x3e52445a	0.20533887
148	0xbe994393	-0.29934368
149	0x3e75eaa3	0.24015288
150	0x3e8412be	0.2579555
151	0x3e06ab19	0.13151206
152	0xbc0539db	-0.00813147
153	0xbd2c3e2a	-0.04205147
154	0xbda84104	-0.08215526
155	0x3e7ba674	0.24575216
156	0x3e42af77	0.19012247
157	0xbcbafe92	-0.022826467
158	0xbded4791	-0.11585916
159	0x3dec40ed	0.11535821
160	0xbe8c93a9	-0.27456406
161	0xbe2790ce	-0.16363832
162	0x3e4f53e4	0.20246845
163	0xbe22c049	-0.15893663
164	0xbe868961	-0.26276687
165	0xbe7ffbd6	-0.24998412
166	0x3e0e39ca	0.13889232
167	0xbe309f96	-0.17248377
168	0xbe87e48a	-0.2654155
169	0xbe814def	-0.2525477
170	0x3dae4d2b	0.08510812
171	0x3cf2b1ef	0.029625861
172	0xbe1b7ff6	-0.15185532
173	0xbd8c3698	-0.068463504
174	0x3df4b0ff	0.11947822
175	0xbe8cc4f3	-0.2749401
176	0xbbeee506	-0.0072904853
177	0xbcc15273	-0.023598885
178	0x3cf7e9ab	0.030262789
179	0xbe235d8d	-0.15953656
180	0xbe6aee0e	-0.22942373
181	0x3e8c8753	0.27446994
182	0x3dbd67b1	0.09248293
183	0xbe84b504	-0.25919354
184	0xbc9a04e7	-0.018801166
185	0xbe943b9a	-0.28951722
186	0x3e765b1a	0.2405819
187	0x3d19f5bf	0.037587877
188	0x3c91f930	0.017819017
189	0xbdb5fe8a	-0.0888644
190	0x3e954bf4	0.2915951
191	0xbc898f48	-0.016791955
192	0xbe4f3c11	-0.20237757
193	0x3e09ab1e	0.13444182
194	0x3e8e32d9	0.2777317
195	0x3d51760d	0.051137973
196	0x3e23530d	0.1594965
197	0x3e7e649d	0.24843068
198	0x3e895fe8	0.26830983
199	0xbe4662fe	-0.193737
200	0xbcc53230	-0.024071783
201	0xbdfa07f2	-0.12208547
202	0xbe997a7e	-0.29976267
203	0x3e696068	0.22790682
204	0x3e9181d5	0.28419366
205	0xbdd05fba	-0.101745084
206	0xbd8baad0	-0.06819689
207	0x3dae36a5	0.08506516
208	0xbdcbcf63	-0.09951665
209	0x3e3492f2	0.1763418
210	0xbbf053d6	-0.007334213
211	0x3d4a48d1	0.04938585
212	0xbd62d27a	-0.055376507
213	0xbe360086	-0.17773637
214	0xbe1b780a	-0.1518251
215	0xbd99b3d4	-0.075050026
216	0xbd8872ec	-0.066625446
217	0xbe6cf8b9	-0.23141755
218	0x3e8a5e36	0.27025002
219	0xbc5ffb6b	-0.013670783
220	0x3e173441	0.14766027
221	0x3e96c24f	0.2944512
222	0x3e04a02d	0.12951727
223	0x3d3b6277	0.0457482
224	0xbe1c31e2	-0.15253404
225	0x3e870d88	0.2637751
226	0xbe064a7d	-0.13114353
227	0xbe1c906c	-0.15289468
228	0x3e845230	0.25843954
229	0xbe1bd3ac	-0.15217465
230	0x3dee5bcc	0.116386026
231	0x3da591f9	0.08084483
232	0x3e950179	0.29102686
233	0x3e5736a0	0.21016932
234	0x3e3c552d	0.18391867
235	0x3b126708	0.0022339243
236	0xbbca2aa9	-0.0061696363
237	0xbdb2e3e9	-0.08734877
238	0xbe136b3d	-0.14396377
239	0xbddea2e2	-0.10870911
240	0x3e1fd0e2	0.15607026
241	0x3cf17232	0.029473398
242	0x3e9150f7	0.28382084
243	0xbe7add75	-0.24498542
244	0xbe794bee	-0.24345371
245	0x3c73740e	0.014859213
246	0x3d7454e9	0.05965129
247	0x3d3b970d	0.04579835
248	0xbe78b711	-0.24288584
249	0x3ddf7cb7	0.10912459
250	0xbe94f7da	-0.29095346
251	0x3e6d4cf2	0.23173884
252	0x3e143cb6	0.14476284
253	0x3e5bdfb5	0.21472056
254	0x3e032005	0.12805183
255	0xbe1fceb1	-0.1560619

in_proj_bias f4 [48]
0	0x00000000	0.0
1	0x00000000	0.0
2	0x00000000	0.0
3	0x00000000	0.0
4	0x00000000	0.0
5	0x00000000	0.0
6	0x00000000	0.0
7	0x00000000	0.0
8	0x00000000	0.0
9	0x00000000	0.0
10	0x00000000	0.0
11	0x00000000	0.0
12	0x00000000	0.0
13	0x00000000	0.0
14	0x00000000	0.0
15	0x00000000	0.0
16	0x00000000	0.0
17	0x00000000	0.0
18	0x00000000	0.0
19	0x00000000	0.0
20	0x00000000	0.0
21	0x00000000	0.0
22	0x00000000	0.0
23	0x00000000	0.0
24	0x00000000	0.0
25	0x00000000	0.0
26	0x00000000	0.0
27	0x00000000	0.0
28	0x00000000	0.0
29	0x00000000	0.0
30	0x00000000	0.0
31	0x00000000	0.0
32	0x00000000	0.0
33	0x00000000	0.0
34	0x00000000	0.0
35	0x00000000	0.0
36	0x00000000	0.0
37	0x00000000	0.0
38	0x00000000	0.0
39	0x00000000	0.0
40	0x00000000	0.0
41	0x00000000	0.0
42	0x00000000	0.0
43	0x00000000	0.0
44	0x00000000	0.0
45	0x00000000	0.0
46	0x00000000	0.0
47	0x00000000	0.0

weight f4 [16, 16]
0	0x3e24a79f	0.16079567
1	0xbeb8b88b	-0.36078295
2	0x3ec3d778	0.38250327
3	0x3deee316	0.11664407
4	0xbecd89ae	-0.40144104
5	0x3e8a4dc2	0.2701245
6	0xbcbc2298	-0.022965714
7	0x3e5c6233	0.21521835
8	0x3e494d57	0.19658409
9	0xbe7f950a	-0.24959198
10	0x3ec28c64	0.37997735
11	0x3e7a3e02	0.24437717
12	0xbc3aebcd	-0.011408758
13	0x3dae83d7	0.0852124
14	0x3e5aabd7	0.21354614
15	0x3cee09c5	0.029057393
16	0xbdb78c52	-0.08962311
17	0xbed924dd	-0.42410937
18	0x3e9874d4	0.29776633
19	0x3eda6340	0.42653847
20	0x3e9b8256	0.30372876
21	0x3dfcd5fb	0.12345501
22	0xbed7fc02	-0.42184454
23	0x3dfcd7b6	0.12345831
24	0x3e2a0712	0.1660426
25	0x3ec1c451	0.3784509
26	0xbe41c8e1	-0.18924285
27	0xbe5861df	-0.21131085
28	0xbe9a725c	-0.30165374
29	0x3dcf96e4	0.10136202
30	0x3e4f8c72	0.2026842
31	0xbebe9e98	-0.37230372
32	0xbed4754e	-0.41495746
33	0xbed47589	-0.41495922
34	0xbed63c43	-0.4184285
35	0x3d2c7d9b	0.042111974
36	0xbe9923ed	-0.29910222
37	0xbed8b61d	-0.4232644
38	0x3cc5aa30	0.024129003
39	0x3eb1869b	0.34673008
40	0xbe202cbf	-0.1564207
41	0xbe042751	-0.12905623
42	0x3d8edc33	0.069755934
43	0xbdcb30db	-0.09921428
44	0x3e9f0123	0.31055555
45	0xbc5e07d8	-0.013551675
46	0x3c8b48a6	0.017002415
47	0xbe04475a	-0.12917843
48	0x3e9823a5	0.29714695
49	0xbde51752	-0.111860886
50	0x3e2cb9b0	0.16867709
51	0xbe2953d5	-0.16535886
52	0xbe2a0a84	-0.16605574
53	0xbc964510	-0.018343478
54	0xbdfb9aaa	-0.12285359
55	0x3e786e7f	0.24260901
56	0xbdbe90bd	-0.093049504
57	0xbea035da	-0.31291085
58	0x3e4d4c52	0.20048645
59	0x3ebaea4b	0.36506876
60	0x3e000a70	0.12503982
61	0x3ed5b6e9	0.41741112
62	0x3ec0e8e5	0.37677684
63	0xbe8f1f4e	-0.2795357
64	0xbe479a0c	-0.19492358
65	0xbdb5711f	-0.08859467
66	0xbecb1507	-0.3966448
67	0xbe4ec18f	-0.20191024
68	0x3e76c3d4	0.2409814
69	0x3ec6ceb2	0.3882957
70	0xbe237d5d	-0.15965791
71	0x3ead23fe	0.33816522
72	0xbc45113a	-0.012028033
73	0x3d085f29	0.033293877
74	0xbe1744a6	-0.14772281
75	0xbecee280	-0.4040718
76	0x3eda2cd9	0.4261234
77	0xbe87511b	-0.26429066
78	0x3e8a65c3	0.27030763
79	0xbe11285d	-0.14175554
80	0xbda754a9	-0.081704445
81	0xbe376921	-0.17911197
82	0xbeaf09a4	-0.34187043
83	0xbd295803	-0.0413437
84	0xbeb1cbd1	-0.34725812
85	0xbdff2dda	-0.12459917
86	0xbcdda8da	-0.027058054
87	0x3e835b46	0.25655574
88	0x3e03f676	0.12886986
89	0xbdbea2b2	-0.093083754
90	0xbea93f5a	-0.33056146
91	0xbdb174c8	-0.086648524
92	0x3ea8eb96	0.32992238
93	0xbeb4b3ee	-0.35293525
94	0xbd9a8019	-0.07543964
95	0xbeb78f3f	-0.35851476
96	0x3d1616c9	0.036642823
97	0x3e11842a	0.14210573
98	0x3e90afa8	0.28259015
99	0x3e8c4427	0.27395746
100	0xbeaa789a	-0.33295137
101	0x3e7083e7	0.23487817
102	0x3dea3281	0.11435414
103	0xbe6703f2	-0.22560099
104	0x3ea5eed8	0.32408786
105	0xbe3d8d63	-0.18510966
106	0x3ebae524	0.36502945
107	0x3c96d2c5	0.01841105
108	0xbe4feeac	-0.2030589
109	0x3e9a761e	0.3016824
110	0xbe6fa767	-0.23403703
111	0x3e69f743	0.22848229
112	0x3edadab2	0.42744976
113	0x3e1fffbd	0.156249
114	0x3db88f19	0.09011669
115	0x3ebbc2ef	0.3667216
116	0xbe27a50c	-0.16371554
117	0x3e113ca9	0.14183296
118	0x3e02966c	0.12752694
119	0xbec36bd4	-0.38168204
120	0x3e3cbcec	0.18431443
121	0x3eaceb2c	0.33773172
122	0x3e28d4b7	0.16487394
123	0x3ec28300	0.3799057
124	0xbe72b32e	-0.23701164
125	0x3e9f650a	0.31131774
126	0xbc292ca1	-0.010325582
127	0xbe36790a	-0.1781961
128	0x3eba4f7f	0.36388776
129	0xbe7a13d2	-0.24421623
130	0xbd698329	-0.05700985
131	0x3ec52866	0.38507384
132	0xbde422e9	-0.11139471
133	0x3e2b1ee5	0.16711004
134	0x3ec09906	0.37616748
135	0xbe3158a6	-0.17318973
136	0xbe7c74d6	-0.24653944
137	0xbedcf35c	-0.43154418
138	0x3dc2dc9b	0.095147334
139	0x3e3804d1	0.17970587
140	0x3e125dc4	0.14293581
141	0xbeab5e3d	-0.33470336
142	0xbe02bce2	-0.12767366
143	0x3e84914a	0.25892097
144	0xbe165fcc	-0.14684981
145	0x3ec1599a	0.37763673
146	0x3e96def4	0.29466975
147	0x3ed618d2	0.4181581
148	0x3e69a03e	0.22815034
149	0xbd83b243	-0.06430485
150	0x3dc49ece	0.09600602
151	0x3ed64e7e	0.4185676
152	0xbe15319b	-0.14569704
153	0x3d718dad	0.058973003
154	0x3e56a132	0.20959929
155	0x3eb1eb8e	0.34750026
156	0xbe8cfe0c	-0.27537572
157	0xbe36d98f	-0.1785643
158	0xbe8a13ee	-0.2696833
159	0xbce895ae	-0.028391685
160	0x3dab166c	0.08353886
161	0xbec503a1	-0.3847933
162	0x3eb08fe0	0.34484768
163	0xbdee0a30	-0.11623037
164	0x3edcfa27	0.431596
165	0x3e3e2619	0.1856922
166	0xbd35e930	-0.044411838
167	0x3d9e4e25	0.07729749
168	0xbde30ca2	-0.11086394
169	0x3ebd65ed	0.36991826
170	0xbd5caff3	-0.053878736
171	0x3ecf0ab9	0.40437868
172	0xbead72e3	-0.33876714
173	0xbe10aaa8	-0.141276
174	0x3dd78e15	0.10525147
175	0xbe9b8de2	-0.30381685
176	0xbe39290a	-0.18082061
177	0xbe29872a	-0.16555467
178	0x3eab1eed	0.33422032
179	0x3ea0ea28	0.31428647
180	0x3d8012c6	0.06253581
181	0x3e4dae16	0.2008594
182	0xbe95454a	-0.29154426
183	0xbe3dd9b9	-0.18540086
184	0xbed8abd6	-0.423186
185	0xbea1873f	-0.31548497
186	0x3eb58c54	0.35458624
187	0x3d8386c5	0.064221896
188	0xbe42180f	-0.1895449
189	0x3e8ea504	0.27860272
190	0x3d98fdc1	0.07470275
191	0x3e11e486	0.14247331
192	0xbe33bbfa	-0.17552176
193	0x3d85d528	0.06534797
194	0xbea77e69	-0.3271363
195	0xbe9c3111	-0.30506185
196	0x3ebb7f91	0.36620763
197	0x3ebcf422	0.3690501
198	0xbd92d153	-0.07168832
199	0x3e257da7	0.16161214
200	0xbe9e147c	-0.30875003
201	0x3e466ddf	0.1937785
202	0x3d251757	0.04030546
203	0x3e54aed7	0.20769821
204	0x3e9fe1b1	0.31226876
205	0x3e9edac9	0.31026295
206	0xbe3b88cf	-0.18313907
207	0xbe7f8bea	-0.24955717
208	0x3ea98f42	0.3311711
209	0x3e8abe07	0.27098104
210	0x3ec9648b	0.3933452
211	0x3c9ba0d9	0.018997597
212	0x3e5ae5da	0.21376744
213	0x3e8d15f4	0.2755581
214	0x3d64664d	0.055761624
215	0x3ebd6d6e	0.3699755
216	0x3e1c0d28	0.15239394
217	0xbe56c213	-0.20972471
218	0x3e065f50	0.13122296
219	0xbdea82db	-0.1145074
220	0x3e5608e6	0.20901832
221	0x3e9d88f3	0.30768546
222	0x3d8cbd56	0.068720505
223	0xbeaa9da8	-0.33323407
224	0xbd4358c5	-0.04769208
225	0x3eb8d490	0.36099672
226	0x3ec12562	0.37723833
227	0xbed5babf	-0.41744038
228	0x3dfab602	0.122417465
229	0x3e7d49b7	0.24735151
230	0x3d8db844	0.069199115
231	0x3e8b82f8	0.2724836
232	0x3da1a05e	0.07891916
233	0x3ed6b9ea	0.41938716
234	0xbe1741c8	-0.14771187
235	0xbecc1814	-0.3986212
236	0xbe8a32d7	-0.26991913
237	0x3edb2bf0	0.4280696
238	0x3c3b6b52	0.011439161
239	0xbdb0ff6c	-0.08642468
240	0xbe6ea1dc	-0.23303932
241	0x3db12e00	0.08651352
242	0xbd588f28	-0.0528709
243	0x3e921335	0.2853028
244	0xbd155626	-0.03645911
245	0x3e94fcec	0.29099214
246	0x3e77ab16	0.24186358
247	0xbece67e1	-0.40313628
248	0x3e8fbc79	0.2807348
249	0xbeb0c511	-0.3452535
250	0x3e78ac2c	0.24284428
251	0xbebcc1e9	-0.36866692
252	0x3e0dc4a6	0.13844547
253	0x3da3c99f	0.079974405
254	0x3e3211b6	0.17389569
255	0xbed80d78	-0.42197776

bias f4 [16]
0	0x00000000	0.0
1	0x00000000	0.0
2	0x00000000	0.0
3	0x00000000	0.0
4	0x00000000	0.0
5	0x00000000	0.0
6	0x00000000	0.0
7	0x00000000	0.0
8	0x00000000	0.0
9	0x00000000	0.0
10	0x00000000	0.0
11	0x00000000	0.0
12	0x00000000	0.0
13	0x00000000	0.0
14	0x00000000	0.0
15	0x00000000	0.0

weight f4 [2048, 16]
0	0x3d55e871	0.052223627
1	0xbd273b41	-0.040827993
2	0xbcaea503	-0.021318918
3	0x3d30027c	0.04297112
4	0xbbc1fbcc	-0.005919909
5	0xbd1c72e3	-0.038195502
6	0xbd38aac9	-0.04508475
7	0x3d0c3c73	0.034237336
8	0xbd557476	-0.05211302
9	0x3ccf9f27	0.025344444
10	0x3c196325	0.009362017
11	0x3cb00404	0.02148629
12	0xbd5a04fa	-0.053227402
13	0xb8c25ae8	-9.2675735e-05
14	0x3d0e736d	0.034778047
15	0x3b1658c1	0.0022941085
16	0xbc9edad9	-0.019391464
17	0x3cdf7de6	0.027281713
18	0x3d53eac0	0.051737547
19	0x3d0f97e9	0.035056982
20	0x3cc3f2a9	0.02391942
21	0xbd460b6f	-0.048350748
22	0x3ba10428	0.0049138255
23	0xbd2e7874	-0.04259534
24	0xbd06604a	-0.032806672
25	0x3d0e5273	0.0347466
26	0x3d436dcc	0.047712132
27	0x3ce6c345	0.028169284
28	0x3cd9ab62	0.02657098
29	0x3d386759	0.045020435
30	0x3d304ddf	0.043043014
31	0x3d1990d3	0.03749163
32	0x3d522e8f	0.051313933
33	0x3ca35f2f	0.019942848
34	0xbcf31d4f	-0.029677061
35	0xbd5b7f95	-0.05358847
36	0xbd5634d8	-0.05229649
37	0x3d37053c	0.044682726
38	0xbd53c42e	-0.051700763
39	0xbb9eed93	-0.0048500984
40	0xbd30ab9d	-0.043132413
41	0xbbb4e7ab	-0.005520781
42	0x3c8b9123	0.01703698
43	0xbcc1c98c	-0.023655675
44	0xbd5c066a	-0.053717054
45	0x3d46bc89	0.048519645
46	0xbd33f178	-0.043931454
47	0xbc39aaa7	-0.011332191
48	0x3d0dedab	0.034650486
49	0x3c20ddb7	0.009818486
50	0x3c3aced7	0.0114018535
51	0x3ca49e81	0.020095112
52	0xbd177376	-0.036975347
53	0x3d29d023	0.04145826
54	0xbbfcc81f	-0.007714286
55	0x3d15b55e	0.03654992
56	0xbcea8835	-0.028629402
57	0xbc4082a3	-0.011749896
58	0xbca72593	-0.020403659
59	0xbd16dc53	-0.03683121
60	0x3d29d9bc	0.041467413
61	0xbc051e91	-0.008124963
62	0x3cc9e385	0.024644623
63	0x3c4633fc	0.012097355
64	0x3ccf6477	0.02531646
65	0x3d22fa6e	0.03978961
66	0xbcf3ad0a	-0.029745597
67	0x3cf76f93	0.03020457
68	0xbbeff13e	-0.0073224595
69	0x3d11f007	0.0356293
70	0x3d01539d	0.03157388
71	0xbd0025a2	-0.03128589
72	0xbce9db32	-0.028546903
73	0x3d1dc807	0.03852084
74	0xbc7842ab	-0.015152614
75	0x3cdca649	0.02693476
76	0xbcc5ef4b	-0.024161955
77	0x3c9300ca	0.017944712
78	0x3c3c20a0	0.011482388
79	0xba8a8ef2	-0.0010571165
80	0xbc1ee191	-0.009697334
81	0x3d4f6aa0	0.050638795
82	0xbc758197	-0.01498451
83	0xbc2fbc55	-0.010726054
84	0x3d32a86c	0.04361765
85	0x3d4300dc	0.04760824
86	0xbd5148c1	-0.051094774
87	0x3b63e11a	0.0034771622
88	0x3d153998	0.03643188
89	0x3aecee36	0.0018076363
90	0xbd5bddd0	-0.053678334
91	0xbcd171aa	-0.025566895
92	0x3d2a3dd8	0.041562885
93	0xbce05fef	-0.027389495
94	0x3c16ee43	0.009212079
95	0xbc9df143	-0.019280082
96	0xbd112af1	-0.035441343
97	0x3b669295	0.0035182585
98	0xbd1ab94b	-0.037774365
99	0xbd21f124	-0.03953661
100	0x3c50c199	0.01274147
101	0x3749dceb	1.203197e-05
102	0xbcbbfb25	-0.022946903
103	0xbb2820ea	-0.0025654384
104	0xbd178eb9	-0.037001345
105	0x3d49f143	0.04930235
106	0xbca67711	-0.020320447
107	0xbd37ab0b	-0.044840854
108	0xbc97593c	-0.018475167
109	0xbd1d1c21	-0.038356904
110	0xbca0ea13	-0.019642865
111	0x3c91d178	0.017800078
112	0x3c9c313a	0.019066442
113	0xbcaeb262	-0.021325294
114	0xbd567601	-0.05235863
115	0xbd1d8b46	-0.0384629
116	0xbc965320	-0.018350184
117	0xbcc87cb7	-0.024473531
118	0xbc115a0f	-0.008871569
119	0xbcd40688	-0.02588202
120	0x3c4f7ee2	0.012664529
121	0xbd53d0a1	-0.051712636
122	0xbcd763eb	-0.026292762
123	0xbcdee8cf	-0.027210621
124	0xbccadd4c	-0.024763726
125	0xbb8ac94f	-0.0042354236
126	0x3d2c522e	0.04207056
127	0x3cd183f8	0.025575623
128	0x3c2b35a8	0.010449804
129	0xbd4a9a43	-0.04946352
130	0xbc9458f3	-0.01810882
131	0xbccefe90	-0.02526787
132	0xbca8777a	-0.020564783
133	0x3d120978	0.03565356
134	0x3d4d62d1	0.050143067
135	0xbb49c195	-0.003078555
136	0x3b12e65b	0.0022415135
137	0xbd26f19e	-0.040757768
138	0xbb9b376f	-0.004736833
139	0xbcb81163	-0.022469228
140	0xbc632724	-0.013864312
141	0x3d235042	0.03987146
142	0xbd5c8990	-0.053842127
143	0x3d050448	0.032474786
144	0x3c8e22d9	0.017350601
145	0x3c273eae	0.010207815
146	0xbd3c5f77	-0.04598948
147	0xbc60e2f3	-0.013725984
148	0x3cb5d05c	0.02219408
149	0x3cc890b2	0.024483059
150	0x3c33b68f	0.010968818
151	0xbd3eea96	-0.046610437
152	0xbce3e657	-0.027819796
153	0xbd2ead7d	-0.04264592
154	0x3d4dbaff	0.05022716
155	0xbba20587	-0.0049445066
156	0xbd102475	-0.035191018
157	0xbd421b31	-0.047389213
158	0x3c22f52f	0.009946152
159	0xbcea4f9f	-0.02860242
160	0x3c0da2cc	0.008644771
161	0x3d53d95e	0.05172097
162	0xbc05b016	-0.008159658
163	0x3d1f33e0	0.03886783
164	0x3cf4383e	0.029811975
165	0xbd59ca0e	-0.05317121
166	0xbd31e68e	-0.043432765
167	0x3bd55388	0.006510202
168	0xbcaefc1b	-0.021360448
169	0xbc4da2bf	-0.012551009
170	0x3d1fdd9b	0.0390297
171	0xbd0bc54c	-0.034123704
172	0xbc6e8956	-0.014559111
173	0x3be89857	0.0070982384
174	0xbbfc8ed5	-0.0077074566
175	0x3d2d56fc	0.042319283
176	0xbd2bb1ed	-0.04191773
177	0x3d3102d4	0.043215588
178	0xbd3f8373	-0.04675622
179	0x3c1dd894	0.009634156
180	0x3b6c2024	0.00360299
181	0xbcbcd175	-0.023049096
182	0x3d302222	0.0430013
183	0x3bd979a1	0.0066368137
184	0x3c2ed947	0.01067192
185	0x3c61a3c1	0.013771952
186	0xbd098c11	-0.033580843
187	0xbd435c95	-0.047695715
188	0x3c988448	0.018617764
189	0x3c863a16	0.01638512
190	0xbce6834e	-0.028138783
191	0x39b96439	0.0003536062
192	0x3d2fae81	0.04289103
193	0x3ccb4d1c	0.024817042
194	0xbd52bca6	-0.05144944
195	0xbd1d4c54	-0.03840287
196	0x3ce94c0b	0.028478643
197	0x3b7ecef5	0.003888068
198	0xbd4c71ff	-0.049913403
199	0xbcef5878	-0.02921699
200	0xbd23a568	-0.039952666
201	0xbca4607e	-0.020065542
202	0x3d268320	0.040652394
203	0xbd0735c9	-0.033010278
204	0x3d06222d	0.032747436
205	0x3d2ae18e	0.041719012
206	0xbcf6d83e	-0.03013241
207	0x3c604827	0.013689077
208	0xbd1f8ad4	-0.038950756
209	0xbd5c3989	-0.053765807
210	0xbc959670	-0.01826021
211	0x3d3f3a67	0.046686556
212	0xbc9fb9a6	-0.019497704
213	0x3c33e4c3	0.010979834
214	0xbcc9ee4e	-0.024649765
215	0x3d2dd4c6	0.042439245
216	0x3d4c9d78	0.04995486
217	0xbd2c74f9	-0.04210374
218	0xbd2d967a	-0.042379834
219	0xbcdea93e	-0.02718031
220	0xbd3bfd5b	-0.045895915
221	0x3d4bb911	0.04973704
222	0xbc39a2f1	-0.011330352
223	0xbcc610a1	-0.024177851
224	0x3cc95c68	0.024580196
225	0x3c4ae3d7	0.012383423
226	0x3d1a52a4	0.03767647
227	0xbb981c5b	-0.004642052
228	0xbb1f334a	-0.0024292045
229	0x3d488861	0.048958186
230	0xbd547dd2	-0.051877804
231	0x3cc769ae	0.024342384
232	0x3cee5e49	0.029097693
233	0x3d031e54	0.032011345
234	0xbd49a93f	-0.04923367
235	0xbd5bed57	-0.05369314
236	0xbc5b82c2	-0.013397874
237	0xbd2f3df8	-0.042783707
238	0xbd40fd1c	-0.047116384
239	0xbd1c42b6	-0.038149558
240	0x3b4d85c4	0.0031360248
241	0xbce7f734	-0.028316118
242	0xbce3ba32	-0.027798746
243	0x3d1e6fca	0.03868083
244	0x3d2a30cb	0.04155044
245	0xbc9073e3	-0.017633384
246	0xbd248b9f	-0.040172216
247	0xbc37b461	-0.011212439
248	0xbcf2efc9	-0.029655354
249	0x3c1c7332	0.009548949
250	0x3d28d500	0.041218758
251	0x3ca52f5a	0.02016418
252	0xbd33009b	-0.04370175
253	0xbd16fc58	-0.036861748
254	0xbcc1631b	-0.023606827
255	0xbd5028b5	-0.05082007

bias f4 [2048]
0	0xbd335bd0	-0.04378873
1	0x3d9a53f4	0.07535544
2	0xbd9cff90	-0.07665932
3	0x3ddeb390	0.108740926
4	0x3e31548c	0.17317408
5	0x3dda57cc	0.10661277
6	0x3e11b318	0.14228475
7	0xbe3f3974	-0.1867426
8	0xbe5490ca	-0.20758358
9	0xbe6a3e52	-0.22875336
10	0x3a988d00	0.0011638701
11	0x3e61c8c6	0.22049245
12	0xbe30acdc	-0.1725344
13	0x3e375d98	0.17906797
14	0x3e58de2c	0.21178502
15	0xbcd19cd0	-0.02558747
16	0x3e242502	0.16029742
17	0x3e4c6930	0.19962001
18	0x3d309838	0.043113917
19	0xbe77486e	-0.24148723
20	0x3e54663e	0.20742127
21	0xbe3ad760	-0.18246222
22	0x3e0568be	0.13028237
23	0x3e285680	0.16439247
24	0x3e151538	0.14558876
25	0x3e35387a	0.17697325
26	0xbd4d7ee0	-0.050169826
27	0x3e6d348e	0.2316458
28	0x3ddc1324	0.10745838
29	0xbc340080	-0.010986447
30	0xbe292566	-0.16518173
31	0xbdc8ece4	-0.09810808
32	0xbe5e905c	-0.21734756
33	0xbe520b3c	-0.20512098
34	0xbdfbb1b4	-0.122897536
35	0xbe6bab9a	-0.2301468
36	0x3d65af28	0.056075245
37	0xbdf491c0	-0.11941862
38	0xbbac5a00	-0.0052597523
39	0xbdcb8e74	-0.0993928
40	0x3e5ab754	0.21358997
41	0xbe1d06be	-0.15334603
42	0xbe43abde	-0.19108531
43	0x3e16f8d2	0.14743355
44	0xbe060e7a	-0.1309146
45	0x3c8f9f70	0.01753208
46	0xbe31c40e	-0.17359945
47	0x3d848280	0.064702034
48	0x3e21e128	0.15808547
49	0xbe11ae36	-0.14226612
50	0xbe7f8b46	-0.24955472
51	0xbe19f26a	-0.1503388
52	0x3e7ee8f8	0.24893558
53	0xbe15aa40	-0.14615726
54	0x3d4e7408	0.050403625
55	0x3d64d930	0.05587119
56	0xbd3932e0	-0.045214534
57	0xbe79f0ea	-0.24408308
58	0x3d499b68	0.049220473
59	0x3dbdc2ec	0.09265694
60	0x3e311fb8	0.17297256
61	0x3c0707a0	0.008241564
62	0x3e6acd46	0.22929868
63	0x3d074fb0	0.03303498
64	0x3e0e59a8	0.13901389
65	0xbe604496	-0.21901163
66	0xbe21aaea	-0.15787855
67	0x3e315ea8	0.17321265
68	0xbc86f310	-0.016473323
69	0xbe6b5c10	-0.22984338
70	0xbdba7f84	-0.09106353
71	0x3dadef64	0.08492926
72	0xbccb3210	-0.024804145
73	0x3e46f434	0.19429094
74	0xbdedfda0	-0.11620641
75	0xbe2c5a6e	-0.16831371
76	0x3e64b8f6	0.22336182
77	0x3df343a0	0.11878133
78	0xbde09904	-0.109666854
79	0x3dd05f50	0.101744294
80	0x3e5300be	0.20605752
81	0x3e37a052	0.17932251
82	0x3e08eb74	0.13371068
83	0x3e422b2a	0.18961778
84	0xbe3b1e36	-0.18273243
85	0x3e148312	0.14503124
86	0x3d938940	0.07203913
87	0xbe673e88	-0.22582448
88	0xbcec9910	-0.02888158
89	0xbdc90fb4	-0.09817448
90	0xbe42b310	-0.1901362
91	0x3db74b5c	0.089499205
92	0xbda86058	-0.08221501
93	0xbd995d3c	-0.07488486
94	0xbe48f448	-0.19624436
95	0x3e24f8aa	0.16110483
96	0xbe17a130	-0.14807582
97	0xbda6f1d8	-0.08151597
98	0x3e70117a	0.23444167
99	0x3cbd73c0	0.023126483
100	0xbe02e7fc	-0.12783808
101	0x3d8672c4	0.065648586
102	0x3dcb68e4	0.09932116
103	0x3e530b98	0.20609891
104	0xbdc318c0	-0.09526205
105	0x3e18e342	0.14930442
106	0xbd5ca6d0	-0.053870022
107	0x3e0e4928	0.13895094
108	0x3d9aa654	0.07551256
109	0x3de66eb4	0.11251584
110	0xbd26c338	-0.04071352
111	0xbd07d600	-0.03316307
112	0x3d40c428	0.04706207
113	0xbdcd6424	-0.10028866
114	0x3e2b1ad0	0.16709447
115	0xbdb1f858	-0.08689946
116	0xbdede9a8	-0.11616832
117	0xbe72f7dc	-0.23727363
118	0x3d1562b8	0.0364711
119	0xbc2d5e00	-0.010581493
120	0xbda43e00	-0.08019638
121	0xbd8701b8	-0.06592125
122	0xbcb2dce0	-0.021833837
123	0xbe2fd850	-0.1717236
124	0x3dfc9600	0.12333298
125	0x3dc1d828	0.09465057
126	0x3e2b5574	0.16731817
127	0x3d722660	0.05911863
128	0xbd3722f0	-0.044711053
129	0x3da4bc14	0.080436856
130	0x3df15c20	0.117851496
131	0xbd92ca3c	-0.071674794
132	0xbd812f98	-0.06307906
133	0xbcb88090	-0.02252224
134	0xbe508aba	-0.2036542
135	0x3e173d4c	0.14769477
136	0xbdaa16d0	-0.083051324
137	0xbceb5d20	-0.028730929
138	0x3d8b7450	0.06809294
139	0xbe6a4620	-0.22878313
140	0x3e6df44c	0.23237723
141	0x3e25e1ca	0.16199413
142	0xbb807d80	-0.0039212108
143	0x3cb4da60	0.022076786
144	0x3e3f8338	0.187024
145	0xbe24ca3c	-0.16092771
146	0xbe54e4cc	-0.20790404
147	0xbe79cda8	-0.24394858
148	0x3e6bb65a	0.2301878
149	0x3dee1470	0.11624992
150	0xbe5fa9ca	-0.21842113
151	0xbe1b6ee8	-0.15179026
152	0x3e6219b2	0.22080114
153	0x3e6368d2	0.22207955
154	0x3e41b4d8	0.18916643
155	0xbde7f6dc	-0.113263816
156	0x3e5b795e	0.21433017
157	0xbddd8210	-0.10815823
158	0x3e0a97fe	0.13534543
159	0xbdc5ce48	-0.09658486
160	0x3e2e9dc2	0.17052367
161	0xbe37ae6e	-0.17937633
162	0xbc220880	-0.009889722
163	0x3c4dfe80	0.012572885
164	0xbe54fd02	-0.2079964
165	0x3e5e7cd2	0.21727303
166	0x3ba3a200	0.004993677
167	0xbe5e4258	-0.21704996
168	0xbe729a34	-0.23691636
169	0x3e3502d4	0.1767686
170	0xbc158f40	-0.009128392
171	0x3e43efc0	0.19134426
172	0x3e557830	0.20846629
173	0x3d70da38	0.05880186
174	0xbc2fdf00	-0.01073432
175	0xbd1358b8	-0.03597328
176	0x3e13b0e4	0.14422947
177	0x3e448454	0.19191104
178	0x3e68cbc6	0.22733983
179	0xbe0733e6	-0.13203391
180	0x3e1cfb3c	0.15330213
181	0x3dd14114	0.10217491
182	0x3e0e15a2	0.1387544
183	0x3d0d3aa8	0.034479767
184	0x3e746738	0.238675
185	0x3e5e3bcc	0.21702498
186	0xbdbf548c	-0.09342298
187	0x3e7f15cc	0.24910659
188	0xbe69004e	-0.22754022
189	0xbe1efc78	-0.15525997
190	0xbe5c67ac	-0.21523923
191	0xbe19db5e	-0.15025088
192	0xbe1b72a2	-0.15180448
193	0xbe4a740c	-0.19770831
194	0xbe48e16c	-0.19617242
195	0xbe1cd56e	-0.15315792
196	0x3e29f12e	0.16595909
197	0xbe244a38	-0.16043937
198	0x3d2f58c8	0.042809278
199	0x3e7213e4	0.236404
200	0xbdee06b4	-0.11622372
201	0xbe28093e	-0.16409776
202	0x3ce05e40	0.027388692
203	0xbe6114f2	-0.21980646
204	0xbde9a174	-0.11407748
205	0xbe2e7f5c	-0.17040771
206	0xbe29818c	-0.16553324
207	0xbe691a2a	-0.22763887
208	0xbde8ddb4	-0.113704115
209	0x3e38559a	0.18001404
210	0xbe47cc3e	-0.19511506
211	0x3deffa7c	0.11717698
212	0x3e22c1ac	0.15894192
213	0xbe25edee	-0.16204044
214	0x3db07710	0.08616459
215	0x3e57ad1c	0.2106213
216	0xbd1f8a38	-0.038950175
217	0x3e17ab2e	0.14811394
218	0xbc1d65a0	-0.009606749
219	0x3e13bd34	0.14427644
220	0x3e42138c	0.18952769
221	0xbe6ffcd8	-0.23436296
222	0x3e724266	0.23658141
223	0x3dfff5f0	0.12498081
224	0xbe06cabc	-0.13163275
225	0xbdfd99cc	-0.1238285
226	0x3d404660	0.046942115
227	0x3ddf5360	0.109045744
228	0xbd085008	-0.03327945
229	0xbd78f6b0	-0.060782135
230	0x3e7bdd98	0.2459625
231	0x3dbef6f4	0.09324446
232	0x3dc86a48	0.097858965
233	0x3b9c0140	0.004760891
234	0x3e605ea0	0.21911097
235	0xbe2ba4aa	-0.16762033
236	0xbdfb2160	-0.12262225
237	0x3e316b42	0.17326072
238	0xbe5c5432	-0.21516493
239	0xbdac6468	-0.084175885
240	0xbe262fbc	-0.16229147
241	0x3dcbf034	0.099579245
242	0xbe695f34	-0.22790223
243	0xbe74e790	-0.23916459
244	0x3d685820	0.056724668
245	0xbaf4ec00	-0.0018686056
246	0x3d812bf8	0.063072145
247	0xbe6a764a	-0.22896686
248	0xbe58669c	-0.21132892
249	0x3b7d1e80	0.0038622916
250	0x3e569f9a	0.2095932
251	0x3e592da0	0.21208811
252	0x3e6688be	0.225131
253	0x3dfcb668	0.12339479
254	0x3bc591c0	0.0060293376
255	0x3c708aa0	0.014681488
