09_PyTorch_Transformers_via_Paper_Replication/Vision Transformer/weights/ViT_3_epochs.pth (torch, 856578 bytes, 44 tensors)

cls_token f4 [1, 1, 16]
00000000: 01fc 883a fe68 693a 9fe7 963a 0357 79be
00000010: bb0c ae3a cd05 8a3a 0234 8e3a 8663 bd3a
00000020: 42e2 f6bb fbbb 783a e57c 733a 1593 263a
00000030: ae07 813a 6dc6 813a a0a5 9a3a e490 7c3a
0.001045108 0.00089038897 0.001151312 -0.24349599 0.001327894 0.0010530293 0.001084924 0.0014449216
-0.0075342963 0.00094884605 0.0009288325 0.00063543144 0.0009844208 0.0009901054 0.0011798628 0.00096346275

positional_embeddings f4 [1, 50, 16]
00000000: 01fc 883a fe68 693a 9fe7 963a 0357 79be
00000010: bb0c ae3a cd05 8a3a 0234 8e3a 8663 bd3a
00000020: 42e2 f6bb fbbb 783a e57c 733a 1593 263a
00000030: ae07 813a 6dc6 813a a0a5 9a3a e490 7c3a
00000040: aba1 95b6 e898 3a30 b200 c12e c1d4 0f37
00000050: e24d 77b5 f2be 772f 153f a9b7 c3a3 eeac
00000060: 04a2 07b5 719f 4cae 2a64 afb9 268f c7b6
00000070: 783c efad 0ffb b8b2 d9ca 80b9 df5f 4f33
00000080: a76a 0a35 9afd c833 ffc2 80b6 857b b831
00000090: 56cd ed33 4966 24b4 979a 4e31 a327 8eb2
000000a0: ed8c 1bb7 83b1 2437 b901 0638 d945 f6b0
000000b0: 2f55 f036 8b82 73b4 1984 bbb1 375f 8734
000000c0: 4a89 b3b1 a359 2d36 9529 5a38 5922 8938
000000d0: 7d72 a1b6 9676 86b1 f264 06b5 3a14 13b5
000000e0: 74da ba36 2cef 3cb2 ce80 c4b5 5120 b9ba
000000f0: 2127 c3b2 6c7f 4d33 ac7d 2db7 05fb 28b7
00000100: 1281 7231 2de7 b5b4 326b 46ae baf4 023a
00000110: b89e 37ba 6010 6f2f b2c8 9ab4 e6ca c4b5
00000120: 783e 1bb7 0c81 e630 9fdf 9c32 453c aeba
00000130: 6760 06b8 809e 42af 113d 68b2 e8a8 bcb0
00000140: 3a33 fcb5 053e 32b0 ca0c 75ae 9802 6439
00000150: fb4d 42b9 6b84 5eb0 6fab 20b8 a9c6 01ba
00000160: db69 78b9 2413 94b7 3d85 8eb5 917f 6db4
00000170: 372c 4fba 816c 3c38 56e5 c2af d5e8 85b5
00000180: db52 e8b5 41e9 e7b1 8ee3 2eb8 d724 01b8
00000190: 6e28 a3b8 0faa 0534 a2f9 8935 0a3e 05af
000001a0: 9f33 0f39 e203 34ba 7aa7 49b5 94f3 08b7
000001b0: b949 dcba fc4c 5935 ed7f bb33 e1ef 4d38
000001c0: f593 80b4 fa4f c234 5320 17b5 f3a8 eaaf
000001d0: 5ac5 3a31 4635 2130 0a40 9a33 1419 222f
000001e0: 1849 1eb4 6b8e e730 0104 efb8 be6c 09b1
000001f0: 3fba 29b2 4363 8235 6d02 beb8 2bc3 6b38
00000200: a69f 9130 e6bf 99b0 8b9b f5b4 ed22 b6b0
00000210: 2f61 82b7 c8a3 9eb5 5b40 fa36 280d ca35
00000220: 6f14 a5b5 45ba 30b5 af98 efb2 217f 7232
00000230: cc2e 7e39 ef5b 91af c4ae 5f31 c6ae 6937
00000240: e1f8 f238 7e35 c5b3 a314 0d30 71c3 e131
00000250: 0f85 8030 b054 d436 a056 9db4 b831 7c38
00000260: 122c f7b6 3d69 8134 e26c cf34 44c2 ac33
00000270: bfeb 0532 5a79 5831 0042 3fb9 a960 beb2
00000280: a845 172f ee9b 9a2e 4d75 b2b7 534c 70b2
00000290: 5fc1 fa33 3e15 66b9 88f7 2031 0776 d62f
000002a0: 8087 6239 c2b2 e632 8ade 07b4 308b 86b6
000002b0: caf5 72b7 600f 44ba 7f05 e2b8 1399 d136
000002c0: c632 66ba f435 d9b5 384f 442e e5e3 aab4
000002d0: ebab 2ab2 e031 70ba 25c3 aab1 056c d237
000002e0: 654a a1b1 8a2e b1b4 5867 99b0 90a8 e7b5
000002f0: f311 2037 679c bbaf eb73 63b7 fb36 7834
00000300: f891 b037 967f 92b6 865b ba36 b3d5 0db2
00000310: 4047 0cba ba11 ccb8 61db b5b5 77d0 1335
00000320: 57e9 1eb7 6e33 c1b0 9772 ad31 fcb7 9937
00000330: 19a3 57b2 c1cd 0e36 b131 a738 356e 5838
00000340: 0e01 2538 863d 5cb4 9ba3 f837 6ed5 82b7
00000350: 966d 10b3 1fff 3338 0680 1c35 0922 1331
00000360: bbeb 1c32 3a9c 0b35 d667 bdb1 3855 5f31
00000370: 2459 5136 3087 3430 af06 2eb8 7abb 9031
00000380: b1c5 a1b2 5a8c 8c37 7cb4 7a38 9b94 43b2
00000390: 63cc 19b2 08ca 7a39 a15c 17b8 0a91 05b5
000003a0: 5921 27b8 934e c8b7 686b 0138 9a4d 9c30
000003b0: 0ff3 0e33 ecef b2b8 6813 2db0 5811 0b35
000003c0: cf8f 50b1 7146 1532 e235 65b5 a496 79ba
000003d0: d1a8 1fb7 8ec8 39b5 8b58 1db7 7203 19b3
000003e0: 5341 b238 5d34 93b1 b9b4 1133 bbf0 5337
000003f0: 46db 2635 fc73 1eba 3537 dab8 f56b 83b4
0.001045108 0.00089038897 0.001151312 -0.24349599 0.001327894 0.0010530293 0.001084924 0.0014449216
-0.0075342963 0.00094884605 0.0009288325 0.00063543144 0.0009844208 0.0009901054 0.0011798628 0.00096346275
-4.4593667e-06 6.78837e-10 8.7767474e-11 8.573e-06 -9.2128005e-07 2.2532357e-10 -2.0175745e-05 -6.782548e-12
-5.052718e-07 -4.6525842e-11 -0.0003345323 -5.947327e-06 -2.7198008e-11 -2.1534587e-08 -0.00024565196 4.8283137e-08
5.1564206e-07 9.3593556e-08 -3.837398e-06 5.3691473e-09 1.1073523e-07 -1.5310901e-07 3.006482e-09 -1.6549e-08
-9.271532e-06 9.816492e-06 3.1949694e-05 -1.7918708e-09 7.162474e-06 -2.267863e-07 -5.457434e-09 2.5214987e-07
-5.2251936e-09 2.5831184e-06 5.2013977e-05 6.539067e-05 -4.811502e-06 -3.913395e-09 -5.0065785e-07 -5.47912e-07
5.5686633e-06 -1.0997422e-08 -1.4640625e-06 -0.0014124011 -2.2718782e-08 4.784617e-08 -1.0340864e-05 -1.0072025e-05
3.5289003e-09 -3.388208e-07 -4.5115196e-11 0.00049955735 -0.0007004547 2.1742741e-10 -2.883076e-07 -1.4662189e-06
-9.253265e-06 1.677138e-09 1.8262481e-08 -0.0013293108 -3.203787e-05 -1.7700508e-10 -1.3518062e-08 -1.3726806e-09
-1.8790372e-06 -6.484416e-10 -5.571791e-11 0.0002174474 -0.00018530332 -8.0951307e-10 -3.8306633e-05 -0.0004950562
-0.00023690557 -1.7651888e-05 -1.0618602e-06 -2.2118753e-07 -0.0007903012 4.4923745e-05 -3.5451347e-10 -9.977035e-07
-1.7309461e-06 -6.7495027e-09 -4.169676e-05 -3.0790306e-05 -7.779976e-05 1.2448457e-07 1.0279948e-06 -1.211832e-10
0.00013656773 -0.00068670337 -7.5122045e-07 -8.162944e-06 -0.0016806639 8.0950826e-07 8.7311356e-08 4.9099213e-05
-2.394951e-07 3.6193507e-07 -5.629892e-07 -4.2684398e-10 2.7178744e-09 5.8647165e-10 7.1828325e-08 1.4742724e-10
-1.4741488e-07 1.684794e-09 -0.00011397154 -1.9997937e-09 -9.879442e-09 9.714644e-07 -9.060358e-05 5.621013e-05
1.0595513e-09 -1.1186756e-09 -4.5747979e-07 -1.3252169e-09 -1.5542462e-05 -1.1819584e-06 7.4580726e-06 1.5054002e-06
-1.2299405e-06 -6.5836167e-07 -2.7892694e-08 1.411516e-08 0.00024240761 -2.644067e-10 3.2550114e-09 1.3928575e-05
0.000115858165 -9.1832575e-08 5.132483e-10 6.570581e-09 9.351043e-10 6.3279513e-06 -2.9306557e-07 6.0127786e-05
-7.366304e-06 2.4104693e-07 3.8635977e-07 8.044711e-08 7.795221e-09 3.1501117e-09 -0.00018239766 -2.2162867e-08
1.3758117e-10 7.030808e-11 -2.1273876e-05 -1.3987193e-08 1.1676706e-07 -0.00021942423 2.342377e-09 3.9010237e-10
0.00021603517 2.6856814e-08 -1.2653814e-07 -4.0097148e-06 -1.4481551e-05 -0.00074790977 -0.000107775435 6.2465056e-06
-0.00087813695 -1.6183462e-06 4.46356e-11 -3.1830783e-07 -9.934392e-09 -0.00091627054 -4.9698365e-09 2.5084251e-05
-4.6941744e-09 -3.300268e-07 -1.1161587e-09 -1.7259899e-06 9.540922e-06 -3.4126232e-10 -1.3557244e-05 2.3116802e-07
2.1048807e-05 -4.365992e-06 5.5538867e-06 -8.25587e-09 -0.0005351193 -9.73078e-05 -1.3549399e-06 5.5065124e-07
-9.4718625e-06 -1.4057215e-09 5.04799e-09 1.8324696e-05 -1.2551731e-08 2.1279413e-06 7.972436e-05 5.160105e-05
3.9340048e-05 -2.0511479e-07 2.9640089e-05 -1.5596594e-05 -3.362728e-08 4.2914526e-05 5.830083e-07 2.1410662e-09
9.133994e-09 5.2008875e-07 -5.5124287e-09 3.2499212e-09 3.1195314e-06 6.567573e-10 -4.1491057e-05 4.212265e-09
-1.8832766e-08 1.6754657e-05 5.9772734e-05 -1.1384283e-08 -8.952244e-09 0.0002391712 -3.6087473e-05 -4.975742e-07
-3.984696e-05 -2.3878447e-05 3.0856027e-05 1.137255e-09 3.3283012e-08 -8.53239e-05 -6.296461e-10 5.1806774e-07
-3.034973e-09 8.688958e-09 -8.538756e-07 -0.00095210434 -9.516444e-06 -6.9209716e-07 -9.378545e-06 -3.5626222e-08
8.499869e-05 -4.284216e-09 3.392481e-08 1.26326295e-05 6.2158904e-07 -0.00060445047 -0.00010405333 -2.44792e-07

weight f4 [16, 1, 4, 4]
00000000: 8180 aa38 8e1d 1535 c429 60b4 b632 b035
00000010: 75a0 f633 c4f4 2933 f3e7 f6b3 2a11 c434
00000020: d553 0a34 0f03 99b3 50ca 7734 9a72 7b32
00000030: 4bf8 3eb3 ad1d 85b9 e49a 70b4 df98 e133
00000040: 0576 a2b6 6558 37b6 0df3 bf34 01bf b9b6
00000050: b3fe 03b6 8de8 0235 a249 02b2 14e3 07b6
00000060: 5efe d22f c916 a7b6 e46f 3db7 cac8 ca34
00000070: c28c 7d34 6c47 8037 3385 4cb8 48d8 bb30
00000080: c4e8 e7b6 dd50 5d38 6cef 9b31 551c e0b6
00000090: a33d 8e33 5cb4 f032 456e c832 bb3b e0b5
000000a0: 57fa cdb6 0c7c c5b9 e3b5 fd37 0fc8 a2b6
000000b0: 669c 2337 6251 4bb7 e5e3 67b6 ed51 7338
000000c0: 4bc9 d32e ca2a 7a38 0e40 5ab2 fde3 31af
000000d0: 8bb8 d12e 1083 172f 32a7 472d 26c6 83ae
000000e0: 5874 f33a 4d89 642e 3b59 8c2e 1c61 f6b5
000000f0: a339 2b34 c74e 35ba e5ce bdb9 43d7 03b5
00000100: e335 e3b5 9e4c 95b3 b3e9 b335 8639 1333
00000110: b6da d536 b5a1 fab3 ad4e 7d35 f125 aab0
00000120: f7a3 43b4 e4ad 9035 b23a c034 00bc beb3
00000130: 2919 1a34 23c2 92b3 7c8e 6033 f7bb d937
00000140: 5eb9 cb31 f6ce 9a36 a02b 44b6 764f 7eb5
00000150: e4ad 2eb1 827a b830 d52c f731 204a 08b7
00000160: 0fb6 c630 1fff 0434 9082 2e36 b6f5 36b1
00000170: 91ef 93b4 09cd 2e37 f0d2 b6b1 f585 6fb1
00000180: ec32 f8b8 e324 b1b7 d872 d833 5e56 9ab6
00000190: c768 71b2 4f39 35b5 baa3 a7b1 9e45 73b1
000001a0: 853e 6137 ad97 60ba 71e7 2c32 6cd5 2db2
000001b0: fe8b 51b9 ed6b 1633 a423 5732 9915 c330
000001c0: 23f4 5d31 4ab9 9931 0eb5 6631 c4b1 3ab1
000001d0: c6ef ceb0 dfa4 6e30 90c5 5db1 aac2 67b0
000001e0: 8866 0b31 7734 0f31 9a34 4f31 68b3 88b1
000001f0: bbcb 71b1 1139 0cb1 e8a7 4fad 4692 c4b1
00000200: a28e 97ae 5a1c caaf 6596 c2af e564 b1ae
00000210: 3d3b cfaf 87d0 d0ae 5c50 1aaf de8d 9c2d
00000220: c01e 9fad 301d 1d30 d4ff 6b2f d86c 0035
00000230: 0229 8530 fb73 522f 5493 94ae e191 4f30
00000240: e828 0737 e201 62b4 8198 9536 c70c c834
00000250: d448 14b6 00c9 1b35 fa08 0737 3154 8035
00000260: 32d4 77b8 7942 aa31 c671 8236 e9e9 1f39
00000270: c337 2638 1a0f f0b7 cec6 e534 1fdc 08b4
00000280: 9577 ad37 da54 14b9 f220 c632 ff8f 2fb2
00000290: 2465 acb4 5464 fc37 cb3b 5c34 9b89 e939
000002a0: 2552 2234 06e4 1538 8295 0839 60c7 1e31
000002b0: b745 abb9 8382 d730 25d5 5c30 427c b630
000002c0: 5674 3b37 3c27 8e33 a3ee 1731 8ca7 9e33
000002d0: 80b1 9cb6 016f 0e2f b303 f8b9 bdc0 ff33
000002e0: c77d 34b1 436a e837 8e52 cb36 5b43 0333
000002f0: 1068 e0b2 8e51 3db3 8f23 7230 a772 2531
00000300: 7d0f 71ba ee38 9636 8789 beb7 301d 37b5
00000310: 559b 71ba e26d 18b8 659c 86b7 0586 ef35
00000320: e553 bbb5 c973 d3b9 fa20 2ab9 0184 00b9
00000330: d2b4 8a33 c049 a3b5 afa3 e738 9d8f edb8
00000340: 36d1 9d35 adf4 dd2f 4bfc a6b2 0e13 2e33
00000350: e66d 4eb7 bc17 af31 32ea 4035 e029 1fb1
00000360: 3f0f b8b2 dba8 d3b1 e024 a731 35cb b0b8
00000370: b1c3 6f36 95e2 67b1 8bb8 e237 8912 8436
00000380: e22e 78b7 8105 4b34 3fad 2732 838f fc33
00000390: 1488 38b7 3b4f 56b7 f603 70b6 b94a 20b6
000003a0: 146d ca30 2230 f136 3d3b 1737 3dea 03b5
000003b0: 9daf c334 ef98 b8b5 1c7e e6b6 ba19 b939
000003c0: a571 0736 bae0 32b1 6b5f 73b3 e6ae 6537
000003d0: 779f 47b0 95da 3e37 114b 73b6 d6da bab6
000003e0: 1a4d 2eb2 15e8 93b1 3daf c7b2 8cd1 70b8
000003f0: 05c9 c4b7 2810 fab6 32e9 3fb6 d330 7eb6
8.1301674e-05 5.5549833e-07 -2.087682e-07 1.3127781e-06 1.14844546e-07 3.9570992e-08 -1.1497459e-07 3.6520333e-07
1.288275e-07 -7.125174e-08 2.3077268e-07 1.463618e-08 -4.4463643e-08 -0.00025389847 -2.240809e-07 1.0505186e-07
-4.8417155e-06 -2.7320577e-06 3.5753365e-07 -5.5356654e-06 -1.9668776e-06 4.876718e-07 -7.583738e-09 -2.0248744e-06
3.8379516e-10 -4.9796404e-06 -1.1291329e-05 3.7771525e-07 2.3613669e-07 1.5292047e-05 -4.876144e-05 1.3667512e-09
-6.911434e-06 5.2765816e-05 4.538313e-09 -6.6790185e-06 6.623602e-08 2.8021695e-08 2.333321e-08 -1.6706684e-06
-6.1386195e-06 -0.0003766719 3.0244648e-05 -4.851266e-06 9.751971e-06 -1.2118691e-05 -3.4554334e-06 5.8012014e-05
9.630926e-11 5.9644495e-05 -1.2703834e-08 -1.6179054e-10 9.537001e-11 1.3779933e-10 1.1348965e-11 -5.9923885e-11
0.0018574102 5.1963146e-11 6.3823134e-11 -1.8356691e-06 1.5946584e-07 -0.0006916341 -0.00036203038 -4.911455e-07
-1.6928501e-06 -6.95229e-08 1.3404555e-06 3.4278422e-08 6.373356e-06 -1.16709465e-07 9.4364333e-07 -1.2379912e-09
-1.822044e-07 1.0779445e-06 3.5805493e-07 -8.8817615e-08 1.4351521e-07 -6.833968e-08 5.2283653e-08 2.5955944e-05
5.9291514e-09 4.613651e-06 -2.923167e-06 -9.4738004e-07 -2.5419178e-09 1.3422581e-09 7.193743e-09 -8.12349e-06
1.445814e-09 1.238627e-07 2.6004018e-06 -2.6624156e-09 -2.755519e-07 1.0418947e-05 -5.320878e-09 -3.4855223e-09
-0.000118350465 -2.1117221e-05 1.0079174e-07 -4.599612e-06 -1.405187e-08 -6.751115e-07 -4.8789532e-09 -3.5400727e-09
1.34256015e-05 -0.00085675233 1.0064341e-08 -1.0118452e-08 -0.00019983944 3.5022754e-08 1.2522751e-08 1.4194256e-09
3.2298508e-09 4.473951e-09 3.3572323e-09 -2.716761e-09 -1.505662e-09 8.681819e-10 -3.2272034e-09 -8.4313945e-10
2.0285444e-09 2.0839062e-09 3.0152365e-09 -3.978517e-09 -3.5185923e-09 -2.040512e-09 -1.180387e-11 -5.72098e-09
-6.892022e-11 -3.676373e-10 -3.5395256e-10 -8.0669506e-11 -3.7695172e-10 -9.495787e-11 -1.4034768e-10 1.7798148e-11
-1.8089863e-11 5.7157745e-10 2.1464014e-10 4.7842104e-07 9.688679e-10 1.9140593e-10 -6.7564315e-11 7.551347e-10
8.056151e-06 -2.1048575e-07 4.4583e-06 3.72622e-07 -2.209611e-06 5.8034493e-07 8.048717e-06 9.561246e-07
-5.908701e-05 4.9552082e-09 3.887547e-06 0.0001525056 3.9629416e-05 -2.8617262e-05 4.2799223e-07 -1.2746067e-07
2.0678892e-05 -0.0001414599 2.3065216e-08 -1.0219082e-08 -3.2111086e-07 3.008746e-05 2.0510849e-07 0.00044543747
1.511731e-07 3.573673e-05 0.00013025667 2.3105358e-09 -0.00032667603 1.5680403e-09 8.033843e-10 1.3277559e-09
1.1173155e-05 6.619527e-08 2.2109041e-09 7.387925e-08 -4.669826e-06 1.2954261e-10 -0.00047305002 1.1909422e-07
-2.6264944e-09 2.7706037e-05 6.059482e-06 3.0562074e-08 -2.6124354e-08 -4.4079165e-08 8.808962e-10 2.4075832e-09
-0.00091957283 4.476976e-06 -2.2713806e-05 -6.8215286e-07 -0.00092165667 -3.634196e-05 -1.6046872e-05 1.7845892e-06
-1.3957002e-06 -0.00040331323 -0.00016224748 -0.00012256207 6.459017e-08 -1.216591e-06 0.00011045427 -0.00011327791
1.17583e-06 4.0373518e-10 -1.9439673e-08 4.0529862e-08 -1.2304145e-05 5.0958686e-09 7.186637e-07 -2.3161348e-09
-2.1427352e-08 -6.160105e-09 4.864532e-09 -8.430184e-05 3.5727683e-06 -3.3743721e-09 2.7027234e-05 3.9360643e-06
-1.4792868e-05 1.890785e-07 9.760071e-09 1.1760769e-07 -1.0998938e-05 -1.2773841e-05 -3.5765092e-06 -2.3885352e-06
1.4728436e-09 7.187963e-06 9.014094e-06 -4.9142164e-07 3.6449356e-07 -1.3753578e-06 -6.869215e-06 0.00035305117
2.0182717e-06 -2.6030151e-09 -5.666463e-08 1.3690185e-05 -7.262239e-10 1.1375775e-05 -3.6253516e-06 -5.568708e-06
-1.0145664e-08 -4.3046477e-09 -2.3246338e-08 -5.7415615e-05 -2.3458628e-05 -7.4524614e-06 -2.8596955e-06 -3.787737e-06

bias f4 [16]
00000000: 05da 89b8 90ed 9937 2d55 d731 9fd8 3f2e
00000010: 3628 8137 1ef0 d2b3 550f 5335 08b0 3431
00000020: ba28 6e2e 7490 5334 f8c6 58b7 611a 4a35
00000030: 5122 c3b4 eb44 8bb8 eb8e 77b6 583c aeb6
-6.5732784e-05 1.8349645e-05 6.267007e-09 4.362077e-11 1.5396723e-05 -9.822564e-08 7.8625936e-07 2.629351e-09
5.4151107e-11 1.9703458e-07 -1.2920929e-05 7.528925e-07 -3.634655e-07 -6.6408735e-05 -3.6889057e-06 -5.192629e-06

in_proj_weight f4 [48, 16]
00000000: ee83 5c3e eccf 193e 9dfb e93d 4b1f 2bbe
00000010: ef68 d63c 6be2 3bbe b795 c13d 5e4e 633e
00000020: 164f 823d a532 61be 7b1b d93d 52d9 9c3d
00000030: 8dc1 45be 928b 1ebe 6cbc febc 5576 933d
00000040: 3435 fe3c 0e42 e63c 5853 cabd b08d 853e
00000050: e6dd 113d c17b 1fbd ab69 0ebe af7f 4bbe
00000060: 7dc5 8a3e c564 903e be96 96bd 63e5 e8bd
00000070: f62c 1bbe 38e4 863d c34f dfbc f463 c6bc
00000080: cf6f b23d ddd1 633e efb5 9abe 4a44 843e
00000090: 9909 973e 2396 d8bd 9587 1abe 6c27 70bd
000000a0: 6b51 0bbe 3419 103e 071e 10be ad9d 8fbd
000000b0: e304 093d 4a19 f7bd a021 473e a74c 493e
000000c0: 70ac ec3c dc81 c0bd 64af cabc d560 43be
000000d0: eff9 8d3e 37b8 1e3e eb44 6e3e f917 e83d
000000e0: ba24 b7bc fa50 933e 93d3 d73d c1f6 07bd
000000f0: e062 503e 78e6 3d3e 5bd1 0f3e 1b29 52be
00000100: 0c9e 6f3e 6e0d 933e 8065 03be 944f 0e3e
00000110: 33f5 17be a1a6 bebd 42a3 8a3e e96e 343e
00000120: 8d4b 69be cdac 1f3e 1147 953e 0fa2 98be
00000130: 4d12 77be 9d79 10bc 8a48 173e 84c7 0dbe
00000140: 7104 763d 5629 f5bd 859e b03c 0ac0 983e
00000150: 48be 9abe 8ad1 98be 2211 203d 1095 803e
00000160: 1b39 6abe 18f8 923e a1de 803e 7bf9 853e
00000170: 520f 763e a544 183d 1f4f b03d 198c 3f3e
00000180: 637c 82be c321 07bc f086 41be 7f9b 463e
00000190: 1d88 fdbd efeb bfbd 2605 06be b1c4 d23d
000001a0: 9c28 c2bd a9cb 5b3e 97d2 78be 42e2 58be
000001b0: 7407 713d 5fb2 8f3e f7fc 7cbe befa 98be
000001c0: 28ec 6abe 21bb c93d e9e1 8bbe 7eaa 62be
000001d0: 5a9a 4dbe 1b85 6abe 2de3 213e c5fd 8c3c
000001e0: d48f 01be 9bab 6bbd 9543 c7bd 84c5 873e
000001f0: ec46 64be 807e 8b3e 7d3c 8fbd 8135 90be
00000200: 0ab4 1bbe 4c94 eb3d f9d7 0cbe 8f48 93bd
00000210: 8bb7 8a3e 7bd3 e13c 2046 84be a102 08be
00000220: fa0b 90be 8bbf 7ebe e370 5ebe 4058 aa3d
00000230: 9f31 57bd 7d35 82be 8ac4 543e 6af4 903e
00000240: 3cc4 823e 9ed9 d33c a824 5fbe 5a44 523e
00000250: 9343 99be a3ea 753e be12 843e 19ab 063e
00000260: db39 05bc 2a3e 2cbd 0441 a8bd 74a6 7b3e
00000270: 77af 423e 92fe babc 9147 edbd ed40 ec3d
00000280: a993 8cbe ce90 27be e453 4f3e 49c0 22be
00000290: 6189 86be d6fb 7fbe ca39 0e3e 969f 30be
000002a0: 8ae4 87be ef4d 81be 2b4d ae3d efb1 f23c
000002b0: f67f 1bbe 9836 8cbd ffb0 f43d f3c4 8cbe
000002c0: 06e5 eebb 7352 c1bc abe9 f73c 8d5d 23be
000002d0: 0eee 6abe 5387 8c3e b167 bd3d 04b5 84be
000002e0: e704 9abc 9a3b 94be 1a5b 763e bff5 193d
000002f0: 30f9 913c 8afe b5bd f44b 953e 488f 89bc
00000300: 113c 4fbe 1eab 093e d932 8e3e 0d76 513d
00000310: 0d53 233e 9d64 7e3e e85f 893e fe62 46be
00000320: 3032 c5bc f207 fabd 7e7a 99be 6860 693e
00000330: d581 913e ba5f d0bd d0aa 8bbd a536 ae3d
00000340: 63cf cbbd f292 343e d653 f0bb d148 4a3d
00000350: 7ad2 62bd 8600 36be 0a78 1bbe d4b3 99bd
00000360: ec72 88bd b9f8 6cbe 365e 8a3e 6bfb 5fbc
00000370: 4134 173e 4fc2 963e 2da0 043e 7762 3b3d
00000380: e231 1cbe 880d 873e 7d4a 06be 6c90 1cbe
00000390: 3052 843e acd3 1bbe cc5b ee3d f991 a53d
000003a0: 7901 953e a036 573e 2d55 3c3e 0867 123b
000003b0: a92a cabb e9e3 b2bd 3d6b 13be e2a2 debd
000003c0: e2d0 1f3e 3272 f13c f750 913e 75dd 7abe
000003d0: ee4b 79be 0e74 733c e954 743d 0d97 3b3d
000003e0: 11b7 78be b77c df3d daf7 94be f24c 6d3e
000003f0: b63c 143e b5df 5b3e 0520 033e b1ce 1fbe
0.21534702 0.15020722 0.114249445 -0.16711156 0.026173083 -0.1834809 0.09452384 0.22197863
0.06362741 -0.21991976 0.106009446 0.07658638 -0.19312115 -0.1548293 -0.031095706 0.072003044
0.031031229 0.02810767 -0.09879178 0.2608466 0.03561201 -0.03893638 -0.13907497 -0.19872926
0.27103797 0.2820188 -0.073529705 -0.11371877 -0.1515387 0.06586498 -0.027259713 -0.024217583
0.08712732 0.22248025 -0.3021693 0.2583335 0.2949951 -0.10575511 -0.15090783 -0.058631346
-0.13605277 0.14072114 -0.14073955 -0.07012496 0.033451926 -0.120653704 0.1944642 0.19658147
0.028890818 -0.09399769 -0.024741836 -0.19079907 0.27729747 0.1549996 0.23268478 0.113326974
-0.02235638 0.28772718 0.105384015 -0.033194307 0.20350218 0.18544948 0.14044707 -0.20523493
0.23400134 0.28721184 -0.12831688 0.13897544 -0.1483963 -0.09309126 0.2707768 0.17620434
-0.22782727 0.15593262 0.29155782 -0.2981114 -0.24128075 -0.008818057 0.14773765 -0.1384564
0.06006283 -0.11970775 0.021559963 0.29834014 -0.30223298 -0.29847366 0.03907884 0.25113726
-0.22873347 0.28704906 0.25169852 0.261669 0.24029282 0.03717484 0.08608841 0.18705787
-0.25485525 -0.0082477955 -0.18899131 0.19395255 -0.12379477 -0.09371173 -0.13087901 0.10291422
-0.09480402 0.21464409 -0.24299084 -0.2118006 0.058845 0.28065774 -0.24705873 -0.298788
-0.22941649 0.09850145 -0.27320793 -0.2213535 -0.20078412 -0.22902338 0.15809317 0.01721085
-0.12652522 -0.057536703 -0.09729687 0.2651788 -0.2229268 0.2724495 -0.06993959 -0.2816582
-0.15205398 0.11502895 -0.13754262 -0.07191574 0.27093157 0.027566662 -0.2583475 -0.13282253
-0.28134137 -0.24877755 -0.2172275 0.083176136 -0.052537557 -0.25431433 0.20778099 0.28311473
0.2554034 0.025860604 -0.21791327 0.20533887 -0.29934368 0.24015288 0.2579555 0.13151206
-0.00813147 -0.04205147 -0.08215526 0.24575216 0.19012247 -0.022826467 -0.11585916 0.11535821
-0.27456406 -0.16363832 0.20246845 -0.15893663 -0.26276687 -0.24998412 0.13889232 -0.17248377
-0.2654155 -0.2525477 0.08510812 0.029625861 -0.15185532 -0.068463504 0.11947822 -0.2749401
-0.0072904853 -0.023598885 0.030262789 -0.15953656 -0.22942373 0.27446994 0.09248293 -0.25919354
-0.018801166 -0.28951722 0.2405819 0.037587877 0.017819017 -0.0888644 0.2915951 -0.016791955
-0.20237757 0.13444182 0.2777317 0.051137973 0.1594965 0.24843068 0.26830983 -0.193737
-0.024071783 -0.12208547 -0.29976267 0.22790682 0.28419366 -0.101745084 -0.06819689 0.08506516
-0.09951665 0.1763418 -0.007334213 0.04938585 -0.055376507 -0.17773637 -0.1518251 -0.075050026
-0.066625446 -0.23141755 0.27025002 -0.013670783 0.14766027 0.2944512 0.12951727 0.0457482
-0.15253404 0.2637751 -0.13114353 -0.15289468 0.25843954 -0.15217465 0.116386026 0.08084483
0.29102686 0.21016932 0.18391867 0.0022339243 -0.0061696363 -0.08734877 -0.14396377 -0.10870911
0.15607026 0.029473398 0.28382084 -0.24498542 -0.24345371 0.014859213 0.05965129 0.04579835
-0.24288584 0.10912459 -0.29095346 0.23173884 0.14476284 0.21472056 0.12805183 -0.1560619

in_proj_bias f4 [48]
00000000: 0000 0000 0000 0000 0000 0000 0000 0000
00000010: 0000 0000 0000 0000 0000 0000 0000 0000
00000020: 0000 0000 0000 0000 0000 0000 0000 0000
00000030: 0000 0000 0000 0000 0000 0000 0000 0000
00000040: 0000 0000 0000 0000 0000 0000 0000 0000
00000050: 0000 0000 0000 0000 0000 0000 0000 0000
00000060: 0000 0000 0000 0000 0000 0000 0000 0000
00000070: 0000 0000 0000 0000 0000 0000 0000 0000
00000080: 0000 0000 0000 0000 0000 0000 0000 0000
00000090: 0000 0000 0000 0000 0000 0000 0000 0000
000000a0: 0000 0000 0000 0000 0000 0000 0000 0000
000000b0: 0000 0000 0000 0000 0000 0000 0000 0000
0.0 0.0 0.0 0.0 0.0 0.0 0.0 0.0
0.0 0.0 0.0 0.0 0.0 0.0 0.0 0.0
0.0 0.0 0.0 0.0 0.0 0.0 0.0 0.0
0.0 0.0 0.0 0.0 0.0 0.0 0.0 0.0
0.0 0.0 0.0 0.0 0.0 0.0 0.0 0.0
0.0 0.0 0.0 0.0 0.0 0.0 0.0 0.0

weight f4 [16, 16]
00000000: 9fa7 243e 8bb8 b8be 78d7 c33e 16e3 ee3d
00000010: ae89 cdbe c24d 8a3e 9822 bcbc 3362 5c3e
00000020: 574d 493e 0a95 7fbe 648c c23e 023e 7a3e
00000030: cdeb 3abc d783 ae3d d7ab 5a3e c509 ee3c
00000040: 528c b7bd dd24 d9be d474 983e 4063 da3e
00000050: 5682 9b3e fbd5 fc3d 02fc d7be b6d7 fc3d
00000060: 1207 2a3e 51c4 c13e e1c8 41be df61 58be
00000070: 5c72 9abe e496 cf3d 728c 4f3e 989e bebe
00000080: 4e75 d4be 8975 d4be 433c d6be 9b7d 2c3d
00000090: ed23 99be 1db6 d8be 30aa c53c 9b86 b13e
000000a0: bf2c 20be 5127 04be 33dc 8e3d db30 cbbd
000000b0: 2301 9f3e d807 5ebc a648 8b3c 5a47 04be
000000c0: a523 983e 5217 e5bd b0b9 2c3e d553 29be
000000d0: 840a 2abe 1045 96bc aa9a fbbd 7f6e 783e
000000e0: bd90 bebd da35 a0be 524c 4d3e 4bea ba3e
000000f0: 700a 003e e9b6 d53e e5e8 c03e 4e1f 8fbe
00000100: 0c9a 47be 1f71 b5bd 0715 cbbe 8fc1 4ebe
00000110: d4c3 763e b2ce c63e 5d7d 23be fe23 ad3e
00000120: 3a11 45bc 295f 083d a644 17be 80e2 cebe
00000130: d92c da3e 1b51 87be c365 8a3e 5d28 11be
00000140: a954 a7bd 2169 37be a409 afbe 0358 29bd
00000150: d1cb b1be da2d ffbd daa8 ddbc 465b 833e
00000160: 76f6 033e b2a2 bebd 5a3f a9be c874 b1bd
00000170: 96eb a83e eeb3 b4be 1980 9abd 3f8f b7be
00000180: c916 163d 2a84 113e a8af 903e 2744 8c3e
00000190: 9a78 aabe e783 703e 8132 ea3d f203 67be
000001a0: d8ee a53e 638d 3dbe 24e5 ba3e c5d2 963c
000001b0: acee 4fbe 1e76 9a3e 67a7 6fbe 43f7 693e
000001c0: b2da da3e bdff 1f3e 198f b83d efc2 bb3e
000001d0: 0ca5 27be a93c 113e 6c96 023e d46b c3be
000001e0: ecbc 3c3e 2ceb ac3e b7d4 283e 0083 c23e
000001f0: 2eb3 72be 0a65 9f3e a12c 29bc 0a79 36be
00000200: 7f4f ba3e d213 7abe 2983 69bd 6628 c53e
00000210: e922 e4bd e51e 2b3e 0699 c03e a658 31be
00000220: d674 7cbe 5cf3 dcbe 9bdc c23d d104 383e
00000230: c45d 123e 3d5e abbe e2bc 02be 4a91 843e
00000240: cc5f 16be 9a59 c13e f4de 963e d218 d63e
00000250: 3ea0 693e 43b2 83bd ce9e c43d 7e4e d63e
00000260: 9b31 15be ad8d 713d 32a1 563e 8eeb b13e
00000270: 0cfe 8cbe 8fd9 36be ee13 8abe ae95 e8bc
00000280: 6c16 ab3d a103 c5be e08f b03e 300a eebd
00000290: 27fa dc3e 1926 3e3e 30e9 35bd 254e 9e3d
000002a0: a20c e3bd ed65 bd3e f3af 5cbd b90a cf3e
000002b0: e372 adbe a8aa 10be 158e d73d e28d 9bbe
000002c0: 0a29 39be 2a87 29be ed1e ab3e 28ea a03e
000002d0: c612 803d 16ae 4d3e 4a45 95be b9d9 3dbe
000002e0: d6ab d8be 3f87 a1be 548c b53e c586 833d
000002f0: 0f18 42be 04a5 8e3e c1fd 983d 86e4 113e
00000300: fabb 33be 28d5 853d 697e a7be 1131 9cbe
00000310: 917f bb3e 22f4 bc3e 53d1 92bd a77d 253e
00000320: 7c14 9ebe df6d 463e 5717 253d d7ae 543e
00000330: b1e1 9f3e c9da 9e3e cf88 3bbe ea8b 7fbe
00000340: 428f a93e 07be 8a3e 8b64 c93e d9a0 9b3c
00000350: dae5 5a3e f415 8d3e 4d66 643d 6e6d bd3e
00000360: 280d 1c3e 13c2 56be 505f 063e db82 eabd
00000370: e608 563e f388 9d3e 56bd 8c3d a89d aabe
00000380: c558 43bd 90d4 b83e 6225 c13e bfba d5be
00000390: 02b6 fa3d b749 7d3e 44b8 8d3d f882 8b3e
000003a0: 5ea0 a13d eab9 d63e c841 17be 1418 ccbe
000003b0: d732 8abe f02b db3e 526b 3b3c 6cff b0bd
000003c0: dca1 6ebe 002e b13d 288f 58bd 3513 923e
000003d0: 2656 15bd ecfc 943e 16ab 773e e167 cebe
000003e0: 79bc 8f3e 11c5 b0be 2cac 783e e9c1 bcbe
000003f0: a6c4 0d3e 9fc9 a33d b611 323e 780d d8be
0.16079567 -0.36078295 0.38250327 0.11664407 -0.40144104 0.2701245 -0.022965714 0.21521835
0.19658409 -0.24959198 0.37997735 0.24437717 -0.011408758 0.0852124 0.21354614 0.029057393
-0.08962311 -0.42410937 0.29776633 0.42653847 0.30372876 0.12345501 -0.42184454 0.12345831
0.1660426 0.3784509 -0.18924285 -0.21131085 -0.30165374 0.10136202 0.2026842 -0.37230372
-0.41495746 -0.41495922 -0.4184285 0.042111974 -0.29910222 -0.4232644 0.024129003 0.34673008
-0.1564207 -0.12905623 0.069755934 -0.09921428 0.31055555 -0.013551675 0.017002415 -0.12917843
0.29714695 -0.111860886 0.16867709 -0.16535886 -0.16605574 -0.018343478 -0.12285359 0.24260901
-0.093049504 -0.31291085 0.20048645 0.36506876 0.12503982 0.41741112 0.37677684 -0.2795357
-0.19492358 -0.08859467 -0.3966448 -0.20191024 0.2409814 0.3882957 -0.15965791 0.33816522
-0.012028033 0.033293877 -0.14772281 -0.4040718 0.4261234 -0.26429066 0.27030763 -0.14175554
-0.081704445 -0.17911197 -0.34187043 -0.0413437 -0.34725812 -0.12459917 -0.027058054 0.25655574
0.12886986 -0.093083754 -0.33056146 -0.086648524 0.32992238 -0.35293525 -0.07543964 -0.35851476
0.036642823 0.14210573 0.28259015 0.27395746 -0.33295137 0.23487817 0.11435414 -0.22560099
0.32408786 -0.18510966 0.36502945 0.01841105 -0.2030589 0.3016824 -0.23403703 0.22848229
0.42744976 0.156249 0.09011669 0.3667216 -0.16371554 0.14183296 0.12752694 -0.38168204
0.18431443 0.33773172 0.16487394 0.3799057 -0.23701164 0.31131774 -0.010325582 -0.1781961
0.36388776 -0.24421623 -0.05700985 0.38507384 -0.11139471 0.16711004 0.37616748 -0.17318973
-0.24653944 -0.43154418 0.095147334 0.17970587 0.14293581 -0.33470336 -0.12767366 0.25892097
-0.14684981 0.37763673 0.29466975 0.4181581 0.22815034 -0.06430485 0.09600602 0.4185676
-0.14569704 0.058973003 0.20959929 0.34750026 -0.27537572 -0.1785643 -0.2696833 -0.028391685
0.08353886 -0.3847933 0.34484768 -0.11623037 0.431596 0.1856922 -0.044411838 0.07729749
-0.11086394 0.36991826 -0.053878736 0.40437868 -0.33876714 -0.141276 0.10525147 -0.30381685
-0.18082061 -0.16555467 0.33422032 0.31428647 0.06253581 0.2008594 -0.29154426 -0.18540086
-0.423186 -0.31548497 0.35458624 0.064221896 -0.1895449 0.27860272 0.07470275 0.14247331
-0.17552176 0.06534797 -0.3271363 -0.30506185 0.36620763 0.3690501 -0.07168832 0.16161214
-0.30875003 0.1937785 0.04030546 0.20769821 0.31226876 0.31026295 -0.18313907 -0.24955717
0.3311711 0.27098104 0.3933452 0.018997597 0.21376744 0.2755581 0.055761624 0.3699755
0.15239394 -0.20972471 0.13122296 -0.1145074 0.20901832 0.30768546 0.068720505 -0.33323407
-0.04769208 0.36099672 0.37723833 -0.41744038 0.122417465 0.24735151 0.069199115 0.2724836
0.07891916 0.41938716 -0.14771187 -0.3986212 -0.26991913 0.4280696 0.011439161 -0.08642468
-0.23303932 0.08651352 -0.0528709 0.2853028 -0.03645911 0.29099214 0.24186358 -0.40313628
0.2807348 -0.3452535 0.24284428 -0.36866692 0.13844547 0.079974405 0.17389569 -0.42197776

bias f4 [16]
00000000: 0000 0000 0000 0000 0000 0000 0000 0000
00000010: 0000 0000 0000 0000 0000 0000 0000 0000
00000020: 0000 0000 0000 0000 0000 0000 0000 0000
00000030: 0000 0000 0000 0000 0000 0000 0000 0000
0.0 0.0 0.0 0.0 0.0 0.0 0.0 0.0
0.0 0.0 0.0 0.0 0.0 0.0 0.0 0.0

weight f4 [2048, 16]
00000000: 71e8 553d 413b 27bd 03a5 aebc 7c02 303d
00000010: ccfb c1bb e372 1cbd c9aa 38bd 733c 0c3d
00000020: 7674 55bd 279f cf3c 2563 193c 0404 b03c
00000030: fa04 5abd e85a c2b8 6d73 0e3d c158 163b
00000040: d9da 9ebc e67d df3c c0ea 533d e997 0f3d
00000050: a9f2 c33c 6f0b 46bd 2804 a13b 7478 2ebd
00000060: 4a60 06bd 7352 0e3d cc6d 433d 45c3 e63c
00000070: 62ab d93c 5967 383d df4d 303d d390 193d
00000080: 8f2e 523d 2f5f a33c 4f1d f3bc 957f 5bbd
00000090: d834 56bd 3c05 373d 2ec4 53bd 93ed 9ebb
000000a0: 9dab 30bd abe7 b4bb 2391 8b3c 8cc9 c1bc
000000b0: 6a06 5cbd 89bc 463d 78f1 33bd a7aa 39bc
000000c0: abed 0d3d b7dd 203c d7ce 3a3c 819e a43c
000000d0: 7673 17bd 23d0 293d 1fc8 fcbb 5eb5 153d
000000e0: 3588 eabc a382 40bc 9325 a7bc 53dc 16bd
000000f0: bcd9 293d 911e 05bc 85e3 c93c fc33 463c
00000100: 7764 cf3c 6efa 223d 0aad f3bc 936f f73c
00000110: 3ef1 efbb 07f0 113d 9d53 013d a225 00bd
00000120: 32db e9bc 07c8 1d3d ab42 78bc 49a6 dc3c
00000130: 4bef c5bc ca00 933c a020 3c3c f28e 8aba
00000140: 91e1 1ebc a06a 4f3d 9781 75bc 55bc 2fbc
00000150: 6ca8 323d dc00 433d c148 51bd 1ae1 633b
00000160: 9839 153d 36ee ec3a d0dd 5bbd aa71 d1bc
00000170: d83d 2a3d ef5f e0bc 43ee 163c 43f1 9dbc
00000180: f12a 11bd 9592 663b 4bb9 1abd 24f1 21bd
00000190: 99c1 503c ebdc 4937 25fb bbbc ea20 28bb
000001a0: b98e 17bd 43f1 493d 1177 a6bc 0bab 37bd
000001b0: 3c59 97bc 211c 1dbd 13ea a0bc 78d1 913c
000001c0: 3a31 9c3c 62b2 aebc 0176 56bd 468b 1dbd
000001d0: 2053 96bc b77c c8bc 0f5a 11bc 8806 d4bc
000001e0: e27e 4f3c a1d0 53bd eb63 d7bc cfe8 debc
000001f0: 4cdd cabc 4fc9 8abb 2e52 2c3d f883 d13c
00000200: a835 2b3c 439a 4abd f358 94bc 90fe cebc
00000210: 7a77 a8bc 7809 123d d162 4d3d 95c1 49bb
00000220: 5be6 123b 9ef1 26bd 6f37 9bbb 6311 b8bc
00000230: 2427 63bc 4250 233d 9089 5cbd 4804 053d
00000240: d922 8e3c ae3e 273c 775f 3cbd f3e2 60bc
00000250: 5cd0 b53c b290 c83c 8fb6 333c 96ea 3ebd
00000260: 57e6 e3bc 7dad 2ebd ffba 4d3d 8705 a2bb
00000270: 7524 10bd 311b 42bd 2ff5 223c 9f4f eabc
00000280: cca2 0d3c 5ed9 533d 16b0 05bc e033 1f3d
00000290: 3e38 f43c 0eca 59bd 8ee6 31bd 8853 d53b
000002a0: 1bfc aebc bfa2 4dbc 9bdd 1f3d 4cc5 0bbd
000002b0: 5689 6ebc 5798 e83b d58e fcbb fc56 2d3d
000002c0: edb1 2bbd d402 313d 7383 3fbd 94d8 1d3c
000002d0: 2420 6c3b 75d1 bcbc 2222 303d a179 d93b
000002e0: 47d9 2e3c c1a3 613c 118c 09bd 955c 43bd
000002f0: 4884 983c 163a 863c 4e83 e6bc 3964 b939
00000300: 81ae 2f3d 1c4d cb3c a6bc 52bd 544c 1dbd
00000310: 0b4c e93c f5ce 7e3b ff71 4cbd 7858 efbc
00000320: 68a5 23bd 7e60 a4bc 2083 263d c935 07bd
00000330: 2d22 063d 8ee1 2a3d 3ed8 f6bc 2748 603c
00000340: d48a 1fbd 8939 5cbd 7096 95bc 673a 3f3d
00000350: a6b9 9fbc c3e4 333c 4eee c9bc c6d4 2d3d
00000360: 789d 4c3d f974 2cbd 7a96 2dbd 3ea9 debc
00000370: 5bfd 3bbd 11b9 4b3d f1a2 39bc a110 c6bc
00000380: 685c c93c d7e3 4a3c a452 1a3d 5b1c 98bb
00000390: 4a33 1fbb 6188 483d d27d 54bd ae69 c73c
000003a0: 495e ee3c 541e 033d 3fa9 49bd 57ed 5bbd
000003b0: c282 5bbc f83d 2fbd 1cfd 40bd b642 1cbd
000003c0: c485 4d3b 34f7 e7bc 32ba e3bc ca6f 1e3d
000003d0: cb30 2a3d e373 90bc 9f8b 24bd 61b4 37bc
000003e0: c9ef f2bc 3273 1c3c 00d5 283d 5a2f a53c
000003f0: 9b00 33bd 58fc 16bd 1b63 c1bc b528 50bd
0.052223627 -0.040827993 -0.021318918 0.04297112 -0.005919909 -0.038195502 -0.04508475 0.034237336
-0.05211302 0.025344444 0.009362017 0.02148629 -0.053227402 -9.2675735e-05 0.034778047 0.0022941085
-0.019391464 0.027281713 0.051737547 0.035056982 0.02391942 -0.048350748 0.0049138255 -0.04259534
-0.032806672 0.0347466 0.047712132 0.028169284 0.02657098 0.045020435 0.043043014 0.03749163
0.051313933 0.019942848 -0.029677061 -0.05358847 -0.05229649 0.044682726 -0.051700763 -0.0048500984
-0.043132413 -0.005520781 0.01703698 -0.023655675 -0.053717054 0.048519645 -0.043931454 -0.011332191
0.034650486 0.009818486 0.0114018535 0.020095112 -0.036975347 0.04145826 -0.007714286 0.03654992
-0.028629402 -0.011749896 -0.020403659 -0.03683121 0.041467413 -0.008124963 0.024644623 0.012097355
0.02531646 0.03978961 -0.029745597 0.03020457 -0.0073224595 0.0356293 0.03157388 -0.03128589
-0.028546903 0.03852084 -0.015152614 0.02693476 -0.024161955 0.017944712 0.011482388 -0.0010571165
-0.009697334 0.050638795 -0.01498451 -0.010726054 0.04361765 0.04760824 -0.051094774 0.0034771622
0.03643188 0.0018076363 -0.053678334 -0.025566895 0.041562885 -0.027389495 0.009212079 -0.019280082
-0.035441343 0.0035182585 -0.037774365 -0.03953661 0.01274147 1.203197e-05 -0.022946903 -0.0025654384
-0.037001345 0.04930235 -0.020320447 -0.044840854 -0.018475167 -0.038356904 -0.019642865 0.017800078
0.019066442 -0.021325294 -0.05235863 -0.0384629 -0.018350184 -0.024473531 -0.008871569 -0.02588202
0.012664529 -0.051712636 -0.026292762 -0.027210621 -0.024763726 -0.0042354236 0.04207056 0.025575623
0.010449804 -0.04946352 -0.01810882 -0.02526787 -0.020564783 0.03565356 0.050143067 -0.003078555
0.0022415135 -0.040757768 -0.004736833 -0.022469228 -0.013864312 0.03987146 -0.053842127 0.032474786
0.017350601 0.010207815 -0.04598948 -0.013725984 0.02219408 0.024483059 0.010968818 -0.046610437
-0.027819796 -0.04264592 0.05022716 -0.0049445066 -0.035191018 -0.047389213 0.009946152 -0.02860242
0.008644771 0.05172097 -0.008159658 0.03886783 0.029811975 -0.05317121 -0.043432765 0.006510202
-0.021360448 -0.012551009 0.0390297 -0.034123704 -0.014559111 0.0070982384 -0.0077074566 0.042319283
-0.04191773 0.043215588 -0.04675622 0.009634156 0.00360299 -0.023049096 0.0430013 0.0066368137
0.01067192 0.013771952 -0.033580843 -0.047695715 0.018617764 0.01638512 -0.028138783 0.0003536062
0.04289103 0.024817042 -0.05144944 -0.03840287 0.028478643 0.003888068 -0.049913403 -0.02921699
-0.039952666 -0.020065542 0.040652394 -0.033010278 0.032747436 0.041719012 -0.03013241 0.013689077
-0.038950756 -0.053765807 -0.01826021 0.046686556 -0.019497704 0.010979834 -0.024649765 0.042439245
0.04995486 -0.04210374 -0.042379834 -0.02718031 -0.045895915 0.04973704 -0.011330352 -0.024177851
0.024580196 0.012383423 0.03767647 -0.004642052 -0.0024292045 0.048958186 -0.051877804 0.024342384
0.029097693 0.032011345 -0.04923367 -0.05369314 -0.013397874 -0.042783707 -0.047116384 -0.038149558
0.0031360248 -0.028316118 -0.027798746 0.03868083 0.04155044 -0.017633384 -0.040172216 -0.011212439
-0.029655354 0.009548949 0.041218758 0.02016418 -0.04370175 -0.036861748 -0.023606827 -0.05082007

bias f4 [2048]
00000000: d05b 33bd f453 9a3d 90ff 9cbd 90b3 de3d
00000010: 8c54 313e cc57 da3d 18b3 113e 7439 3fbe
00000020: ca90 54be 523e 6abe 008d 983a c6c8 613e
00000030: dcac 30be 985d 373e 2cde 583e d09c d1bc
00000040: 0225 243e 3069 4c3e 3898 303d 6e48 77be
00000050: 3e66 543e 60d7 3abe be68 053e 8056 283e
00000060: 3815 153e 7a38 353e e07e 4dbd 8e34 6d3e
00000070: 2413 dc3d 8000 34bc 6625 29be e4ec c8bd
00000080: 5c90 5ebe 3c0b 52be b4b1 fbbd 9aab 6bbe
00000090: 28af 653d c091 f4bd 005a acbb 748e cbbd
000000a0: 54b7 5a3e be06 1dbe deab 43be d2f8 163e
000000b0: 7a0e 06be 709f 8f3c 0ec4 31be 8082 843d
000000c0: 28e1 213e 36ae 11be 468b 7fbe 6af2 19be
000000d0: f8e8 7e3e 40aa 15be 0874 4e3d 30d9 643d
000000e0: e032 39bd eaf0 79be 689b 493d ecc2 bd3d
000000f0: b81f 313e a007 073c 46cd 6a3e b04f 073d
00000100: a859 0e3e 9644 60be eaaa 21be a85e 313e
00000110: 10f3 86bc 105c 6bbe 847f babd 64ef ad3d
00000120: 1032 cbbc 34f4 463e a0fd edbd 6e5a 2cbe
00000130: f6b8 643e a043 f33d 0499 e0bd 505f d03d
00000140: be00 533e 52a0 373e 74eb 083e 2a2b 423e
00000150: 361e 3bbe 1283 143e 4089 933d 883e 67be
00000160: 1099 ecbc b40f c9bd 10b3 42be 5c4b b73d
00000170: 5860 a8bd 3c5d 99bd 48f4 48be aaf8 243e
00000180: 30a1 17be d8f1 a6bd 7a11 703e c073 bd3c
00000190: fce7 02be c472 863d e468 cb3d 980b 533e
000001a0: c018 c3bd 42e3 183e d0a6 5cbd 2849 0e3e
000001b0: 54a6 9a3d b46e e63d 38c3 26bd 00d6 07bd
000001c0: 28c4 403d 2464 cdbd d01a 2b3e 58f8 b1bd
000001d0: a8e9 edbd dcf7 72be b862 153d 005e 2dbc
000001e0: 003e a4bd b801 87bd e0dc b2bc 50d8 2fbe
000001f0: 0096 fc3d 28d8 c13d 7455 2b3e 6026 723d
00000200: f022 37bd 14bc a43d 205c f13d 3cca 92bd
00000210: 982f 81bd 9080 b8bc ba8a 50be 4c3d 173e
00000220: d016 aabd 205d ebbc 5074 8b3d 2046 6abe
00000230: 4cf4 6d3e cae1 253e 807d 80bb 60da b43c
00000240: 3883 3f3e 3cca 24be cce4 54be a8cd 79be
00000250: 5ab6 6b3e 7014 ee3d caa9 5fbe e86e 1bbe
00000260: b219 623e d268 633e d8b4 413e dcf6 e7bd
00000270: 5e79 5b3e 1082 ddbd fe97 0a3e 48ce c5bd
00000280: c29d 2e3e 6eae 37be 8008 22bc 80fe 4d3c
00000290: 02fd 54be d27c 5e3e 00a2 a33b 5842 5ebe
000002a0: 349a 72be d402 353e 408f 15bc c0ef 433e
000002b0: 3078 553e 38da 703d 00df 2fbc b858 13bd
000002c0: e4b0 133e 5484 443e c6cb 683e e633 07be
000002d0: 3cfb 1c3e 1441 d13d a215 0e3e a83a 0d3d
000002e0: 3867 743e cc3b 5e3e 8c54 bfbd cc15 7f3e
000002f0: 4e00 69be 78fc 1ebe ac67 5cbe 5edb 19be
00000300: a272 1bbe 0c74 4abe 6ce1 48be 6ed5 1cbe
00000310: 2ef1 293e 384a 24be c858 2f3d e413 723e
00000320: b406 eebd 3e09 28be 405e e03c f214 61be
00000330: 74a1 e9bd 5c7f 2ebe 8c81 29be 2a1a 69be
00000340: b4dd e8bd 9a55 383e 3ecc 47be 7cfa ef3d
00000350: acc1 223e eeed 25be 1077 b03d 1cad 573e
00000360: 388a 1fbd 2eab 173e a065 1dbc 34bd 133e
00000370: 8c13 423e d8fc 6fbe 6642 723e f0f5 ff3d
00000380: bcca 06be cc99 fdbd 6046 403d 6053 df3d
00000390: 0850 08bd b0f6 78bd 98dd 7b3e f4f6 be3d
000003a0: 486a c83d 4001 9c3b a05e 603e aaa4 2bbe
000003b0: 6021 fbbd 426b 313e 3254 5cbe 6864 acbd
000003c0: bc2f 26be 34f0 cb3d 345f 69be 90e7 74be
000003d0: 2058 683d 00ec f4ba f82b 813d 4a76 6abe
000003e0: 9c66 58be 801e 7d3b 9a9f 563e a02d 593e
000003f0: be88 663e 68b6 fc3d c091 c53b a08a 703c
-0.04378873 0.07535544 -0.07665932 0.108740926 0.17317408 0.10661277 0.14228475 -0.1867426
-0.20758358 -0.22875336 0.0011638701 0.22049245 -0.1725344 0.17906797 0.21178502 -0.02558747
0.16029742 0.19962001 0.043113917 -0.24148723 0.20742127 -0.18246222 0.13028237 0.16439247
0.14558876 0.17697325 -0.050169826 0.2316458 0.10745838 -0.010986447 -0.16518173 -0.09810808
-0.21734756 -0.20512098 -0.122897536 -0.2301468 0.056075245 -0.11941862 -0.0052597523 -0.0993928
0.21358997 -0.15334603 -0.19108531 0.14743355 -0.1309146 0.01753208 -0.17359945 0.064702034
0.15808547 -0.14226612 -0.24955472 -0.1503388 0.24893558 -0.14615726 0.050403625 0.05587119
-0.045214534 -0.24408308 0.049220473 0.09265694 0.17297256 0.008241564 0.22929868 0.03303498
0.13901389 -0.21901163 -0.15787855 0.17321265 -0.016473323 -0.22984338 -0.09106353 0.08492926
-0.024804145 0.19429094 -0.11620641 -0.16831371 0.22336182 0.11878133 -0.109666854 0.101744294
0.20605752 0.17932251 0.13371068 0.18961778 -0.18273243 0.14503124 0.07203913 -0.22582448
-0.02888158 -0.09817448 -0.1901362 0.089499205 -0.08221501 -0.07488486 -0.19624436 0.16110483
-0.14807582 -0.08151597 0.23444167 0.023126483 -0.12783808 0.065648586 0.09932116 0.20609891
-0.09526205 0.14930442 -0.053870022 0.13895094 0.07551256 0.11251584 -0.04071352 -0.03316307
0.04706207 -0.10028866 0.16709447 -0.08689946 -0.11616832 -0.23727363 0.0364711 -0.010581493
-0.08019638 -0.06592125 -0.021833837 -0.1717236 0.12333298 0.09465057 0.16731817 0.05911863
-0.044711053 0.080436856 0.117851496 -0.071674794 -0.06307906 -0.02252224 -0.2036542 0.14769477
-0.083051324 -0.028730929 0.06809294 -0.22878313 0.23237723 0.16199413 -0.0039212108 0.022076786
0.187024 -0.16092771 -0.20790404 -0.24394858 0.2301878 0.11624992 -0.21842113 -0.15179026
0.22080114 0.22207955 0.18916643 -0.113263816 0.21433017 -0.10815823 0.13534543 -0.09658486
0.17052367 -0.17937633 -0.009889722 0.012572885 -0.2079964 0.21727303 0.004993677 -0.21704996
-0.23691636 0.1767686 -0.009128392 0.19134426 0.20846629 0.05880186 -0.01073432 -0.03597328
0.14422947 0.19191104 0.22733983 -0.13203391 0.15330213 0.10217491 0.1387544 0.034479767
0.238675 0.21702498 -0.09342298 0.24910659 -0.22754022 -0.15525997 -0.21523923 -0.15025088
-0.15180448 -0.19770831 -0.19617242 -0.15315792 0.16595909 -0.16043937 0.042809278 0.236404
-0.11622372 -0.16409776 0.027388692 -0.21980646 -0.11407748 -0.17040771 -0.16553324 -0.22763887
-0.113704115 0.18001404 -0.19511506 0.11717698 0.15894192 -0.16204044 0.08616459 0.2106213
-0.038950175 0.14811394 -0.009606749 0.14427644 0.18952769 -0.23436296 0.23658141 0.12498081
-0.13163275 -0.1238285 0.046942115 0.109045744 -0.03327945 -0.060782135 0.2459625 0.09324446
0.097858965 0.004760891 0.21911097 -0.16762033 -0.12262225 0.17326072 -0.21516493 -0.084175885
-0.16229147 0.099579245 -0.22790223 -0.23916459 0.056724668 -0.0018686056 0.063072145 -0.22896686
-0.21132892 0.0038622916 0.2095932 0.21208811 0.225131 0.12339479 0.0060293376 0.014681488

weight f4 [16, 2048]
00000000: 0dd1 303d 3c4e d8bc cdf8 373c bd72 5abd
00000010: e15a e23c 064d cf3c 35e3 4239 4fb1 34bd
00000020: 6e35 38bd 0305 f63c 422c 83bb abd4 493d
00000030: 2711 ccbc 13a6 3d3d 40d1 a2bc 9551 d5bc
00000040: a598 5c3c 1174 b03b e40c 1a3d 8f8f 963c
00000050: 55dd 093d e192 a53c 9697 8fbc d90f 9d3c
00000060: 8892 db3b d61b bebc 6bf8 04bd 6816 1cbc
00000070: 2cde 1dbc 57c8 08bd 44f5 8ebc d144 cf3c
00000080: 6a25 17bd bed5 c0bc 7f62 5a3c aad1 c7bc
00000090: 0551 a5bb e652 eabc afd0 1cbd 7be0 48bb
000000a0: ce2a 44bd 5c45 173d f3ff 3b3d 2124 5a3d
000000b0: 9950 b93b 3f7e 733c f591 46bd 2167 8cbc
000000c0: f587 be3c 3a79 13bd 7f01 25bc 4520 843c
000000d0: 4230 523c 8a90 3a3c a89a a8bc 75b6 a13c
000000e0: f2ad 163d e79b 24bc 0106 16bd c5ca 16bd
000000f0: e2d1 3e3d e286 bcbc 8c6c 043d 114f 383d
00000100: cb2c f9bc d864 51bd 84bb c1bc 52d2 803c
00000110: 9ec9 f63c e431 81bc 1d53 323b 8e5d 143d
00000120: 05aa 58bd a016 febc 8ec7 0abb 3515 5a3c
00000130: 3375 25bd c3a4 eabc 6343 283d 5929 37bd
00000140: 83da af3c b50b b9bc 7e74 2e3d f3ff b93c
00000150: bb7d 023c 1809 323d c670 10bc 4c5d 803c
00000160: 5a70 14bc a7d6 b5bc d8f8 8fbc ec12 cbbc
00000170: d636 2cbd 935d 273d 4fec 353d 1d5b 2cbd
00000180: 34e9 85bc 58a4 3d3d c940 a93c 9cf3 f9bc
00000190: 4813 07bd d5c0 4d3c 99cf cf3c 307a f03c
000001a0: f851 4f3c b299 513b 7af3 f5bb b39b c2bc
000001b0: 9f14 5c3d 60ac 433d f489 453d 68cd 5c3d
000001c0: f112 343c 9135 1a3d dbe3 093d 3530 543d
000001d0: 0d5a e13c ac1f 2bbc 6e7e 4e3c d724 fb3c
000001e0: 9826 f4bc b5e0 1c3d f159 103c c1f6 543d
000001f0: eddb d2bb 7658 e93c 16db b3bb 7708 8f3c
00000200: 6f22 43bd b3e6 1cbc 5c08 b73c 1720 1c3d
00000210: 4d61 8b3c abc4 05bb b604 323d 30c2 933c
00000220: bbdb 223d 612e 14bd 401d ecbc 52a4 cb3c
00000230: c7bb 043d 251a 273d a45d 2ebd 13b9 32bd
00000240: 3818 053c b8db ab3c 43e8 e5bb 676d e7bb
00000250: 6e7a 22bd bc36 363c de26 e9bc 01cb 283d
00000260: 3295 203c e873 c53a ba39 a4bc bdc9 f6bb
00000270: a930 42bc 03e7 44bc d508 1abd 3371 46bd
00000280: 5f72 3fbd f281 593d a70c 933c 65e3 1cba
00000290: 32d3 3c3c 1781 543d ca69 a1bb e83e 8f3b
000002a0: c307 283c 17a9 8bbc 3f31 323d 22e1 54bc
000002b0: c37c 4dbc fc5c ae3c 39b4 f8bc a9b9 303d
000002c0: d986 093d 2962 ccbb da8c ff3c e2cb 0dbd
000002d0: 0216 613c 0d33 07bd d7e5 41bc 52c4 76bc
000002e0: 84b5 c13c 7ae6 35bd e075 03bd d79b 7fbc
000002f0: 5ffc 58bd f18c 623c f9d5 40bd 2b06 c9bc
00000300: b9da 303d 6c44 40bd d178 c7bc dc75 b8bc
00000310: 2c6a 0a3d 6f45 f6bc d7cd 15bd 7f79 98bb
00000320: aefb 443d 7c0d c5bc 0d21 553d fb54 53bd
00000330: e284 2abd cb91 4b3d 686f bbbc 864f 563d
00000340: 2a3a 243d 6cdd 843b 29cc bc3a 7c72 1fbd
00000350: a0a2 b2bc bb9e babc d5fb 8f3b a544 563c
00000360: b409 11bd 4850 173c d3d2 9a3c e328 033c
00000370: 0857 90bc 305a 403d d414 3c3d e489 13bd
00000380: 54c6 743c 2142 923b be90 463d 8576 b83c
00000390: a787 6bbc 0115 423d 95df a43c b87c cbb8
000003a0: a3d9 16bd 6415 b5bc cfc7 033d c606 0abd
000003b0: ca6d 053d fb5f 85bc 1120 2abc 830b 733b
000003c0: cda9 6a3c ee43 88bb d4da 1b3c 0cc5 663c
000003d0: 9309 1bbd ba98 34bd 4cbf 25bd db7e fa39
000003e0: 87a5 2ebd 4f9e 1dbd 17c2 543c 7219 3bbd
000003f0: f97b 283d 4fc0 143c 36ca 48bb 8d5f d33c
0.043168116 -0.026404493 0.011228752 -0.05333208 0.027631225 0.025305282 0.00018585923 -0.044114407
-0.04497283 0.030031687 -0.0040030787 0.04927508 -0.024910523 0.04630096 -0.019875169 -0.026039878
0.013464128 0.00538493 0.03760995 0.018379001 0.033658344 0.020211639 -0.017528336 0.019172596
0.0067008175 -0.023206633 -0.032463472 -0.009526826 -0.009635489 -0.033394184 -0.017450936 0.025301369
-0.036900915 -0.02353942 0.013329147 -0.024391968 -0.0050450587 -0.028603982 -0.038284954 -0.003065138
-0.047892384 0.03693138 0.04589839 0.05325711 0.00565536 0.014861642 -0.04847904 -0.01713902
0.023258189 -0.036004283 -0.0100711575 0.016128669 0.012828888 0.011387 -0.020581558 0.019740323
0.03678698 -0.010046936 -0.03662682 -0.03681447 0.04658688 -0.023013536 0.03233008 0.04499728
-0.030416867 -0.051121563 -0.023648985 0.015725289 0.030125435 -0.01577086 0.0027210184 0.036222033
-0.05289652 -0.031016648 -0.0021176073 0.01331072 -0.040394973 -0.028643018 0.04107989 -0.044717167
0.0214665 -0.02258859 0.042591564 0.022705054 0.007964547 0.043465704 -0.00881595 0.015669487
-0.00905999 -0.02219708 -0.017574713 -0.024789296 -0.042044483 0.040860724 0.044414815 -0.04207908
-0.016346551 0.04629931 0.020660775 -0.03051167 -0.032977372 0.012558182 0.025367545 0.029355139
0.01265382 0.0031982479 -0.0075058313 -0.023755884 0.053730603 0.04777181 0.048227265 0.05390683
0.010990844 0.03764874 0.033664566 0.051803786 0.02750876 -0.010444563 0.012603385 0.030657215
-0.02980356 0.038300235 0.008810506 0.051993135 -0.0064349086 0.028484564 -0.0054887636 0.017460091
-0.04764026 -0.009576487 0.022342853 0.03811654 0.01701417 -0.0020411413 0.043461524 0.018036932
0.039760333 -0.036177043 -0.028822541 0.024858627 0.03240564 0.040796418 -0.04256977 -0.04363353
0.00812345 0.020978794 -0.007016213 -0.0070626023 -0.03966754 0.011121448 -0.028460916 0.041209225
0.009801196 0.001506445 -0.020047057 -0.0075313733 -0.011852422 -0.012017968 -0.03760608 -0.0484478
-0.046739932 0.05310244 0.017950369 -0.0005984812 0.011524962 0.051880922 -0.004925941 0.0043715127
0.010255757 -0.017048402 0.043503996 -0.012993129 -0.012541953 0.021284573 -0.030359374 0.04314581
0.033575866 -0.0062372875 0.031195093 -0.034618266 0.013738157 -0.03300767 -0.011834583 -0.015061455
0.023646124 -0.044409253 -0.032094836 -0.01560112 -0.052975055 0.013827548 -0.04707906 -0.024539074
0.04317734 -0.046940252 -0.024349602 -0.022517137 0.03379266 -0.030062405 -0.036573257 -0.0046531553
0.048091583 -0.024054281 0.052033473 -0.051594716 -0.041630633 0.049699586 -0.022880271 0.052321933
0.040094532 0.004054716 0.0014404106 -0.03892754 -0.021806061 -0.022780767 0.0043940344 0.01307789
-0.035409644 0.009235449 0.018899357 0.008005354 -0.017619625 0.04696101 0.0459183 -0.036020175
0.014939863 0.0044634496 0.04847788 0.022517452 -0.014375604 0.047383312 0.020126143 -9.703025e-05
-0.03682865 -0.022104926 0.032172974 -0.033697866 0.032575406 -0.016281119 -0.010383622 0.003708572
0.01432271 -0.0041584885 0.009512622 0.014085066 -0.037850928 -0.044090964 -0.040465638 0.0004777823
-0.042638328 -0.038481053 0.012985728 -0.045678563 0.041133855 0.009079053 -0.0030638105 0.025802398

bias f4 [16]
00000000: e865 0dbb 00c2 d1b9 d044 fdba 4407 01bc
00000010: 4a56 78bc 52b4 5c3c 2e80 373c 402e 86ba
00000020: 9f53 3abc 9305 16bc 51e1 b43c 73db 9f3c
00000030: 7bc6 86bc 558f 9a3c d35e 0ebc c9cb 8b3c
-0.0021575633 -0.00040008128 -0.0019322876 -0.007875267 -0.015157292 0.013470726 0.011199994 -0.0010237172
-0.011372476 -0.009156602 0.022080095 0.019513821 -0.016452065 0.018867174 -0.0086896 0.017064946

weight f4 [16]
00000000: 0000 803f 0000 803f 0000 803f 0000 803f
00000010: 0000 803f 0000 803f 0000 803f 0000 803f
00000020: 0000 803f 0000 803f 0000 803f 0000 803f
00000030: 0000 803f 0000 803f 0000 803f 0000 803f
1.0 1.0 1.0 1.0 1.0 1.0 1.0 1.0
1.0 1.0 1.0 1.0 1.0 1.0 1.0 1.0

bias f4 [16]
00000000: 0000 0000 0000 0000 0000 0000 0000 0000
00000010: 0000 0000 0000 0000 0000 0000 0000 0000
00000020: 0000 0000 0000 0000 0000 0000 0000 0000
00000030: 0000 0000 0000 0000 0000 0000 0000 0000
0.0 0.0 0.0 0.0 0.0 0.0 0.0 0.0
0.0 0.0 0.0 0.0 0.0 0.0 0.0 0.0

weight f4 [16]
00000000: 0000 803f 0000 803f 0000 803f 0000 803f
00000010: 0000 803f 0000 803f 0000 803f 0000 803f
00000020: 0000 803f 0000 803f 0000 803f 0000 803f
00000030: 0000 803f 0000 803f 0000 803f 0000 803f
1.0 1.0 1.0 1.0 1.0 1.0 1.0 1.0
1.0 1.0 1.0 1.0 1.0 1.0 1.0 1.0

bias f4 [16]
00000000: 0000 0000 0000 0000 0000 0000 0000 0000
00000010: 0000 0000 0000 0000 0000 0000 0000 0000
00000020: 0000 0000 0000 0000 0000 0000 0000 0000
00000030: 0000 0000 0000 0000 0000 0000 0000 0000
0.0 0.0 0.0 0.0 0.0 0.0 0.0 0.0
0.0 0.0 0.0 0.0 0.0 0.0 0.0 0.0
