09_PyTorch_Transformers_via_Paper_Replication/Vision Transformer/weights/ViT_1_epochs.pth (torch, 856578 bytes, 44 tensors)

cls_token f4 [1, 1, 16]
0	0x394b27f6	0.00019374475
1	0x38fa3712	0.000119311866
2	0x391803a8	0.00014497212
3	0xbe02cb3d	-0.12772842
4	0x391b2184	0.00014794437
5	0x393376d9	0.00017115044
6	0x38986bf4	7.268033e-05
7	0x38ef6e21	0.00011416921
8	0x388dd33a	6.762748e-05
9	0x3980d995	0.00024576174
10	0x390ddcbe	0.00013529041
11	0x39285ccb	0.00016056297
12	0x3a289332	0.0006430625
13	0x394e5904	0.00019678852
14	0x386607c2	5.48435e-05
15	0x39855503	0.00025431075

positional_embeddings f4 [1, 50, 16]
0	0x394b27f6	0.00019374475
1	0x38fa3712	0.000119311866
2	0x391803a8	0.00014497212
3	0xbe02cb3d	-0.12772842
4	0x391b2184	0.00014794437
5	0x393376d9	0.00017115044
6	0x38986bf4	7.268033e-05
7	0x38ef6e21	0.00011416921
8	0x388dd33a	6.762748e-05
9	0x3980d995	0.00024576174
10	0x390ddcbe	0.00013529041
11	0x39285ccb	0.00016056297
12	0x3a289332	0.0006430625
13	0x394e5904	0.00019678852
14	0x386607c2	5.48435e-05
15	0x39855503	0.00025431075
16	0x80000160	-4.93e-43
17	0xad0b9032	-7.933253e-12
18	0x0000019d	5.79e-43
19	0x00000185	5.45e-43
20	0x00000198	5.72e-43
21	0x00000169	5.06e-43
22	0x395f068c	0.00021269376
23	0x8000015f	-4.92e-43
24	0x0000015f	4.92e-43
25	0xb2325157	-1.0379458e-08
26	0x8000015f	-4.92e-43
27	0x00000189	5.51e-43
28	0x000001c0	6.28e-43
29	0x00000160	4.93e-43
30	0x0000016b	5.09e-43
31	0x00000184	5.44e-43
32	0xb39245aa	-6.8113266e-08
33	0xadd2512f	-2.3910289e-11
34	0x8000015f	-4.92e-43
35	0x0000017b	5.31e-43
36	0x00000180	5.38e-43
37	0xafec17e4	-4.2945125e-10
38	0x0000015f	4.92e-43
39	0x0000015f	4.92e-43
40	0x800001aa	-5.97e-43
41	0x80000168	-5.04e-43
42	0x800001b7	-6.15e-43
43	0x0000015f	4.92e-43
44	0x8000019e	-5.8e-43
45	0x80000184	-5.44e-43
46	0x394f81ea	0.00019789455
47	0x37f27c3a	2.8906496e-05
48	0x80000175	-5.23e-43
49	0x800001b3	-6.1e-43
50	0x80000195	-5.68e-43
51	0x800001b1	-6.07e-43
52	0x0000015f	4.92e-43
53	0x348d42ce	2.6311903e-07
54	0x8000015f	-4.92e-43
55	0x0000015f	4.92e-43
56	0x80000190	-5.6e-43
57	0x00000161	4.95e-43
58	0x8000016c	-5.1e-43
59	0x00000178	5.27e-43
60	0x80000181	-5.4e-43
61	0x00000160	4.93e-43
62	0x80000163	-4.97e-43
63	0x000001b9	6.18e-43
64	0x80000160	-4.93e-43
65	0x8000015f	-4.92e-43
66	0x00000165	5e-43
67	0x8000016d	-5.11e-43
68	0x00000161	4.95e-43
69	0x80000197	-5.7e-43
70	0x80000177	-5.25e-43
71	0x8000015f	-4.92e-43
72	0x3accb565	0.0015618025
73	0x8000015f	-4.92e-43
74	0xae02289c	-2.9594646e-11
75	0x378bd92d	1.6671222e-05
76	0x000001a7	5.93e-43
77	0x8000015f	-4.92e-43
78	0x80000173	-5.2e-43
79	0x0000017c	5.32e-43
80	0x00000182	5.41e-43
81	0x8000015f	-4.92e-43
82	0x800001bf	-6.26e-43
83	0x80000198	-5.72e-43
84	0x800001ad	-6.01e-43
85	0x800001a5	-5.9e-43
86	0x341e3187	1.4732915e-07
87	0x000001a0	5.83e-43
88	0x8000016f	-5.14e-43
89	0xb2c3086f	-2.2704823e-08
90	0x00000196	5.69e-43
91	0x80000186	-5.47e-43
92	0x000001c2	6.3e-43
93	0x80000160	-4.93e-43
94	0x8000015f	-4.92e-43
95	0x0000015f	4.92e-43
96	0x00000160	4.93e-43
97	0x000001b5	6.12e-43
98	0x00000172	5.18e-43
99	0x800001af	-6.04e-43
100	0x80000162	-4.96e-43
101	0x0000015f	4.92e-43
102	0x800001a3	-5.87e-43
103	0x318205ba	3.784149e-09
104	0xba187488	-0.00058157044
105	0x000001a2	5.86e-43
106	0x0000015f	4.92e-43
107	0x800001b6	-6.14e-43
108	0x800001bf	-6.26e-43
109	0x000001a2	5.86e-43
110	0x8000015f	-4.92e-43
111	0x0000015f	4.92e-43
112	0x0000015f	4.92e-43
113	0x0000018d	5.56e-43
114	0x80000195	-5.68e-43
115	0x800001b1	-6.07e-43
116	0x00000197	5.7e-43
117	0x0000015f	4.92e-43
118	0x2d7b81fd	1.4296561e-11
119	0x800001bf	-6.26e-43
120	0x00000192	5.63e-43
121	0x0000015f	4.92e-43
122	0x80000160	-4.93e-43
123	0x80000160	-4.93e-43
124	0x8000016f	-5.14e-43
125	0x80000160	-4.93e-43
126	0x0000015f	4.92e-43
127	0x800001c0	-6.28e-43
128	0x00000183	5.42e-43
129	0x80000160	-4.93e-43
130	0x800001a9	-5.96e-43
131	0x80000166	-5.02e-43
132	0x80000195	-5.68e-43
133	0x0000015f	4.92e-43
134	0x0000015f	4.92e-43
135	0x00000160	4.93e-43
136	0xb0a30e0e	-1.1863805e-09
137	0xaf8c84b9	-2.5560157e-10
138	0x800001c1	-6.29e-43
139	0x8000015f	-4.92e-43
140	0x8000019e	-5.8e-43
141	0x800001b1	-6.07e-43
142	0x80000166	-5.02e-43
143	0x8000015f	-4.92e-43
144	0x0000015f	4.92e-43
145	0x0000015f	4.92e-43
146	0x800001b7	-6.15e-43
147	0x00000187	5.48e-43
148	0x0000015f	4.92e-43
149	0x2ec25142	8.836533e-11
150	0x00000188	5.5e-43
151	0x000001a0	5.83e-43
152	0x0000018f	5.59e-43
153	0xab4f67be	-7.3685144e-13
154	0x80000193	-5.65e-43
155	0x000001b6	6.14e-43
156	0x000001b7	6.15e-43
157	0x80000161	-4.95e-43
158	0x000001a3	5.87e-43
159	0x00000192	5.63e-43
160	0x0000015f	4.92e-43
161	0xacf44861	-6.9429328e-12
162	0x000001c2	6.3e-43
163	0x000001b5	6.12e-43
164	0x00000185	5.45e-43
165	0x000001a0	5.83e-43
166	0x800001c1	-6.29e-43
167	0x800001a9	-5.96e-43
168	0xb7f521ba	-2.9221981e-05
169	0x00000160	4.93e-43
170	0x0000018b	5.54e-43
171	0x39e806fd	0.00044255695
172	0x000001b5	6.12e-43
173	0x80000163	-4.97e-43
174	0x0000015f	4.92e-43
175	0x2f54f5e6	1.9368648e-10
176	0x2f04a060	1.2062307e-10
177	0x00000160	4.93e-43
178	0x0000017a	5.3e-43
179	0x0000017b	5.31e-43
180	0xb9b780d8	-0.00035000476
181	0x3684ddc2	3.9597226e-06
182	0x8000015f	-4.92e-43
183	0x2fa984a8	3.083518e-10
184	0x000001a0	5.83e-43
185	0x000001bc	6.22e-43
186	0x800001be	-6.25e-43
187	0x00000161	4.95e-43
188	0x80000178	-5.27e-43
189	0x80000164	-4.99e-43
190	0x39691457	0.00022228189
191	0x33c43874	9.13723e-08
192	0x0000015f	4.92e-43
193	0x80000182	-5.41e-43
194	0x000001a4	5.89e-43
195	0x80000175	-5.23e-43
196	0x00000181	5.4e-43
197	0x00000160	4.93e-43
198	0xb8925a05	-6.97859e-05
199	0xb7d5ec7f	-2.5501706e-05
200	0x8000015f	-4.92e-43
201	0x8000015f	-4.92e-43
202	0x0000015f	4.92e-43
203	0x0000015f	4.92e-43
204	0x0000017f	5.37e-43
205	0x8000017e	-5.35e-43
206	0x00000177	5.25e-43
207	0x80000160	-4.93e-43
208	0x8000015f	-4.92e-43
209	0x38865ccb	6.406902e-05
210	0x8000017d	-5.34e-43
211	0x000001b6	6.14e-43
212	0x0000015f	4.92e-43
213	0x0000015f	4.92e-43
214	0x8000015f	-4.92e-43
215	0x0000018e	5.58e-43
216	0x80000194	-5.66e-43
217	0x8000015f	-4.92e-43
218	0x80000160	-4.93e-43
219	0x00000160	4.93e-43
220	0x80000194	-5.66e-43
221	0x80000161	-4.95e-43
222	0x0000015f	4.92e-43
223	0x8000015f	-4.92e-43
224	0x8000015f	-4.92e-43
225	0x80000191	-5.62e-43
226	0x800001b5	-6.12e-43
227	0x80000173	-5.2e-43
228	0x800001a3	-5.87e-43
229	0x00000160	4.93e-43
230	0x0000015f	4.92e-43
231	0x0000016a	5.07e-43
232	0x80000176	-5.24e-43
233	0x8000015f	-4.92e-43
234	0x326b02ab	1.3679407e-08
235	0x8000015f	-4.92e-43
236	0x8000017e	-5.35e-43
237	0x3a83bbc0	0.0010050461
238	0x8000015f	-4.92e-43
239	0x80000188	-5.5e-43
240	0x80000160	-4.93e-43
241	0x80000169	-5.06e-43
242	0x000001b9	6.18e-43
243	0x80000174	-5.21e-43
244	0x80000196	-5.69e-43
245	0xb0292dd6	-6.154698e-10
246	0x80000173	-5.2e-43
247	0xb773af7f	-1.452479e-05
248	0x0000015f	4.92e-43
249	0x000001b6	6.14e-43
250	0x00000182	5.41e-43
251	0x8000015f	-4.92e-43
252	0x80000160	-4.93e-43
253	0x800001a3	-5.87e-43
254	0x00000160	4.93e-43
255	0x8000017b	-5.31e-43

weight f4 [16, 1, 4, 4]
0	0x80000160	-4.93e-43
1	0x8000015f	-4.92e-43
2	0x80000162	-4.96e-43
3	0x00000162	4.96e-43
4	0x00000162	4.96e-43
5	0x80000162	-4.96e-43
6	0x00000165	5e-43
7	0x00000160	4.93e-43
8	0x00000162	4.96e-43
9	0x00000163	4.97e-43
10	0x80000162	-4.96e-43
11	0x80000160	-4.93e-43
12	0x80000164	-4.99e-43
13	0x80000167	-5.03e-43
14	0x80000162	-4.96e-43
15	0x00000162	4.96e-43
16	0x00000167	5.03e-43
17	0x0000016a	5.07e-43
18	0x0000016c	5.1e-43
19	0x0000016c	5.1e-43
20	0x00000169	5.06e-43
21	0x80000169	-5.06e-43
22	0x80000167	-5.03e-43
23	0x8000015f	-4.92e-43
24	0x00000162	4.96e-43
25	0x00000171	5.17e-43
26	0x0000016b	5.09e-43
27	0x8000016c	-5.1e-43
28	0x8000015f	-4.92e-43
29	0x80000162	-4.96e-43
30	0x00000166	5.02e-43
31	0x8000016e	-5.13e-43
32	0x80000162	-4.96e-43
33	0x80000160	-4.93e-43
34	0x0000015f	4.92e-43
35	0x80000163	-4.97e-43
36	0x0000015f	4.92e-43
37	0x8000015f	-4.92e-43
38	0x80000161	-4.95e-43
39	0x80000163	-4.97e-43
40	0x80000163	-4.97e-43
41	0x00000161	4.95e-43
42	0x80000160	-4.93e-43
43	0x80000163	-4.97e-43
44	0x80000162	-4.96e-43
45	0x80000161	-4.95e-43
46	0x0000015f	4.92e-43
47	0x80000162	-4.96e-43
48	0x0000015f	4.92e-43
49	0x00000161	4.95e-43
50	0x0000015f	4.92e-43
51	0x00000161	4.95e-43
52	0x00000161	4.95e-43
53	0x00000160	4.93e-43
54	0x00000162	4.96e-43
55	0x80000161	-4.95e-43
56	0x00000166	5.02e-43
57	0x00000163	4.97e-43
58	0x00000183	5.42e-43
59	0x00000161	4.95e-43
60	0x80000162	-4.96e-43
61	0x80000160	-4.93e-43
62	0x00000161	4.95e-43
63	0x00000160	4.93e-43
64	0x8000015f	-4.92e-43
65	0x80000162	-4.96e-43
66	0x00000163	4.97e-43
67	0x80000162	-4.96e-43
68	0x80000162	-4.96e-43
69	0x00000164	4.99e-43
70	0x80000162	-4.96e-43
71	0x00000160	4.93e-43
72	0x00000162	4.96e-43
73	0x00000164	4.99e-43
74	0x80000161	-4.95e-43
75	0x80000162	-4.96e-43
76	0x80000162	-4.96e-43
77	0x80000160	-4.93e-43
78	0x00000166	5.02e-43
79	0x80000164	-4.99e-43
80	0x80000164	-4.99e-43
81	0x00000164	4.99e-43
82	0x00000165	5e-43
83	0x8000016a	-5.07e-43
84	0x80000198	-5.72e-43
85	0x00000172	5.18e-43
86	0x8000016e	-5.13e-43
87	0x00000163	4.97e-43
88	0x0000015f	4.92e-43
89	0x00000169	5.06e-43
90	0x8000015f	-4.92e-43
91	0x00000176	5.24e-43
92	0x80000167	-5.03e-43
93	0x8000016e	-5.13e-43
94	0x0000016c	5.1e-43
95	0x80000166	-5.02e-43
96	0x00000161	4.95e-43
97	0x80000165	-5e-43
98	0x80000166	-5.02e-43
99	0x80000162	-4.96e-43
100	0x00000164	4.99e-43
101	0x80000161	-4.95e-43
102	0x80000160	-4.93e-43
103	0x00000163	4.97e-43
104	0x80000167	-5.03e-43
105	0x80000173	-5.2e-43
106	0x80000166	-5.02e-43
107	0x00000163	4.97e-43
108	0x80000164	-4.99e-43
109	0x80000160	-4.93e-43
110	0x00000164	4.99e-43
111	0x00000162	4.96e-43
112	0x0000016c	5.1e-43
113	0x00000172	5.18e-43
114	0x00000160	4.93e-43
115	0x80000166	-5.02e-43
116	0x80000164	-4.99e-43
117	0x8000016c	-5.1e-43
118	0x80000170	-5.16e-43
119	0x00000161	4.95e-43
120	0x00000165	5e-43
121	0x00000170	5.16e-43
122	0x80000169	-5.06e-43
123	0x00000169	5.06e-43
124	0x00000165	5e-43
125	0x00000188	5.5e-43
126	0x8000018c	-5.55e-43
127	0x00000166	5.02e-43
128	0x80000169	-5.06e-43
129	0x0000015f	4.92e-43
130	0x0000015f	4.92e-43
131	0x00000165	5e-43
132	0x80000169	-5.06e-43
133	0x0000015f	4.92e-43
134	0x80000166	-5.02e-43
135	0x00000163	4.97e-43
136	0x80000168	-5.04e-43
137	0x00000166	5.02e-43
138	0x00000169	5.06e-43
139	0x00000160	4.93e-43
140	0x00000169	5.06e-43
141	0x00000165	5e-43
142	0x0000016d	5.11e-43
143	0x80000164	-4.99e-43
144	0x8000016b	-5.09e-43
145	0x00000182	5.41e-43
146	0x0000015f	4.92e-43
147	0x80000167	-5.03e-43
148	0x8000016b	-5.09e-43
149	0x00000180	5.38e-43
150	0x800001ba	-6.2e-43
151	0x80000166	-5.02e-43
152	0x8000016c	-5.1e-43
153	0x8000017a	-5.3e-43
154	0x00000171	5.17e-43
155	0x00000165	5e-43
156	0x0000017b	5.31e-43
157	0x80000162	-4.96e-43
158	0x8000017f	-5.37e-43
159	0x00000178	5.27e-43
160	0x00000163	4.97e-43
161	0x8000016e	-5.13e-43
162	0x8000015f	-4.92e-43
163	0x00000163	4.97e-43
164	0x8000015f	-4.92e-43
165	0x00000165	5e-43
166	0x00000165	5e-43
167	0x8000016a	-5.07e-43
168	0x0000016c	5.1e-43
169	0x80000163	-4.97e-43
170	0x80000162	-4.96e-43
171	0x00000164	4.99e-43
172	0x00000164	4.99e-43
173	0x00000165	5e-43
174	0x80000169	-5.06e-43
175	0x00000162	4.96e-43
176	0x80000160	-4.93e-43
177	0x00000162	4.96e-43
178	0x00000161	4.95e-43
179	0x80000162	-4.96e-43
180	0x80000160	-4.93e-43
181	0x00000164	4.99e-43
182	0x00000162	4.96e-43
183	0x8000015f	-4.92e-43
184	0x8000015f	-4.92e-43
185	0x00000164	4.99e-43
186	0x00000162	4.96e-43
187	0x8000015f	-4.92e-43
188	0x00000160	4.93e-43
189	0x80000163	-4.97e-43
190	0x00000160	4.93e-43
191	0x00000163	4.97e-43
192	0x00000163	4.97e-43
193	0x00000162	4.96e-43
194	0x00000160	4.93e-43
195	0x00000160	4.93e-43
196	0x8000015f	-4.92e-43
197	0x80000162	-4.96e-43
198	0x80000162	-4.96e-43
199	0x00000162	4.96e-43
200	0x00000163	4.97e-43
201	0x00000163	4.97e-43
202	0x00000163	4.97e-43
203	0x80000160	-4.93e-43
204	0x80000160	-4.93e-43
205	0x00000166	5.02e-43
206	0x80000162	-4.96e-43
207	0x00000162	4.96e-43
208	0x00000165	5e-43
209	0x00000162	4.96e-43
210	0x00000164	4.99e-43
211	0x0000015f	4.92e-43
212	0x80000164	-4.99e-43
213	0x00000164	4.99e-43
214	0x00000160	4.93e-43
215	0x80000166	-5.02e-43
216	0x00000160	4.93e-43
217	0x80000166	-5.02e-43
218	0x00000165	5e-43
219	0x0000015f	4.92e-43
220	0x80000166	-5.02e-43
221	0x80000166	-5.02e-43
222	0x80000160	-4.93e-43
223	0x0000015f	4.92e-43
224	0x00000162	4.96e-43
225	0x8000015f	-4.92e-43
226	0x80000163	-4.97e-43
227	0x00000162	4.96e-43
228	0x00000160	4.93e-43
229	0x00000166	5.02e-43
230	0x80000164	-4.99e-43
231	0x00000161	4.95e-43
232	0x80000165	-5e-43
233	0x0000015f	4.92e-43
234	0x00000163	4.97e-43
235	0x00000160	4.93e-43
236	0x00000160	4.93e-43
237	0x00000161	4.95e-43
238	0x00000162	4.96e-43
239	0x00000160	4.93e-43
240	0x0000015f	4.92e-43
241	0x00000161	4.95e-43
242	0x0000015f	4.92e-43
243	0x80000161	-4.95e-43
244	0x00000162	4.96e-43
245	0x00000166	5.02e-43
246	0x80000165	-5e-43
247	0x80000166	-5.02e-43
248	0x00000163	4.97e-43
249	0x80000166	-5.02e-43
250	0x80000161	-4.95e-43
251	0x00000161	4.95e-43
252	0x80000164	-4.99e-43
253	0x00000162	4.96e-43
254	0x00000162	4.96e-43
255	0x80000165	-5e-43

bias f4 [16]
0	0x00000161	4.95e-43
1	0x0000016c	5.1e-43
2	0x00000162	4.96e-43
3	0x00000160	4.93e-43
4	0x00000163	4.97e-43
5	0x80000174	-5.21e-43
6	0x80000163	-4.97e-43
7	0x0000016f	5.14e-43
8	0x00000165	5e-43
9	0x8000016a	-5.07e-43
10	0x00000166	5.02e-43
11	0x80000164	-4.99e-43
12	0x80000162	-4.96e-43
13	0x80000161	-4.95e-43
14	0x00000165	5e-43
15	0x80000162	-4.96e-43

in_proj_weight f4 [48, 16]
0	0x3e5c83ee	0.21534702
1	0x3e19cfec	0.15020722
2	0x3de9fb9d	0.114249445
3	0xbe2b1f4b	-0.16711156
4	0x3cd668ef	0.026173083
5	0xbe3be26b	-0.1834809
6	0x3dc195b7	0.09452384
7	0x3e634e5e	0.22197863
8	0x3d824f16	0.06362741
9	0xbe6132a5	-0.21991976
10	0x3dd91b7b	0.106009446
11	0x3d9cd952	0.07658638
12	0xbe45c18d	-0.19312115
13	0xbe1e8b92	-0.1548293
14	0xbcfebc6c	-0.031095706
15	0x3d937655	0.072003044
16	0x3cfe3534	0.031031229
17	0x3ce6420e	0.02810767
18	0xbdca5358	-0.09879178
19	0x3e858db0	0.2608466
20	0x3d11dde6	0.03561201
21	0xbd1f7bc1	-0.03893638
22	0xbe0e69ab	-0.13907497
23	0xbe4b7faf	-0.19872926
24	0x3e8ac57d	0.27103797
25	0x3e9064c5	0.2820188
26	0xbd9696be	-0.073529705
27	0xbde8e563	-0.11371877
28	0xbe1b2cf6	-0.1515387
29	0x3d86e438	0.06586498
30	0xbcdf4fc3	-0.027259713
31	0xbcc663f4	-0.024217583
32	0x3db26fcf	0.08712732
33	0x3e63d1dd	0.22248025
34	0xbe9ab5ef	-0.3021693
35	0x3e84444a	0.2583335
36	0x3e970999	0.2949951
37	0xbdd89623	-0.10575511
38	0xbe1a8795	-0.15090783
39	0xbd70276c	-0.058631346
40	0xbe0b516b	-0.13605277
41	0x3e101934	0.14072114
42	0xbe101e07	-0.14073955
43	0xbd8f9dad	-0.07012496
44	0x3d0904e3	0.033451926
45	0xbdf7194a	-0.120653704
46	0x3e4721a0	0.1944642
47	0x3e494ca7	0.19658147
48	0x3cecac70	0.028890818
49	0xbdc081dc	-0.09399769
50	0xbccaaf64	-0.024741836
51	0xbe4360d5	-0.19079907
52	0x3e8df9ef	0.27729747
53	0x3e1eb837	0.1549996
54	0x3e6e44eb	0.23268478
55	0x3de817f9	0.113326974
56	0xbcb724ba	-0.02235638
57	0x3e9350fa	0.28772718
58	0x3dd7d393	0.105384015
59	0xbd07f6c1	-0.033194307
60	0x3e5062e0	0.20350218
61	0x3e3de678	0.18544948
62	0x3e0fd15b	0.14044707
63	0xbe52291b	-0.20523493
64	0x3e6f9e0c	0.23400134
65	0x3e930d6e	0.28721184
66	0xbe036580	-0.12831688
67	0x3e0e4f94	0.13897544
68	0xbe17f533	-0.1483963
69	0xbdbea6a1	-0.09309126
70	0x3e8aa342	0.2707768
71	0x3e346ee9	0.17620434
72	0xbe694b8d	-0.22782727
73	0x3e1faccd	0.15593262
74	0x3e954711	0.29155782
75	0xbe98a20f	-0.2981114
76	0xbe77124d	-0.24128075
77	0xbc10799d	-0.008818057
78	0x3e17488a	0.14773765
79	0xbe0dc784	-0.1384564
80	0x3d760471	0.06006283
81	0xbdf52956	-0.11970775
82	0x3cb09e85	0.021559963
83	0x3e98c00a	0.29834014
84	0xbe9abe48	-0.30223298
85	0xbe98d18a	-0.29847366
86	0x3d201122	0.03907884
87	0x3e809510	0.25113726
88	0xbe6a391b	-0.22873347
89	0x3e92f818	0.28704906
90	0x3e80dea1	0.25169852
91	0x3e85f97b	0.261669
92	0x3e760f52	0.24029282
93	0x3d1844a5	0.03717484
94	0x3db04f1f	0.08608841
95	0x3e3f8c19	0.18705787
96	0xbe827c63	-0.25485525
97	0xbc0721c3	-0.0082477955
98	0xbe4186f0	-0.18899131
99	0x3e469b7f	0.19395255
100	0xbdfd881d	-0.12379477
101	0xbdbfebef	-0.09371173
102	0xbe060526	-0.13087901
103	0x3dd2c4b1	0.10291422
104	0xbdc2289c	-0.09480402
105	0x3e5bcba9	0.21464409
106	0xbe78d297	-0.24299084
107	0xbe58e242	-0.2118006
108	0x3d710774	0.058845
109	0x3e8fb25f	0.28065774
110	0xbe7cfcf7	-0.24705873
111	0xbe98fabe	-0.298788
112	0xbe6aec28	-0.22941649
113	0x3dc9bb21	0.09850145
114	0xbe8be1e9	-0.27320793
115	0xbe62aa7e	-0.2213535
116	0xbe4d9a5a	-0.20078412
117	0xbe6a851b	-0.22902338
118	0x3e21e32d	0.15809317
119	0x3c8cfdc5	0.01721085
120	0xbe018fd4	-0.12652522
121	0xbd6bab9b	-0.057536703
122	0xbdc74395	-0.09729687
123	0x3e87c584	0.2651788
124	0xbe6446ec	-0.2229268
125	0x3e8b7e80	0.2724495
126	0xbd8f3c7d	-0.06993959
127	0xbe903581	-0.2816582
128	0xbe1bb40a	-0.15205398
129	0x3deb944c	0.11502895
130	0xbe0cd7f9	-0.13754262
131	0xbd93488f	-0.07191574
132	0x3e8ab78b	0.27093157
133	0x3ce1d37b	0.027566662
134	0xbe844620	-0.2583475
135	0xbe0802a1	-0.13282253
136	0xbe900bfa	-0.28134137
137	0xbe7ebf8b	-0.24877755
138	0xbe5e70e3	-0.2172275
139	0x3daa5840	0.083176136
140	0xbd57319f	-0.052537557
141	0xbe82357d	-0.25431433
142	0x3e54c48a	0.20778099
143	0x3e90f46a	0.28311473
144	0x3e82c43c	0.2554034
145	0x3cd3d99e	0.025860604
146	0xbe5f24a8	-0.21791327
147	0x3e52445a	0.20533887
148	0xbe994393	-0.29934368
149	0x3e75eaa3	0.24015288
150	0x3e8412be	0.2579555
151	0x3e06ab19	0.13151206
152	0xbc0539db	-0.00813147
153	0xbd2c3e2a	-0.04205147
154	0xbda84104	-0.08215526
155	0x3e7ba674	0.24575216
156	0x3e42af77	0.19012247
157	0xbcbafe92	-0.022826467
158	0xbded4791	-0.11585916
159	0x3dec40ed	0.11535821
160	0xbe8c93a9	-0.27456406
161	0xbe2790ce	-0.16363832
162	0x3e4f53e4	0.20246845
163	0xbe22c049	-0.15893663
164	0xbe868961	-0.26276687
165	0xbe7ffbd6	-0.24998412
166	0x3e0e39ca	0.13889232
167	0xbe309f96	-0.17248377
168	0xbe87e48a	-0.2654155
169	0xbe814def	-0.2525477
170	0x3dae4d2b	0.08510812
171	0x3cf2b1ef	0.029625861
172	0xbe1b7ff6	-0.15185532
173	0xbd8c3698	-0.068463504
174	0x3df4b0ff	0.11947822
175	0xbe8cc4f3	-0.2749401
176	0xbbeee506	-0.0072904853
177	0xbcc15273	-0.023598885
178	0x3cf7e9ab	0.030262789
179	0xbe235d8d	-0.15953656
180	0xbe6aee0e	-0.22942373
181	0x3e8c8753	0.27446994
182	0x3dbd67b1	0.09248293
183	0xbe84b504	-0.25919354
184	0xbc9a04e7	-0.018801166
185	0xbe943b9a	-0.28951722
186	0x3e765b1a	0.2405819
187	0x3d19f5bf	0.037587877
188	0x3c91f930	0.017819017
189	0xbdb5fe8a	-0.0888644
190	0x3e954bf4	0.2915951
191	0xbc898f48	-0.016791955
192	0xbe4f3c11	-0.20237757
193	0x3e09ab1e	0.13444182
194	0x3e8e32d9	0.2777317
195	0x3d51760d	0.051137973
196	0x3e23530d	0.1594965
197	0x3e7e649d	0.24843068
198	0x3e895fe8	0.26830983
199	0xbe4662fe	-0.193737
200	0xbcc53230	-0.024071783
201	0xbdfa07f2	-0.12208547
202	0xbe997a7e	-0.29976267
203	0x3e696068	0.22790682
204	0x3e9181d5	0.28419366
205	0xbdd05fba	-0.101745084
206	0xbd8baad0	-0.06819689
207	0x3dae36a5	0.08506516
208	0xbdcbcf63	-0.09951665
209	0x3e3492f2	0.1763418
210	0xbbf053d6	-0.007334213
211	0x3d4a48d1	0.04938585
212	0xbd62d27a	-0.055376507
213	0xbe360086	-0.17773637
214	0xbe1b780a	-0.1518251
215	0xbd99b3d4	-0.075050026
216	0xbd8872ec	-0.066625446
217	0xbe6cf8b9	-0.23141755
218	0x3e8a5e36	0.27025002
219	0xbc5ffb6b	-0.013670783
220	0x3e173441	0.14766027
221	0x3e96c24f	0.2944512
222	0x3e04a02d	0.12951727
223	0x3d3b6277	0.0457482
224	0xbe1c31e2	-0.15253404
225	0x3e870d88	0.2637751
226	0xbe064a7d	-0.13114353
227	0xbe1c906c	-0.15289468
228	0x3e845230	0.25843954
229	0xbe1bd3ac	-0.15217465
230	0x3dee5bcc	0.116386026
231	0x3da591f9	0.08084483
232	0x3e950179	0.29102686
233	0x3e5736a0	0.21016932
234	0x3e3c552d	0.18391867
235	0x3b126708	0.0022339243
236	0xbbca2aa9	-0.0061696363
237	0xbdb2e3e9	-0.08734877
238	0xbe136b3d	-0.14396377
239	0xbddea2e2	-0.10870911
240	0x3e1fd0e2	0.15607026
241	0x3cf17232	0.029473398
242	0x3e9150f7	0.28382084
243	0xbe7add75	-0.24498542
244	0xbe794bee	-0.24345371
245	0x3c73740e	0.014859213
246	0x3d7454e9	0.05965129
247	0x3d3b970d	0.04579835
248	0xbe78b711	-0.24288584
249	0x3ddf7cb7	0.10912459
250	0xbe94f7da	-0.29095346
251	0x3e6d4cf2	0.23173884
252	0x3e143cb6	0.14476284
253	0x3e5bdfb5	0.21472056
254	0x3e032005	0.12805183
255	0xbe1fceb1	-0.1560619

in_proj_bias f4 [48]
0	0x00000000	0.0
1	0x00000000	0.0
2	0x00000000	0.0
3	0x00000000	0.0
4	0x00000000	0.0
5	0x00000000	0.0
6	0x00000000	0.0
7	0x00000000	0.0
8	0x00000000	0.0
9	0x00000000	0.0
10	0x00000000	0.0
11	0x00000000	0.0
12	0x00000000	0.0
13	0x00000000	0.0
14	0x00000000	0.0
15	0x00000000	0.0
16	0x00000000	0.0
17	0x00000000	0.0
18	0x00000000	0.0
19	0x00000000	0.0
20	0x00000000	0.0
21	0x00000000	0.0
22	0x00000000	0.0
23	0x00000000	0.0
24	0x00000000	0.0
25	0x00000000	0.0
26	0x00000000	0.0
27	0x00000000	0.0
28	0x00000000	0.0
29	0x00000000	0.0
30	0x00000000	0.0
31	0x00000000	0.0
32	0x00000000	0.0
33	0x00000000	0.0
34	0x00000000	0.0
35	0x00000000	0.0
36	0x00000000	0.0
37	0x00000000	0.0
38	0x00000000	0.0
39	0x00000000	0.0
40	0x00000000	0.0
41	0x00000000	0.0
42	0x00000000	0.0
43	0x00000000	0.0
44	0x00000000	0.0
45	0x00000000	0.0
46	0x00000000	0.0
47	0x00000000	0.0

weight f4 [16, 16]
0	0x3e24a79f	0.16079567
1	0xbeb8b88b	-0.36078295
2	0x3ec3d778	0.38250327
3	0x3deee316	0.11664407
4	0xbecd89ae	-0.40144104
5	0x3e8a4dc2	0.2701245
6	0xbcbc2298	-0.022965714
7	0x3e5c6233	0.21521835
8	0x3e494d57	0.19658409
9	0xbe7f950a	-0.24959198
10	0x3ec28c64	0.37997735
11	0x3e7a3e02	0.24437717
12	0xbc3aebcd	-0.011408758
13	0x3dae83d7	0.0852124
14	0x3e5aabd7	0.21354614
15	0x3cee09c5	0.029057393
16	0xbdb78c52	-0.08962311
17	0xbed924dd	-0.42410937
18	0x3e9874d4	0.29776633
19	0x3eda6340	0.42653847
20	0x3e9b8256	0.30372876
21	0x3dfcd5fb	0.12345501
22	0xbed7fc02	-0.42184454
23	0x3dfcd7b6	0.12345831
24	0x3e2a0712	0.1660426
25	0x3ec1c451	0.3784509
26	0xbe41c8e1	-0.18924285
27	0xbe5861df	-0.21131085
28	0xbe9a725c	-0.30165374
29	0x3dcf96e4	0.10136202
30	0x3e4f8c72	0.2026842
31	0xbebe9e98	-0.37230372
32	0xbed4754e	-0.41495746
33	0xbed47589	-0.41495922
34	0xbed63c43	-0.4184285
35	0x3d2c7d9b	0.042111974
36	0xbe9923ed	-0.29910222
37	0xbed8b61d	-0.4232644
38	0x3cc5aa30	0.024129003
39	0x3eb1869b	0.34673008
40	0xbe202cbf	-0.1564207
41	0xbe042751	-0.12905623
42	0x3d8edc33	0.069755934
43	0xbdcb30db	-0.09921428
44	0x3e9f0123	0.31055555
45	0xbc5e07d8	-0.013551675
46	0x3c8b48a6	0.017002415
47	0xbe04475a	-0.12917843
48	0x3e9823a5	0.29714695
49	0xbde51752	-0.111860886
50	0x3e2cb9b0	0.16867709
51	0xbe2953d5	-0.16535886
52	0xbe2a0a84	-0.16605574
53	0xbc964510	-0.018343478
54	0xbdfb9aaa	-0.12285359
55	0x3e786e7f	0.24260901
56	0xbdbe90bd	-0.093049504
57	0xbea035da	-0.31291085
58	0x3e4d4c52	0.20048645
59	0x3ebaea4b	0.36506876
60	0x3e000a70	0.12503982
61	0x3ed5b6e9	0.41741112
62	0x3ec0e8e5	0.37677684
63	0xbe8f1f4e	-0.2795357
64	0xbe479a0c	-0.19492358
65	0xbdb5711f	-0.08859467
66	0xbecb1507	-0.3966448
67	0xbe4ec18f	-0.20191024
68	0x3e76c3d4	0.2409814
69	0x3ec6ceb2	0.3882957
70	0xbe237d5d	-0.15965791
71	0x3ead23fe	0.33816522
72	0xbc45113a	-0.012028033
73	0x3d085f29	0.033293877
74	0xbe1744a6	-0.14772281
75	0xbecee280	-0.4040718
76	0x3eda2cd9	0.4261234
77	0xbe87511b	-0.26429066
78	0x3e8a65c3	0.27030763
79	0xbe11285d	-0.14175554
80	0xbda754a9	-0.081704445
81	0xbe376921	-0.17911197
82	0xbeaf09a4	-0.34187043
83	0xbd295803	-0.0413437
84	0xbeb1cbd1	-0.34725812
85	0xbdff2dda	-0.12459917
86	0xbcdda8da	-0.027058054
87	0x3e835b46	0.25655574
88	0x3e03f676	0.12886986
89	0xbdbea2b2	-0.093083754
90	0xbea93f5a	-0.33056146
91	0xbdb174c8	-0.086648524
92	0x3ea8eb96	0.32992238
93	0xbeb4b3ee	-0.35293525
94	0xbd9a8019	-0.07543964
95	0xbeb78f3f	-0.35851476
96	0x3d1616c9	0.036642823
97	0x3e11842a	0.14210573
98	0x3e90afa8	0.28259015
99	0x3e8c4427	0.27395746
100	0xbeaa789a	-0.33295137
101	0x3e7083e7	0.23487817
102	0x3dea3281	0.11435414
103	0xbe6703f2	-0.22560099
104	0x3ea5eed8	0.32408786
105	0xbe3d8d63	-0.18510966
106	0x3ebae524	0.36502945
107	0x3c96d2c5	0.01841105
108	0xbe4feeac	-0.2030589
109	0x3e9a761e	0.3016824
110	0xbe6fa767	-0.23403703
111	0x3e69f743	0.22848229
112	0x3edadab2	0.42744976
113	0x3e1fffbd	0.156249
114	0x3db88f19	0.09011669
115	0x3ebbc2ef	0.3667216
116	0xbe27a50c	-0.16371554
117	0x3e113ca9	0.14183296
118	0x3e02966c	0.12752694
119	0xbec36bd4	-0.38168204
120	0x3e3cbcec	0.18431443
121	0x3eaceb2c	0.33773172
122	0x3e28d4b7	0.16487394
123	0x3ec28300	0.3799057
124	0xbe72b32e	-0.23701164
125	0x3e9f650a	0.31131774
126	0xbc292ca1	-0.010325582
127	0xbe36790a	-0.1781961
128	0x3eba4f7f	0.36388776
129	0xbe7a13d2	-0.24421623
130	0xbd698329	-0.05700985
131	0x3ec52866	0.38507384
132	0xbde422e9	-0.11139471
133	0x3e2b1ee5	0.16711004
134	0x3ec09906	0.37616748
135	0xbe3158a6	-0.17318973
136	0xbe7c74d6	-0.24653944
137	0xbedcf35c	-0.43154418
138	0x3dc2dc9b	0.095147334
139	0x3e3804d1	0.17970587
140	0x3e125dc4	0.14293581
141	0xbeab5e3d	-0.33470336
142	0xbe02bce2	-0.12767366
143	0x3e84914a	0.25892097
144	0xbe165fcc	-0.14684981
145	0x3ec1599a	0.37763673
146	0x3e96def4	0.29466975
147	0x3ed618d2	0.4181581
148	0x3e69a03e	0.22815034
149	0xbd83b243	-0.06430485
150	0x3dc49ece	0.09600602
151	0x3ed64e7e	0.4185676
152	0xbe15319b	-0.14569704
153	0x3d718dad	0.058973003
154	0x3e56a132	0.20959929
155	0x3eb1eb8e	0.34750026
156	0xbe8cfe0c	-0.27537572
157	0xbe36d98f	-0.1785643
158	0xbe8a13ee	-0.2696833
159	0xbce895ae	-0.028391685
160	0x3dab166c	0.08353886
161	0xbec503a1	-0.3847933
162	0x3eb08fe0	0.34484768
163	0xbdee0a30	-0.11623037
164	0x3edcfa27	0.431596
165	0x3e3e2619	0.1856922
166	0xbd35e930	-0.044411838
167	0x3d9e4e25	0.07729749
168	0xbde30ca2	-0.11086394
169	0x3ebd65ed	0.36991826
170	0xbd5caff3	-0.053878736
171	0x3ecf0ab9	0.40437868
172	0xbead72e3	-0.33876714
173	0xbe10aaa8	-0.141276
174	0x3dd78e15	0.10525147
175	0xbe9b8de2	-0.30381685
176	0xbe39290a	-0.18082061
177	0xbe29872a	-0.16555467
178	0x3eab1eed	0.33422032
179	0x3ea0ea28	0.31428647
180	0x3d8012c6	0.06253581
181	0x3e4dae16	0.2008594
182	0xbe95454a	-0.29154426
183	0xbe3dd9b9	-0.18540086
184	0xbed8abd6	-0.423186
185	0xbea1873f	-0.31548497
186	0x3eb58c54	0.35458624
187	0x3d8386c5	0.064221896
188	0xbe42180f	-0.1895449
189	0x3e8ea504	0.27860272
190	0x3d98fdc1	0.07470275
191	0x3e11e486	0.14247331
192	0xbe33bbfa	-0.17552176
193	0x3d85d528	0.06534797
194	0xbea77e69	-0.3271363
195	0xbe9c3111	-0.30506185
196	0x3ebb7f91	0.36620763
197	0x3ebcf422	0.3690501
198	0xbd92d153	-0.07168832
199	0x3e257da7	0.16161214
200	0xbe9e147c	-0.30875003
201	0x3e466ddf	0.1937785
202	0x3d251757	0.04030546
203	0x3e54aed7	0.20769821
204	0x3e9fe1b1	0.31226876
205	0x3e9edac9	0.31026295
206	0xbe3b88cf	-0.18313907
207	0xbe7f8bea	-0.24955717
208	0x3ea98f42	0.3311711
209	0x3e8abe07	0.27098104
210	0x3ec9648b	0.3933452
211	0x3c9ba0d9	0.018997597
212	0x3e5ae5da	0.21376744
213	0x3e8d15f4	0.2755581
214	0x3d64664d	0.055761624
215	0x3ebd6d6e	0.3699755
216	0x3e1c0d28	0.15239394
217	0xbe56c213	-0.20972471
218	0x3e065f50	0.13122296
219	0xbdea82db	-0.1145074
220	0x3e5608e6	0.20901832
221	0x3e9d88f3	0.30768546
222	0x3d8cbd56	0.068720505
223	0xbeaa9da8	-0.33323407
224	0xbd4358c5	-0.04769208
225	0x3eb8d490	0.36099672
226	0x3ec12562	0.37723833
227	0xbed5babf	-0.41744038
228	0x3dfab602	0.122417465
229	0x3e7d49b7	0.24735151
230	0x3d8db844	0.069199115
231	0x3e8b82f8	0.2724836
232	0x3da1a05e	0.07891916
233	0x3ed6b9ea	0.41938716
234	0xbe1741c8	-0.14771187
235	0xbecc1814	-0.3986212
236	0xbe8a32d7	-0.26991913
237	0x3edb2bf0	0.4280696
238	0x3c3b6b52	0.011439161
239	0xbdb0ff6c	-0.08642468
240	0xbe6ea1dc	-0.23303932
241	0x3db12e00	0.08651352
242	0xbd588f28	-0.0528709
243	0x3e921335	0.2853028
244	0xbd155626	-0.03645911
245	0x3e94fcec	0.29099214
246	0x3e77ab16	0.24186358
247	0xbece67e1	-0.40313628
248	0x3e8fbc79	0.2807348
249	0xbeb0c511	-0.3452535
250	0x3e78ac2c	0.24284428
251	0xbebcc1e9	-0.36866692
252	0x3e0dc4a6	0.13844547
253	0x3da3c99f	0.079974405
254	0x3e3211b6	0.17389569
255	0xbed80d78	-0.42197776

bias f4 [16]
0	0x00000000	0.0
1	0x00000000	0.0
2	0x00000000	0.0
3	0x00000000	0.0
4	0x00000000	0.0
5	0x00000000	0.0
6	0x00000000	0.0
7	0x00000000	0.0
8	0x00000000	0.0
9	0x00000000	0.0
10	0x00000000	0.0
11	0x00000000	0.0
12	0x00000000	0.0
13	0x00000000	0.0
14	0x00000000	0.0
15	0x00000000	0.0

weight f4 [2048, 16]
0	0x3d55e871	0.052223627
1	0xbd273b41	-0.040827993
2	0xbcaea503	-0.021318918
3	0x3d30027c	0.04297112
4	0xbbc1fbcc	-0.005919909
5	0xbd1c72e3	-0.038195502
6	0xbd38aac9	-0.04508475
7	0x3d0c3c73	0.034237336
8	0xbd557476	-0.05211302
9	0x3ccf9f27	0.025344444
10	0x3c196325	0.009362017
11	0x3cb00404	0.02148629
12	0xbd5a04fa	-0.053227402
13	0xb8c25ae8	-9.2675735e-05
14	0x3d0e736d	0.034778047
15	0x3b1658c1	0.0022941085
16	0xbc9edad9	-0.019391464
17	0x3cdf7de6	0.027281713
18	0x3d53eac0	0.051737547
19	0x3d0f97e9	0.035056982
20	0x3cc3f2a9	0.02391942
21	0xbd460b6f	-0.048350748
22	0x3ba10428	0.0049138255
23	0xbd2e7874	-0.04259534
24	0xbd06604a	-0.032806672
25	0x3d0e5273	0.0347466
26	0x3d436dcc	0.047712132
27	0x3ce6c345	0.028169284
28	0x3cd9ab62	0.02657098
29	0x3d386759	0.045020435
30	0x3d304ddf	0.043043014
31	0x3d1990d3	0.03749163
32	0x3d522e8f	0.051313933
33	0x3ca35f2f	0.019942848
34	0xbcf31d4f	-0.029677061
35	0xbd5b7f95	-0.05358847
36	0xbd5634d8	-0.05229649
37	0x3d37053c	0.044682726
38	0xbd53c42e	-0.051700763
39	0xbb9eed93	-0.0048500984
40	0xbd30ab9d	-0.043132413
41	0xbbb4e7ab	-0.005520781
42	0x3c8b9123	0.01703698
43	0xbcc1c98c	-0.023655675
44	0xbd5c066a	-0.053717054
45	0x3d46bc89	0.048519645
46	0xbd33f178	-0.043931454
47	0xbc39aaa7	-0.011332191
48	0x3d0dedab	0.034650486
49	0x3c20ddb7	0.009818486
50	0x3c3aced7	0.0114018535
51	0x3ca49e81	0.020095112
52	0xbd177376	-0.036975347
53	0x3d29d023	0.04145826
54	0xbbfcc81f	-0.007714286
55	0x3d15b55e	0.03654992
56	0xbcea8835	-0.028629402
57	0xbc4082a3	-0.011749896
58	0xbca72593	-0.020403659
59	0xbd16dc53	-0.03683121
60	0x3d29d9bc	0.041467413
61	0xbc051e91	-0.008124963
62	0x3cc9e385	0.024644623
63	0x3c4633fc	0.012097355
64	0x3ccf6477	0.02531646
65	0x3d22fa6e	0.03978961
66	0xbcf3ad0a	-0.029745597
67	0x3cf76f93	0.03020457
68	0xbbeff13e	-0.0073224595
69	0x3d11f007	0.0356293
70	0x3d01539d	0.03157388
71	0xbd0025a2	-0.03128589
72	0xbce9db32	-0.028546903
73	0x3d1dc807	0.03852084
74	0xbc7842ab	-0.015152614
75	0x3cdca649	0.02693476
76	0xbcc5ef4b	-0.024161955
77	0x3c9300ca	0.017944712
78	0x3c3c20a0	0.011482388
79	0xba8a8ef2	-0.0010571165
80	0xbc1ee191	-0.009697334
81	0x3d4f6aa0	0.050638795
82	0xbc758197	-0.01498451
83	0xbc2fbc55	-0.010726054
84	0x3d32a86c	0.04361765
85	0x3d4300dc	0.04760824
86	0xbd5148c1	-0.051094774
87	0x3b63e11a	0.0034771622
88	0x3d153998	0.03643188
89	0x3aecee36	0.0018076363
90	0xbd5bddd0	-0.053678334
91	0xbcd171aa	-0.025566895
92	0x3d2a3dd8	0.041562885
93	0xbce05fef	-0.027389495
94	0x3c16ee43	0.009212079
95	0xbc9df143	-0.019280082
96	0xbd112af1	-0.035441343
97	0x3b669295	0.0035182585
98	0xbd1ab94b	-0.037774365
99	0xbd21f124	-0.03953661
100	0x3c50c199	0.01274147
101	0x3749dceb	1.203197e-05
102	0xbcbbfb25	-0.022946903
103	0xbb2820ea	-0.0025654384
104	0xbd178eb9	-0.037001345
105	0x3d49f143	0.04930235
106	0xbca67711	-0.020320447
107	0xbd37ab0b	-0.044840854
108	0xbc97593c	-0.018475167
109	0xbd1d1c21	-0.038356904
110	0xbca0ea13	-0.019642865
111	0x3c91d178	0.017800078
112	0x3c9c313a	0.019066442
113	0xbcaeb262	-0.021325294
114	0xbd567601	-0.05235863
115	0xbd1d8b46	-0.0384629
116	0xbc965320	-0.018350184
117	0xbcc87cb7	-0.024473531
118	0xbc115a0f	-0.008871569
119	0xbcd40688	-0.02588202
120	0x3c4f7ee2	0.012664529
121	0xbd53d0a1	-0.051712636
122	0xbcd763eb	-0.026292762
123	0xbcdee8cf	-0.027210621
124	0xbccadd4c	-0.024763726
125	0xbb8ac94f	-0.0042354236
126	0x3d2c522e	0.04207056
127	0x3cd183f8	0.025575623
128	0x3c2b35a8	0.010449804
129	0xbd4a9a43	-0.04946352
130	0xbc9458f3	-0.01810882
131	0xbccefe90	-0.02526787
132	0xbca8777a	-0.020564783
133	0x3d120978	0.03565356
134	0x3d4d62d1	0.050143067
135	0xbb49c195	-0.003078555
136	0x3b12e65b	0.0022415135
137	0xbd26f19e	-0.040757768
138	0xbb9b376f	-0.004736833
139	0xbcb81163	-0.022469228
140	0xbc632724	-0.013864312
141	0x3d235042	0.03987146
142	0xbd5c8990	-0.053842127
143	0x3d050448	0.032474786
144	0x3c8e22d9	0.017350601
145	0x3c273eae	0.010207815
146	0xbd3c5f77	-0.04598948
147	0xbc60e2f3	-0.013725984
148	0x3cb5d05c	0.02219408
149	0x3cc890b2	0.024483059
150	0x3c33b68f	0.010968818
151	0xbd3eea96	-0.046610437
152	0xbce3e657	-0.027819796
153	0xbd2ead7d	-0.04264592
154	0x3d4dbaff	0.05022716
155	0xbba20587	-0.0049445066
156	0xbd102475	-0.035191018
157	0xbd421b31	-0.047389213
158	0x3c22f52f	0.009946152
159	0xbcea4f9f	-0.02860242
160	0x3c0da2cc	0.008644771
161	0x3d53d95e	0.05172097
162	0xbc05b016	-0.008159658
163	0x3d1f33e0	0.03886783
164	0x3cf4383e	0.029811975
165	0xbd59ca0e	-0.05317121
166	0xbd31e68e	-0.043432765
167	0x3bd55388	0.006510202
168	0xbcaefc1b	-0.021360448
169	0xbc4da2bf	-0.012551009
170	0x3d1fdd9b	0.0390297
171	0xbd0bc54c	-0.034123704
172	0xbc6e8956	-0.014559111
173	0x3be89857	0.0070982384
174	0xbbfc8ed5	-0.0077074566
175	0x3d2d56fc	0.042319283
176	0xbd2bb1ed	-0.04191773
177	0x3d3102d4	0.043215588
178	0xbd3f8373	-0.04675622
179	0x3c1dd894	0.009634156
180	0x3b6c2024	0.00360299
181	0xbcbcd175	-0.023049096
182	0x3d302222	0.0430013
183	0x3bd979a1	0.0066368137
184	0x3c2ed947	0.01067192
185	0x3c61a3c1	0.013771952
186	0xbd098c11	-0.033580843
187	0xbd435c95	-0.047695715
188	0x3c988448	0.018617764
189	0x3c863a16	0.01638512
190	0xbce6834e	-0.028138783
191	0x39b96439	0.0003536062
192	0x3d2fae81	0.04289103
193	0x3ccb4d1c	0.024817042
194	0xbd52bca6	-0.05144944
195	0xbd1d4c54	-0.03840287
196	0x3ce94c0b	0.028478643
197	0x3b7ecef5	0.003888068
198	0xbd4c71ff	-0.049913403
199	0xbcef5878	-0.02921699
200	0xbd23a568	-0.039952666
201	0xbca4607e	-0.020065542
202	0x3d268320	0.040652394
203	0xbd0735c9	-0.033010278
204	0x3d06222d	0.032747436
205	0x3d2ae18e	0.041719012
206	0xbcf6d83e	-0.03013241
207	0x3c604827	0.013689077
208	0xbd1f8ad4	-0.038950756
209	0xbd5c3989	-0.053765807
210	0xbc959670	-0.01826021
211	0x3d3f3a67	0.046686556
212	0xbc9fb9a6	-0.019497704
213	0x3c33e4c3	0.010979834
214	0xbcc9ee4e	-0.024649765
215	0x3d2dd4c6	0.042439245
216	0x3d4c9d78	0.04995486
217	0xbd2c74f9	-0.04210374
218	0xbd2d967a	-0.042379834
219	0xbcdea93e	-0.02718031
220	0xbd3bfd5b	-0.045895915
221	0x3d4bb911	0.04973704
222	0xbc39a2f1	-0.011330352
223	0xbcc610a1	-0.024177851
224	0x3cc95c68	0.024580196
225	0x3c4ae3d7	0.012383423
226	0x3d1a52a4	0.03767647
227	0xbb981c5b	-0.004642052
228	0xbb1f334a	-0.0024292045
229	0x3d488861	0.048958186
230	0xbd547dd2	-0.051877804
231	0x3cc769ae	0.024342384
232	0x3cee5e49	0.029097693
233	0x3d031e54	0.032011345
234	0xbd49a93f	-0.04923367
235	0xbd5bed57	-0.05369314
236	0xbc5b82c2	-0.013397874
237	0xbd2f3df8	-0.042783707
238	0xbd40fd1c	-0.047116384
239	0xbd1c42b6	-0.038149558
240	0x3b4d85c4	0.0031360248
241	0xbce7f734	-0.028316118
242	0xbce3ba32	-0.027798746
243	0x3d1e6fca	0.03868083
244	0x3d2a30cb	0.04155044
245	0xbc9073e3	-0.017633384
246	0xbd248b9f	-0.040172216
247	0xbc37b461	-0.011212439
248	0xbcf2efc9	-0.029655354
249	0x3c1c7332	0.009548949
250	0x3d28d500	0.041218758
251	0x3ca52f5a	0.02016418
252	0xbd33009b	-0.04370175
253	0xbd16fc58	-0.036861748
254	0xbcc1631b	-0.023606827
255	0xbd5028b5	-0.05082007

bias f4 [2048]
0	0xbd335bd0	-0.04378873
1	0x3d9a53f4	0.07535544
2	0xbd9cff90	-0.07665932
3	0x3ddeb390	0.108740926
4	0x3e31548c	0.17317408
5	0x3dda57cc	0.10661277
6	0x3e11b318	0.14228475
7	0xbe3f3974	-0.1867426
8	0xbe5490ca	-0.20758358
9	0xbe6a3e52	-0.22875336
10	0x3a988d00	0.0011638701
11	0x3e61c8c6	0.22049245
12	0xbe30acdc	-0.1725344
13	0x3e375d98	0.17906797
14	0x3e58de2c	0.21178502
15	0xbcd19cd0	-0.02558747
16	0x3e242502	0.16029742
17	0x3e4c6930	0.19962001
18	0x3d309838	0.043113917
19	0xbe77486e	-0.24148723
20	0x3e54663e	0.20742127
21	0xbe3ad760	-0.18246222
22	0x3e0568be	0.13028237
23	0x3e285680	0.16439247
24	0x3e151538	0.14558876
25	0x3e35387a	0.17697325
26	0xbd4d7ee0	-0.050169826
27	0x3e6d348e	0.2316458
28	0x3ddc1324	0.10745838
29	0xbc340080	-0.010986447
30	0xbe292566	-0.16518173
31	0xbdc8ece4	-0.09810808
32	0xbe5e905c	-0.21734756
33	0xbe520b3c	-0.20512098
34	0xbdfbb1b4	-0.122897536
35	0xbe6bab9a	-0.2301468
36	0x3d65af28	0.056075245
37	0xbdf491c0	-0.11941862
38	0xbbac5a00	-0.0052597523
39	0xbdcb8e74	-0.0993928
40	0x3e5ab754	0.21358997
41	0xbe1d06be	-0.15334603
42	0xbe43abde	-0.19108531
43	0x3e16f8d2	0.14743355
44	0xbe060e7a	-0.1309146
45	0x3c8f9f70	0.01753208
46	0xbe31c40e	-0.17359945
47	0x3d848280	0.064702034
48	0x3e21e128	0.15808547
49	0xbe11ae36	-0.14226612
50	0xbe7f8b46	-0.24955472
51	0xbe19f26a	-0.1503388
52	0x3e7ee8f8	0.24893558
53	0xbe15aa40	-0.14615726
54	0x3d4e7408	0.050403625
55	0x3d64d930	0.05587119
56	0xbd3932e0	-0.045214534
57	0xbe79f0ea	-0.24408308
58	0x3d499b68	0.049220473
59	0x3dbdc2ec	0.09265694
60	0x3e311fb8	0.17297256
61	0x3c0707a0	0.008241564
62	0x3e6acd46	0.22929868
63	0x3d074fb0	0.03303498
64	0x3e0e59a8	0.13901389
65	0xbe604496	-0.21901163
66	0xbe21aaea	-0.15787855
67	0x3e315ea8	0.17321265
68	0xbc86f310	-0.016473323
69	0xbe6b5c10	-0.22984338
70	0xbdba7f84	-0.09106353
71	0x3dadef64	0.08492926
72	0xbccb3210	-0.024804145
73	0x3e46f434	0.19429094
74	0xbdedfda0	-0.11620641
75	0xbe2c5a6e	-0.16831371
76	0x3e64b8f6	0.22336182
77	0x3df343a0	0.11878133
78	0xbde09904	-0.109666854
79	0x3dd05f50	0.101744294
80	0x3e5300be	0.20605752
81	0x3e37a052	0.17932251
82	0x3e08eb74	0.13371068
83	0x3e422b2a	0.18961778
84	0xbe3b1e36	-0.18273243
85	0x3e148312	0.14503124
86	0x3d938940	0.07203913
87	0xbe673e88	-0.22582448
88	0xbcec9910	-0.02888158
89	0xbdc90fb4	-0.09817448
90	0xbe42b310	-0.1901362
91	0x3db74b5c	0.089499205
92	0xbda86058	-0.08221501
93	0xbd995d3c	-0.07488486
94	0xbe48f448	-0.19624436
95	0x3e24f8aa	0.16110483
96	0xbe17a130	-0.14807582
97	0xbda6f1d8	-0.08151597
98	0x3e70117a	0.23444167
99	0x3cbd73c0	0.023126483
100	0xbe02e7fc	-0.12783808
101	0x3d8672c4	0.065648586
102	0x3dcb68e4	0.09932116
103	0x3e530b98	0.20609891
104	0xbdc318c0	-0.09526205
105	0x3e18e342	0.14930442
106	0xbd5ca6d0	-0.053870022
107	0x3e0e4928	0.13895094
108	0x3d9aa654	0.07551256
109	0x3de66eb4	0.11251584
110	0xbd26c338	-0.04071352
111	0xbd07d600	-0.03316307
112	0x3d40c428	0.04706207
113	0xbdcd6424	-0.10028866
114	0x3e2b1ad0	0.16709447
115	0xbdb1f858	-0.08689946
116	0xbdede9a8	-0.11616832
117	0xbe72f7dc	-0.23727363
118	0x3d1562b8	0.0364711
119	0xbc2d5e00	-0.010581493
120	0xbda43e00	-0.08019638
121	0xbd8701b8	-0.06592125
122	0xbcb2dce0	-0.021833837
123	0xbe2fd850	-0.1717236
124	0x3dfc9600	0.12333298
125	0x3dc1d828	0.09465057
126	0x3e2b5574	0.16731817
127	0x3d722660	0.05911863
128	0xbd3722f0	-0.044711053
129	0x3da4bc14	0.080436856
130	0x3df15c20	0.117851496
131	0xbd92ca3c	-0.071674794
132	0xbd812f98	-0.06307906
133	0xbcb88090	-0.02252224
134	0xbe508aba	-0.2036542
135	0x3e173d4c	0.14769477
136	0xbdaa16d0	-0.083051324
137	0xbceb5d20	-0.028730929
138	0x3d8b7450	0.06809294
139	0xbe6a4620	-0.22878313
140	0x3e6df44c	0.23237723
141	0x3e25e1ca	0.16199413
142	0xbb807d80	-0.0039212108
143	0x3cb4da60	0.022076786
144	0x3e3f8338	0.187024
145	0xbe24ca3c	-0.16092771
146	0xbe54e4cc	-0.20790404
147	0xbe79cda8	-0.24394858
148	0x3e6bb65a	0.2301878
149	0x3dee1470	0.11624992
150	0xbe5fa9ca	-0.21842113
151	0xbe1b6ee8	-0.15179026
152	0x3e6219b2	0.22080114
153	0x3e6368d2	0.22207955
154	0x3e41b4d8	0.18916643
155	0xbde7f6dc	-0.113263816
156	0x3e5b795e	0.21433017
157	0xbddd8210	-0.10815823
158	0x3e0a97fe	0.13534543
159	0xbdc5ce48	-0.09658486
160	0x3e2e9dc2	0.17052367
161	0xbe37ae6e	-0.17937633
162	0xbc220880	-0.009889722
163	0x3c4dfe80	0.012572885
164	0xbe54fd02	-0.2079964
165	0x3e5e7cd2	0.21727303
166	0x3ba3a200	0.004993677
167	0xbe5e4258	-0.21704996
168	0xbe729a34	-0.23691636
169	0x3e3502d4	0.1767686
170	0xbc158f40	-0.009128392
171	0x3e43efc0	0.19134426
172	0x3e557830	0.20846629
173	0x3d70da38	0.05880186
174	0xbc2fdf00	-0.01073432
175	0xbd1358b8	-0.03597328
176	0x3e13b0e4	0.14422947
177	0x3e448454	0.19191104
178	0x3e68cbc6	0.22733983
179	0xbe0733e6	-0.13203391
180	0x3e1cfb3c	0.15330213
181	0x3dd14114	0.10217491
182	0x3e0e15a2	0.1387544
183	0x3d0d3aa8	0.034479767
184	0x3e746738	0.238675
185	0x3e5e3bcc	0.21702498
186	0xbdbf548c	-0.09342298
187	0x3e7f15cc	0.24910659
188	0xbe69004e	-0.22754022
189	0xbe1efc78	-0.15525997
190	0xbe5c67ac	-0.21523923
191	0xbe19db5e	-0.15025088
192	0xbe1b72a2	-0.15180448
193	0xbe4a740c	-0.19770831
194	0xbe48e16c	-0.19617242
195	0xbe1cd56e	-0.15315792
196	0x3e29f12e	0.16595909
197	0xbe244a38	-0.16043937
198	0x3d2f58c8	0.042809278
199	0x3e7213e4	0.236404
200	0xbdee06b4	-0.11622372
201	0xbe28093e	-0.16409776
202	0x3ce05e40	0.027388692
203	0xbe6114f2	-0.21980646
204	0xbde9a174	-0.11407748
205	0xbe2e7f5c	-0.17040771
206	0xbe29818c	-0.16553324
207	0xbe691a2a	-0.22763887
208	0xbde8ddb4	-0.113704115
209	0x3e38559a	0.18001404
210	0xbe47cc3e	-0.19511506
211	0x3deffa7c	0.11717698
212	0x3e22c1ac	0.15894192
213	0xbe25edee	-0.16204044
214	0x3db07710	0.08616459
215	0x3e57ad1c	0.2106213
216	0xbd1f8a38	-0.038950175
217	0x3e17ab2e	0.14811394
218	0xbc1d65a0	-0.009606749
219	0x3e13bd34	0.14427644
220	0x3e42138c	0.18952769
221	0xbe6ffcd8	-0.23436296
222	0x3e724266	0.23658141
223	0x3dfff5f0	0.12498081
224	0xbe06cabc	-0.13163275
225	0xbdfd99cc	-0.1238285
226	0x3d404660	0.046942115
227	0x3ddf5360	0.109045744
228	0xbd085008	-0.03327945
229	0xbd78f6b0	-0.060782135
230	0x3e7bdd98	0.2459625
231	0x3dbef6f4	0.09324446
232	0x3dc86a48	0.097858965
233	0x3b9c0140	0.004760891
234	0x3e605ea0	0.21911097
235	0xbe2ba4aa	-0.16762033
236	0xbdfb2160	-0.12262225
237	0x3e316b42	0.17326072
238	0xbe5c5432	-0.21516493
239	0xbdac6468	-0.084175885
240	0xbe262fbc	-0.16229147
241	0x3dcbf034	0.099579245
242	0xbe695f34	-0.22790223
243	0xbe74e790	-0.23916459
244	0x3d685820	0.056724668
245	0xbaf4ec00	-0.0018686056
246	0x3d812bf8	0.063072145
247	0xbe6a764a	-0.22896686
248	0xbe58669c	-0.21132892
249	0x3b7d1e80	0.0038622916
250	0x3e569f9a	0.2095932
251	0x3e592da0	0.21208811
252	0x3e6688be	0.225131
253	0x3dfcb668	0.12339479
254	0x3bc591c0	0.0060293376
255	0x3c708aa0	0.014681488

weight f4 [16, 2048]
0	0x3d30d10d	0.043168116
1	0xbcd84e3c	-0.026404493
2	0x3c37f8cd	0.011228752
3	0xbd5a72bd	-0.05333208
4	0x3ce25ae1	0.027631225
5	0x3ccf4d06	0.025305282
6	0x3942e335	0.00018585923
7	0xbd34b14f	-0.044114407
8	0xbd38356e	-0.04497283
9	0x3cf60503	0.030031687
10	0xbb832c42	-0.0040030787
11	0x3d49d4ab	0.04927508
12	0xbccc1127	-0.024910523
13	0x3d3da613	0.04630096
14	0xbca2d140	-0.019875169
15	0xbcd55195	-0.026039878
16	0x3c5c98a5	0.013464128
17	0x3bb07411	0.00538493
18	0x3d1a0ce4	0.03760995
19	0x3c968f8f	0.018379001
20	0x3d09dd55	0.033658344
21	0x3ca592e1	0.020211639
22	0xbc8f9796	-0.017528336
23	0x3c9d0fd9	0.019172596
24	0x3bdb9288	0.0067008175
25	0xbcbe1bd6	-0.023206633
26	0xbd04f86b	-0.032463472
27	0xbc1c1668	-0.009526826
28	0xbc1dde2c	-0.009635489
29	0xbd08c857	-0.033394184
30	0xbc8ef544	-0.017450936
31	0x3ccf44d1	0.025301369
32	0xbd17256a	-0.036900915
33	0xbcc0d5be	-0.02353942
34	0x3c5a627f	0.013329147
35	0xbcc7d1aa	-0.024391968
36	0xbba55105	-0.0050450587
37	0xbcea52e6	-0.028603982
38	0xbd1cd0af	-0.038284954
39	0xbb48e07b	-0.003065138
40	0xbd442ace	-0.047892384
41	0x3d17455c	0.03693138
42	0x3d3bfff3	0.04589839
43	0x3d5a2421	0.05325711
44	0x3bb95099	0.00565536
45	0x3c737e3f	0.014861642
46	0xbd4691f5	-0.04847904
47	0xbc8c6721	-0.01713902
48	0x3cbe87f5	0.023258189
49	0xbd13793a	-0.036004283
50	0xbc25017f	-0.0100711575
51	0x3c842045	0.016128669
52	0x3c523042	0.012828888
53	0x3c3a908a	0.011387
54	0xbca89aa8	-0.020581558
55	0x3ca1b675	0.019740323
56	0x3d16adf2	0.03678698
57	0xbc249be7	-0.010046936
58	0xbd160601	-0.03662682
59	0xbd16cac5	-0.03681447
60	0x3d3ed1e2	0.04658688
61	0xbcbc86e2	-0.023013536
62	0x3d046c8c	0.03233008
63	0x3d384f11	0.04499728
64	0xbcf92ccb	-0.030416867
65	0xbd5164d8	-0.051121563
66	0xbcc1bb84	-0.023648985
67	0x3c80d252	0.015725289
68	0x3cf6c99e	0.030125435
69	0xbc8131e4	-0.01577086
70	0x3b32531d	0.0027210184
71	0x3d145d8e	0.036222033
72	0xbd58aa05	-0.05289652
73	0xbcfe16a0	-0.031016648
74	0xbb0ac78e	-0.0021176073
75	0x3c5a1535	0.01331072
76	0xbd257533	-0.040394973
77	0xbceaa4c3	-0.028643018
78	0x3d284363	0.04107989
79	0xbd372959	-0.044717167
80	0x3cafda83	0.0214665
81	0xbcb90bb5	-0.02258859
82	0x3d2e747e	0.042591564
83	0x3cb9fff3	0.022705054
84	0x3c027dbb	0.007964547
85	0x3d320918	0.043465704
86	0xbc1070c6	-0.00881595
87	0x3c805d4c	0.015669487
88	0xbc14705a	-0.00905999
89	0xbcb5d6a7	-0.02219708
90	0xbc8ff8d8	-0.017574713
91	0xbccb12ec	-0.024789296
92	0xbd2c36d6	-0.042044483
93	0x3d275d93	0.040860724
94	0x3d35ec4f	0.044414815
95	0xbd2c5b1d	-0.04207908
96	0xbc85e934	-0.016346551
97	0x3d3da458	0.04629931
98	0x3ca940c9	0.020660775
99	0xbcf9f39c	-0.03051167
100	0xbd071348	-0.032977372
101	0x3c4dc0d5	0.012558182
102	0x3ccfcf99	0.025367545
103	0x3cf07a30	0.029355139
104	0x3c4f51f8	0.01265382
105	0x3b5199b2	0.0031982479
106	0xbbf5f37a	-0.0075058313
107	0xbcc29bb3	-0.023755884
108	0x3d5c149f	0.053730603
109	0x3d43ac60	0.04777181
110	0x3d4589f4	0.048227265
111	0x3d5ccd68	0.05390683
112	0x3c3412f1	0.010990844
113	0x3d1a3591	0.03764874
114	0x3d09e3db	0.033664566
115	0x3d543035	0.051803786
116	0x3ce15a0d	0.02750876
117	0xbc2b1fac	-0.010444563
118	0x3c4e7e6e	0.012603385
119	0x3cfb24d7	0.030657215
120	0xbcf42698	-0.02980356
121	0x3d1ce0b5	0.038300235
122	0x3c1059f1	0.008810506
123	0x3d54f6c1	0.051993135
124	0xbbd2dbed	-0.0064349086
125	0x3ce95876	0.028484564
126	0xbbb3db16	-0.0054887636
127	0x3c8f0877	0.017460091
128	0xbd43226f	-0.04764026
129	0xbc1ce6b3	-0.009576487
130	0x3cb7085c	0.022342853
131	0x3d1c2017	0.03811654
132	0x3c8b614d	0.01701417
133	0xbb05c4ab	-0.0020411413
134	0x3d3204b6	0.043461524
135	0x3c93c230	0.018036932
136	0x3d22dbbb	0.039760333
137	0xbd142e61	-0.036177043
138	0xbcec1d40	-0.028822541
139	0x3ccba452	0.024858627
140	0x3d04bbc7	0.03240564
141	0x3d271a25	0.040796418
142	0xbd2e5da4	-0.04256977
143	0xbd32b913	-0.04363353
144	0x3c051838	0.00812345
145	0x3cabdbb8	0.020978794
146	0xbbe5e843	-0.007016213
147	0xbbe76d67	-0.0070626023
148	0xbd227a6e	-0.03966754
149	0x3c3636bc	0.011121448
150	0xbce926de	-0.028460916
151	0x3d28cb01	0.041209225
152	0x3c209532	0.009801196
153	0x3ac573e8	0.001506445
154	0xbca439ba	-0.020047057
155	0xbbf6c9bd	-0.0075313733
156	0xbc4230a9	-0.011852422
157	0xbc44e703	-0.012017968
158	0xbd1a08d5	-0.03760608
159	0xbd467133	-0.0484478
160	0xbd3f725f	-0.046739932
161	0x3d5981f2	0.05310244
162	0x3c930ca7	0.017950369
163	0xba1ce365	-0.0005984812
164	0x3c3cd332	0.011524962
165	0x3d548117	0.051880922
166	0xbba169ca	-0.004925941
167	0x3b8f3ee8	0.0043715127
168	0x3c2807c3	0.010255757
169	0xbc8ba917	-0.017048402
170	0x3d32313f	0.043503996
171	0xbc54e122	-0.012993129
172	0xbc4d7cc3	-0.012541953
173	0x3cae5cfc	0.021284573
174	0xbcf8b439	-0.030359374
175	0x3d30b9a9	0.04314581
176	0x3d0986d9	0.033575866
177	0xbbcc6229	-0.0062372875
178	0x3cff8cda	0.031195093
179	0xbd0dcbe2	-0.034618266
180	0x3c611602	0.013738157
181	0xbd07330d	-0.03300767
182	0xbc41e5d7	-0.011834583
183	0xbc76c452	-0.015061455
184	0x3cc1b584	0.023646124
185	0xbd35e67a	-0.044409253
186	0xbd0375e0	-0.032094836
187	0xbc7f9bd7	-0.01560112
188	0xbd58fc5f	-0.052975055
189	0x3c628cf1	0.013827548
190	0xbd40d5f9	-0.04707906
191	0xbcc9062b	-0.024539074
192	0x3d30dab9	0.04317734
193	0xbd40446c	-0.046940252
194	0xbcc778d1	-0.024349602
195	0xbcb875dc	-0.022517137
196	0x3d0a6a2c	0.03379266
197	0xbcf6456f	-0.030062405
198	0xbd15cdd7	-0.036573257
199	0xbb98797f	-0.0046531553
200	0x3d44fbae	0.048091583
201	0xbcc50d7c	-0.024054281
202	0x3d55210d	0.052033473
203	0xbd5354fb	-0.051594716
204	0xbd2a84e2	-0.041630633
205	0x3d4b91cb	0.049699586
206	0xbcbb6f68	-0.022880271
207	0x3d564f86	0.052321933
208	0x3d243a2a	0.040094532
209	0x3b84dd6c	0.004054716
210	0x3abccc29	0.0014404106
211	0xbd1f727c	-0.03892754
212	0xbcb2a2a0	-0.021806061
213	0xbcba9ebb	-0.022780767
214	0x3b8ffbd5	0.0043940344
215	0x3c5644a5	0.01307789
216	0xbd1109b4	-0.035409644
217	0x3c175048	0.009235449
218	0x3c9ad2d3	0.018899357
219	0x3c0328e3	0.008005354
220	0xbc905708	-0.017619625
221	0x3d405a30	0.04696101
222	0x3d3c14d4	0.0459183
223	0xbd1389e4	-0.036020175
224	0x3c74c654	0.014939863
225	0x3b924221	0.0044634496
226	0x3d4690be	0.04847788
227	0x3cb87685	0.022517452
228	0xbc6b87a7	-0.014375604
229	0x3d421501	0.047383312
230	0x3ca4df95	0.020126143
231	0xb8cb7cb8	-9.703025e-05
232	0xbd16d9a3	-0.03682865
233	0xbcb51564	-0.022104926
234	0x3d03c7cf	0.032172974
235	0xbd0a06c6	-0.033697866
236	0x3d056dca	0.032575406
237	0xbc855ffb	-0.016281119
238	0xbc2a2011	-0.010383622
239	0x3b730b83	0.003708572
240	0x3c6aa9cd	0.01432271
241	0xbb8843ee	-0.0041584885
242	0x3c1bdad4	0.009512622
243	0x3c66c50c	0.014085066
244	0xbd1b0993	-0.037850928
245	0xbd3498ba	-0.044090964
246	0xbd25bf4c	-0.040465638
247	0x39fa7edb	0.0004777823
248	0xbd2ea587	-0.042638328
249	0xbd1d9e4f	-0.038481053
250	0x3c54c217	0.012985728
251	0xbd3b1972	-0.045678563
252	0x3d287bf9	0.041133855
253	0x3c14c04f	0.009079053
254	0xbb48ca36	-0.0030638105
255	0x3cd35f8d	0.025802398

bias f4 [16]
0	0xbb0d65e8	-0.0021575633
1	0xb9d1c200	-0.00040008128
2	0xbafd44d0	-0.0019322876
3	0xbc010744	-0.007875267
4	0xbc78564a	-0.015157292
5	0x3c5cb452	0.013470726
6	0x3c37802e	0.011199994
7	0xba862e40	-0.0010237172
8	0xbc3a539f	-0.011372476
9	0xbc160593	-0.009156602
10	0x3cb4e151	0.022080095
11	0x3c9fdb73	0.019513821
12	0xbc86c67b	-0.016452065
13	0x3c9a8f55	0.018867174
14	0xbc0e5ed3	-0.0086896
15	0x3c8bcbc9	0.017064946

weight f4 [16]
0	0x3f800000	1.0
1	0x3f800000	1.0
2	0x3f800000	1.0
3	0x3f800000	1.0
4	0x3f800000	1.0
5	0x3f800000	1.0
6	0x3f800000	1.0
7	0x3f800000	1.0
8	0x3f800000	1.0
9	0x3f800000	1.0
10	0x3f800000	1.0
11	0x3f800000	1.0
12	0x3f800000	1.0
13	0x3f800000	1.0
14	0x3f800000	1.0
15	0x3f800000	1.0

bias f4 [16]
0	0x00000000	0.0
1	0x00000000	0.0
2	0x00000000	0.0
3	0x00000000	0.0
4	0x00000000	0.0
5	0x00000000	0.0
6	0x00000000	0.0
7	0x00000000	0.0
8	0x00000000	0.0
9	0x00000000	0.0
10	0x00000000	0.0
11	0x00000000	0.0
12	0x00000000	0.0
13	0x00000000	0.0
14	0x00000000	0.0
15	0x00000000	0.0

weight f4 [16]
0	0x3f800000	1.0
1	0x3f800000	1.0
2	0x3f800000	1.0
3	0x3f800000	1.0
4	0x3f800000	1.0
5	0x3f800000	1.0
6	0x3f800000	1.0
7	0x3f800000	1.0
8	0x3f800000	1.0
9	0x3f800000	1.0
10	0x3f800000	1.0
11	0x3f800000	1.0
12	0x3f800000	1.0
13	0x3f800000	1.0
14	0x3f800000	1.0
15	0x3f800000	1.0

bias f4 [16]
0	0x00000000	0.0
1	0x00000000	0.0
2	0x00000000	0.0
3	0x00000000	0.0
4	0x00000000	0.0
5	0x00000000	0.0
6	0x00000000	0.0
7	0x00000000	0.0
8	0x00000000	0.0
9	0x00000000	0.0
10	0x00000000	0.0
11	0x00000000	0.0
12	0x00000000	0.0
13	0x00000000	0.0
14	0x00000000	0.0
15	0x00000000	0.0
