09_PyTorch_Transformers_via_Paper_Replication/Vision Transformer/weights/ViT_2_epochs.pth (torch, 856578 bytes, 44 tensors)

cls_token f4 [1, 1, 16]
000000 5e d7 ee 3d dd a6 dc 3d 05 c0 48 3e c1 21 98 be
       0.11662172 0.10774014 0.196045 -0.29713252
000010 e2 d4 d5 3d f3 e8 d4 3d 44 46 ef 3d b8 29 ee 3d
       0.10440995 0.10395994 0.11683324 0.11629051
000020 b0 0f e9 3d 5d 2c 20 39 1f 84 ee 3d da a6 e8 3d
       0.11379945 0.00015275316 0.11646294 0.113599494
000030 5f 25 ef 3d a7 89 ee 3d fc c6 ed 3d cb a8 e5 3d
       0.1167705 0.11647349 0.11610219 0.11213835

positional_embeddings f4 [1, 50, 16]
000000 5e d7 ee 3d dd a6 dc 3d 05 c0 48 3e c1 21 98 be
       0.11662172 0.10774014 0.196045 -0.29713252
000010 e2 d4 d5 3d f3 e8 d4 3d 44 46 ef 3d b8 29 ee 3d
       0.10440995 0.10395994 0.11683324 0.11629051
000020 b0 0f e9 3d 5d 2c 20 39 1f 84 ee 3d da a6 e8 3d
       0.11379945 0.00015275316 0.11646294 0.113599494
000030 5f 25 ef 3d a7 89 ee 3d fc c6 ed 3d cb a8 e5 3d
       0.1167705 0.11647349 0.11610219 0.11213835
000040 18 47 36 b2 b8 30 1b b7 d5 9c 82 b6 c8 77 37 29
       -1.0609959e-08 -9.250063e-06 -3.8925596e-06 4.0738056e-14
000050 f9 d2 16 30 94 b2 e0 35 ba 73 f8 aa b3 ac be 32
       5.486949e-10 1.6741274e-06 -4.413395e-13 2.2197446e-08
000060 9b e4 1e b5 79 72 ce b9 71 76 ef b1 d3 c7 08 3a
       -5.919225e-07 -0.0003937667 -6.9692807e-09 0.00052177644
000070 64 10 fe aa e6 0e af b8 33 b3 93 37 b1 8c 42 ba
       -4.5130837e-13 -8.347425e-05 1.7607212e-05 -0.00074214773
000080 c0 79 5a 36 bc 6a d6 b1 fd eb c8 39 cc 3a 87 a8
       3.25554e-06 -6.240354e-09 0.00038322798 -1.501351e-14
000090 fb 25 1b 31 82 8a 29 aa 62 6e 2f b8 73 4c 02 bb
       2.2577058e-09 -1.505827e-13 -4.1826053e-05 -0.0019881993
0000a0 ed 0a 6a 31 fb 6d 32 39 36 37 1d 32 05 a6 f5 ae
       3.4057692e-09 0.00017016374 9.151156e-09 -1.1170801e-10
0000b0 5b f1 b3 30 7c 84 aa b9 ee 51 bc 33 83 26 68 b9
       1.3092561e-09 -0.00032523635 8.769335e-08 -0.00022139591
0000c0 80 73 73 b9 c6 27 73 2c 8b d5 3c 29 72 0f 44 b9
       -0.00023217313 3.4554456e-12 4.1929605e-14 -0.0001869777
0000d0 8f 19 1b b3 82 66 8b 37 36 5c 48 b6 3f 4e 22 35
       -3.6111995e-08 1.6617825e-05 -2.9855996e-06 6.0463566e-07
0000e0 b1 dc e1 b6 2a 04 20 b0 86 f6 c4 b6 b3 60 91 b3
       -6.7312144e-06 -5.821358e-10 -5.8699543e-06 -6.769678e-08
0000f0 2b 71 ab b2 53 93 4a b9 62 74 03 b4 d9 85 47 b0
       -1.9958483e-08 -0.00019319104 -1.2242666e-07 -7.2585987e-10
000100 2d 47 84 b9 fd 4b c4 35 a0 7e 69 b4 0a f5 23 28
       -0.00025230032 1.4625253e-06 -2.1745882e-07 9.101452e-15
000110 6b e8 30 b3 86 c1 cd 35 b7 d2 c0 b3 aa e8 81 b0
       -4.1189576e-08 1.5330013e-06 -8.9790255e-08 -9.452112e-10
000120 35 1a ca 38 e4 af 17 32 5a 29 fe b4 86 99 d4 2e
       9.636992e-05 8.82935e-09 -4.7341274e-07 9.667915e-11
000130 12 b4 b4 b4 bf 4d b7 33 a1 19 d7 b5 dd 1c f1 b9
       -3.365863e-07 8.5357435e-08 -1.6026207e-06 -0.00045988607
000140 23 cd 86 b5 91 a1 c7 36 bb c9 1f b0 ca 17 15 28
       -1.0043481e-06 5.949471e-06 -5.813054e-10 8.27632e-15
000150 81 2b c4 31 3f 3b 6b b8 59 a4 9c 31 3e bf 92 b7
       5.7092966e-09 -5.6083543e-05 4.5588817e-09 -1.749361e-05
000160 c5 5f f0 21 8a a2 9b 32 ed 80 5d b7 e7 bf 02 b1
       1.6288383e-18 1.8118289e-08 -1.3202644e-05 -1.9026574e-09
000170 3f 07 e9 b5 20 dd 8c b9 f4 09 33 32 08 0d 69 b9
       -1.7361962e-06 -0.00026867632 1.0421434e-08 -0.00022225466
000180 ac bd c9 2f 26 43 f5 b3 9a bc 35 34 ca b9 0a 29
       3.6696457e-10 -1.1420916e-07 1.6925551e-07 3.0803302e-14
000190 f2 b3 cd 2c 65 c0 f2 2f d9 d4 35 b3 66 1d ea b5
       5.8464284e-12 4.4156248e-10 -4.233593e-08 -1.7442915e-06
0001a0 67 cb fb b1 2b 35 0d 2f 10 cc 5b 35 e2 c0 b2 af
       -7.3281856e-09 1.2842764e-10 8.188081e-07 -3.2515063e-10
0001b0 cf 3b a0 b7 1c 5f 25 3a 7c cf 3d 2f 23 2f b4 2f
       -1.9101337e-05 0.0006308423 1.7263163e-10 3.2775302e-10
0001c0 56 78 49 32 d2 68 0f b0 6d ed 25 b5 b3 48 2c aa
       1.1727101e-08 -5.2172056e-10 -6.181279e-07 -1.5301891e-13
0001d0 9c c9 b5 b1 66 af 63 33 5b 87 2d b9 f0 21 c6 31
       -5.2907136e-09 5.301208e-08 -0.0001654899 5.7664167e-09
0001e0 b7 2a 13 a9 cc 97 b6 b9 a0 5f ec b3 c8 8a 03 39
       -3.2677606e-14 -0.00034826843 -1.10070005e-07 0.00012544834
0001f0 73 0e cf b1 f5 ad fe 36 97 3d e8 33 4f 9b 1f 39
       -6.0261356e-09 7.590041e-06 1.0814545e-07 0.00015221279
000200 10 bd 7e b7 fc fd 91 b7 83 7f e0 b6 91 09 fe a8
       -1.5183599e-05 -1.7403618e-05 -6.6905645e-06 -2.8203814e-14
000210 c4 41 5c 2f 95 87 5f 37 81 9e 70 2e 74 cd c8 38
       2.0032248e-10 1.3323403e-05 5.4710462e-11 9.575012e-05
000220 66 d1 a7 22 fa 60 ca ac 7a 87 a2 b0 57 44 6f 33
       4.548715e-18 -5.751952e-12 -1.1825556e-09 5.570868e-08
000230 29 d4 5c b1 4e 25 19 35 4f 13 ff b8 fa 5c a7 b9
       -3.2134813e-09 5.7051227e-07 -0.00012162944 -0.00031921995
000240 00 b0 5e b2 c6 53 5b 35 35 0e 2d b2 38 2f d0 b8
       -1.29621185e-08 8.1705764e-07 -1.0073156e-08 -9.927008e-05
000250 cc 72 35 31 ad a4 71 30 74 94 93 b2 0f a7 da b5
       2.640422e-09 8.790931e-10 -1.7180561e-08 -1.6290886e-06
000260 eb 68 bb 38 9c a7 db 37 5a a8 a6 36 2a 41 4f 39
       8.936397e-05 2.6184884e-05 4.966784e-06 0.00019765334
000270 26 66 b7 b8 f6 7f 3b b9 70 dc f3 ae 95 e2 b6 b8
       -8.7451466e-05 -0.00017881379 -1.1089518e-10 -8.7206405e-05
000280 7b c8 98 b2 03 54 bf b4 7a 9f ac 28 58 5c 32 a6
       -1.7786297e-08 -3.563765e-07 1.9164998e-14 -6.1881305e-16
000290 39 9c c7 b4 6e d0 dd b4 22 52 06 b8 40 d3 b1 2f
       -3.7180305e-07 -4.131611e-07 -3.202458e-05 3.2346215e-10
0002a0 88 e8 70 a1 8c 76 77 b8 fc 63 43 35 2b da c8 b0
       -8.1622915e-19 -5.8999794e-05 7.278866e-07 -1.4613922e-09
0002b0 30 d8 a3 33 ad a7 81 b8 18 aa a5 ba 5e 57 9e ba
       7.629603e-08 -6.1824314e-05 -0.0012639193 -0.0012080481
0002c0 a5 e3 45 a7 a7 01 6c b2 ee dd 52 b6 22 17 7b b6
       -2.7462648e-15 -1.3737384e-08 -3.1421619e-06 -3.741538e-06
0002d0 82 6e 66 b4 65 75 a6 b6 c4 ef 00 ac 3c 0c 81 35
       -2.1460622e-07 -4.960852e-06 -1.832299e-12 9.61481e-07
0002e0 f3 69 68 b5 86 eb 94 b8 82 82 31 37 a2 9c 20 31
       -8.658091e-07 -7.1010596e-05 1.0580408e-05 2.33721e-09
0002f0 20 d4 35 b4 ea fa be 39 fc 55 aa ad 38 5b dc 36
       -1.6934109e-07 0.0003642657 -1.9364947e-11 6.56713e-06
000300 2c 6e 3c 33 20 24 e7 39 31 b9 c2 aa 3c b6 5a 28
       4.387236e-08 0.0004408667 -3.4589825e-13 1.2140947e-14
000310 85 00 f3 ad 66 36 0f ae d0 8a a9 a9 9a 96 76 b8
       -2.7626132e-11 -3.256275e-11 -7.529188e-14 -5.879123e-05
000320 bf 7f 0f a3 27 23 85 b5 98 12 6b b5 34 ec 31 af
       -7.779097e-18 -9.919503e-07 -8.757138e-07 -1.6181972e-10
000330 49 ad 4e 2a 59 87 bd b9 0c 85 0e 31 37 63 44 b5
       1.8356596e-13 -0.0003614973 2.0739348e-09 -7.3160066e-07
000340 f6 f0 1b 30 d1 81 61 38 ae 68 38 b8 94 b0 bc a8
       5.67311e-10 5.376508e-05 -4.396651e-05 -2.0948771e-14
000350 98 08 ef 30 0e ca b6 b9 55 e4 9d b4 aa 5e 28 ba
       1.7391981e-09 -0.00034864288 -2.9409662e-07 -0.00064227975
000360 f6 f0 7a 39 45 b4 6b 2e eb 39 e9 32 e0 3d f3 b0
       0.00023931623 5.3592925e-11 2.7151108e-08 -1.7698163e-09
000370 19 e8 dd b8 52 fb 3c 38 bc c7 da ae a6 98 28 b7
       -0.00010581333 4.5056753e-05 -9.948972e-11 -1.0049122e-05
000380 1f cf c5 b0 8d 16 40 2c a6 88 5f b7 6a 48 5f aa
       -1.4392504e-09 2.729736e-12 -1.3323652e-05 -1.9831502e-13
000390 ad bb 81 b7 c7 76 e2 b2 71 c6 9a af 88 d3 6e b7
       -1.5465392e-05 -2.6363876e-08 -2.8153438e-10 -1.4235156e-05
0003a0 67 be 29 bb 15 5a 80 34 b0 a3 a7 b9 55 3e 07 b2
       -0.0025900842 2.39074e-07 -0.0003197468 -7.872207e-09
0003b0 19 cd 55 32 a5 11 e4 37 b7 9b 0b 38 42 09 2e 32
       1.2444866e-08 2.7187934e-05 3.3285203e-05 1.0130238e-08
0003c0 ea ca 2d ba 60 76 1f b7 6f 0a c5 ac bd 86 f7 28
       -0.0006629663 -9.5047e-06 -5.600235e-12 2.7480942e-14
0003d0 09 f4 d1 b0 45 3f 00 b3 50 2e 97 b8 16 bb 79 37
       -1.527611e-09 -2.9859866e-08 -7.2088675e-05 1.4885116e-05
0003e0 e5 38 1b 35 4a 2e 23 b2 0d 05 f6 b0 e0 d5 3e 37
       5.782479e-07 -9.498374e-09 -1.7900291e-09 1.1374679e-05
0003f0 7f 43 eb 36 4f b1 75 32 f6 64 4d b8 a6 eb e9 b5
       7.0114033e-06 1.4301192e-08 -4.8969836e-05 -1.7428436e-06

weight f4 [16, 1, 4, 4]
000000 df 27 04 28 35 7e 2c aa b0 91 ee a9 b6 d1 23 aa
       7.336118e-15 -1.5320456e-13 -1.0594596e-13 -1.4550066e-13
000010 17 5d 2e aa 67 9a 71 a9 bf 60 df a8 f3 fe 82 29
       -1.5486602e-13 -5.3646672e-14 -2.479993e-14 5.8173864e-14
000020 b0 7d 04 29 8c 59 64 a9 5d 77 6c 29 c3 78 b4 a9
       2.9418904e-14 -5.070384e-14 5.2506058e-14 -8.0145546e-14
000030 d2 15 c1 a9 1d d6 d1 a9 9f 86 28 29 d9 14 dd 28
       -8.574707e-14 -9.318607e-14 3.742026e-14 2.454497e-14
000040 06 69 f0 2a 8d fa b3 2b c9 64 47 2b ad 84 b3 2b
       4.270544e-13 1.2788257e-12 7.083887e-13 1.275554e-12
000050 fd 00 c0 2b 77 65 b1 2b 04 b6 c4 2b 1a 5f a3 2b
       1.3642695e-12 1.2604769e-12 1.3977157e-12 1.1608243e-12
000060 ba a1 7e 2b bf 04 9c 2a b5 42 59 2b e4 21 ac 2a
       9.046337e-13 2.771446e-13 7.718646e-13 3.0576854e-13
000070 f8 59 1f 2b bd 99 ae 2b e9 19 c7 2b a4 2a bd 2a
       5.6613004e-13 1.2406115e-12 1.4146992e-12 3.3602732e-13
000080 ce cb cf a9 fc d3 dd a9 d8 35 f1 a9 82 1c 62 a9
       -9.228001e-14 -9.851145e-14 -1.07118904e-13 -5.0206807e-14
000090 a1 7d 5d 29 14 a2 8e a8 35 81 f7 a9 5c 6d dc a8
       4.9180823e-14 -1.5835457e-14 -1.0991417e-13 -2.4472334e-14
0000a0 ce 8e 27 28 14 48 d7 28 36 2e db a9 a7 c8 c7 a9
       9.301328e-15 2.3901054e-14 -9.73357e-14 -8.872183e-14
0000b0 7e a6 d4 a9 45 3d 72 a9 db 2e 8a a9 34 c5 78 a8
       -9.443573e-14 -5.3787937e-14 -6.136559e-14 -1.3809527e-14
0000c0 6b 73 74 aa 91 b5 95 aa dc 56 88 a9 c6 bd 16 2a
       -2.1711597e-13 -2.6593704e-13 -6.054681e-14 1.3388517e-13
0000d0 3a 6e 06 2a 4a b9 8d 2a 60 33 68 2a 75 1b 25 aa
       1.1939833e-13 2.5175202e-13 2.0623564e-13 -1.466447e-13
0000e0 cd 80 55 2a 55 7d 83 aa 16 80 80 aa 6f 14 98 aa
       1.8962887e-13 -2.335724e-13 -2.2826245e-13 -2.7014803e-13
0000f0 6e 6e 00 aa 39 f1 85 2a d0 ca 98 29 31 8c 97 29
       -1.1406997e-13 2.3792928e-13 6.7853384e-14 6.7300664e-14
000100 ff 3f 5f 2a 57 fc 7c 2a c6 69 39 2a 6b 0e 95 a9
       1.9828582e-13 2.2469644e-13 1.6467998e-13 -6.6194303e-14
000110 b4 cf 82 29 0d b5 72 2a a3 98 f2 2a 5a 35 8e 2a
       5.8091905e-14 2.1556732e-13 4.3093749e-13 2.5261287e-13
000120 ad bb 6d 2a e4 cb c4 2a 95 eb da 2a 91 be 8b 2a
       2.1114942e-13 3.4958072e-13 3.8888047e-13 2.4823592e-13
000130 08 f3 9c 2a 3e fb c8 2a 9d 8c 5c 2a cb 8d 31 a9
       2.7879804e-13 3.570147e-13 1.958871e-13 -3.942488e-14
000140 2b 5c 58 ab e2 52 49 2b c6 2e 57 2b 35 8c ac ab
       -7.6866524e-13 7.152457e-13 7.6448255e-13 -1.226025e-12
000150 98 1a b9 2a 98 da a4 ab 16 38 6d 2b 6f e8 69 aa
       3.2881055e-13 -1.1713573e-12 8.427715e-13 -2.0775199e-13
000160 3e 0b 26 2b 41 4c 87 ab 97 d5 36 ab c6 3b 8a ab
       5.899065e-13 -9.613492e-13 -6.4955804e-13 -9.82208e-13
000170 d0 a5 00 2a d9 e5 81 2a 7e 65 90 aa f3 4b 98 aa
       1.1426212e-13 2.3074492e-13 -2.5649963e-13 -2.7053324e-13
000180 a2 0c 9f a9 e0 a1 8a 29 35 b5 02 29 90 9b b4 a9
       -7.06321e-14 6.156512e-14 2.902297e-14 -8.0205916e-14
000190 2d 9c 00 ab 5a 24 5c 2a b6 94 c1 2a 02 26 88 aa
       -4.569147e-13 1.9552537e-13 3.4386876e-13 -2.4184826e-13
0001a0 17 f1 16 2a 1c 48 70 a9 e3 3c 07 aa 82 8f 37 aa
       1.3406321e-13 -5.335325e-14 -1.2011533e-13 -1.6303454e-13
0001b0 1f fc c6 28 d9 b0 5d 2a 30 33 84 aa 48 05 fd a9
       2.2091756e-14 1.96901e-13 -2.348343e-13 -1.1236373e-13
0001c0 8a 3a 35 ab 58 5d ed 2a f4 00 96 2a 51 7b c6 2a
       -6.4385357e-13 4.2164427e-13 2.6646014e-13 3.5257433e-13
0001d0 d7 d4 0d aa ff 5a 24 2a 73 b4 fd 2a 3f 60 45 aa
       -1.259716e-13 1.4597697e-13 4.506704e-13 -1.7530507e-13
0001e0 63 89 e7 2a 70 3c 8c ab de 98 3c 2b 2d 15 6f a9
       4.1129174e-13 -9.964373e-13 6.7003163e-13 -5.3087028e-14
0001f0 b3 26 bf aa ca ae 82 29 ef 12 4f ab 81 d9 a9 2a
       -3.3955269e-13 5.803481e-14 -7.356745e-13 3.0171354e-13
000200 43 33 40 a2 76 c1 30 22 8d 00 e0 22 ae e0 f6 a1
       -2.604799e-18 2.3954865e-18 6.0715905e-18 -1.6729081e-18
000210 20 1b 61 23 47 ef 68 23 3c 19 41 a3 4e d5 48 23
       1.2203018e-17 1.2627414e-17 -1.04678946e-17 1.0887191e-17
000220 21 0e 87 23 34 62 03 23 cb ff 23 a3 f2 8e ce a2
       1.4642713e-17 7.1223196e-18 -8.890414e-18 -5.598776e-18
000230 ed ae 12 a2 01 08 2d a3 74 45 90 a2 21 78 9c a3
       -1.9879295e-18 -9.380044e-18 -3.9104815e-18 -1.696443e-17
000240 00 49 2e aa c8 c2 3d ab 3d f4 57 aa 7e 2e 86 aa
       -1.5479631e-13 -6.74166e-13 -1.9180573e-13 -2.3835442e-13
000250 2a 6c f8 aa 0a bd 6e ab 50 4b 59 2b 75 c9 08 2b
       -4.4128704e-13 -8.481693e-13 7.7198404e-13 4.8596484e-13
000260 18 c0 51 ab 34 87 93 aa 2f 03 fc aa 52 12 ea aa
       -7.45183e-13 -2.6206262e-13 -4.4766401e-13 -4.1579462e-13
000270 ad be 7d 2b a6 b6 09 2b 71 3d 65 2b 39 b5 d2 aa
       9.014827e-13 4.8925653e-13 8.144241e-13 -3.7429242e-13
000280 9f e6 d9 2a f6 cd 9d 2a 11 d9 52 2a e2 f8 77 2a
       3.870697e-13 2.8031716e-13 1.8727057e-13 2.2024356e-13
000290 d1 b9 92 2a 68 d7 a9 2a b0 7b 89 2a b7 d3 b7 2a
       2.6063746e-13 3.01699e-13 2.4421914e-13 3.2654237e-13
0002a0 ab 55 6d 2a b7 4b 82 2a 05 ee 47 2a 9a a0 86 2a
       2.107955e-13 2.3145177e-13 1.775733e-13 2.3914621e-13
0002b0 f8 18 22 2a 7d 81 be 2a 39 f3 c0 2a 85 77 b5 2a
       1.4397153e-13 3.384063e-13 3.427482e-13 3.2234992e-13
0002c0 b6 d0 dc aa a0 bb e4 aa 56 1f a3 aa 2a 6f 68 aa
       -3.9224673e-13 -4.0631127e-13 -2.897636e-13 -2.0644307e-13
0002d0 87 2d 6b aa 82 36 c8 aa 07 6f aa aa 72 6d dc aa
       -2.0887988e-13 -3.556496e-13 -3.0275107e-13 -3.9155793e-13
0002e0 3b c9 0d aa 48 57 8f a9 eb 63 dd aa 8b bb d1 aa
       -1.2593132e-13 -6.3656166e-14 -3.9326818e-13 -3.7255992e-13
0002f0 52 14 97 aa 2b 3e 85 aa 3b 7e cc aa b2 ec ea aa
       -2.6837088e-13 -2.3668684e-13 -3.632527e-13 -4.173099e-13
000300 d9 de 91 a9 fa db c9 2a d0 7f 76 aa 0e 1c 9c a9
       -6.4779514e-14 3.5857412e-13 -2.1893533e-13 -6.9326584e-14
000310 89 8a 00 2a d1 56 aa aa 36 0f 88 aa a0 0e a3 a9
       1.1416748e-13 -3.0258307e-13 -2.4169008e-13 -7.241191e-14
000320 36 ed 28 2a 80 ea ab aa 79 77 98 2a 63 d1 bb 2a
       1.5003697e-13 -3.053842e-13 2.7083525e-13 3.3363164e-13
000330 50 b5 b7 aa 2b 41 9c 2a b3 db e8 2a 4c 8d 35 2a
       -3.263314e-13 2.7756386e-13 4.1363926e-13 1.6125052e-13
000340 0c b4 90 aa d9 ca 14 2a 84 62 ac 29 25 14 f1 29
       -2.570447e-13 1.3215418e-13 7.655424e-14 1.07060445e-13
000350 c6 f7 53 2a f7 ec 98 a8 61 10 bd a9 d8 b0 90 2a
       1.8826528e-13 -1.6978157e-14 -8.3961274e-14 2.5702248e-13
000360 d0 f4 84 a9 fc 20 be 2a 3e 60 93 a9 a6 a1 2f aa
       -5.904446e-14 3.3773667e-13 -6.544807e-14 -1.5599205e-13
000370 7a 2a 8d 2a 00 51 d2 aa 04 1a fd 29 a5 5d 31 a9
       2.5076105e-13 -3.73597e-13 1.123997e-13 -3.938312e-14
000380 a3 60 47 ac ec 4d 45 ac 68 e8 fd ab 69 40 a7 ab
       -2.8333245e-12 -2.803864e-12 -1.8041237e-12 -1.1883941e-12
000390 0f 8a db ab ff f6 48 ac 68 34 e9 ab ea c2 05 ac
       -1.5599205e-12 -2.855882e-12 -1.6570191e-12 -1.9008636e-12
0003a0 a8 05 b7 ab b2 b0 1b ac 69 7b 0c ac c1 ae 7b ab
       -1.3004502e-12 -2.212491e-12 -1.9963703e-12 -8.9415633e-13
0003b0 95 77 1a ac 77 1a 06 ac 92 02 d4 ab 91 66 f0 ab
       -2.1951098e-12 -1.9057236e-12 -1.5064219e-12 -1.7081494e-12
0003c0 7b 4d aa a7 e4 50 e8 a7 4a fd 9e a7 6e 88 b2 a7
       -4.7268483e-15 -6.4480637e-15 -4.4128426e-15 -4.955284e-15
0003d0 32 7d 7e a7 4a 98 b7 a7 dd 70 71 a7 8a 25 83 a7
       -3.531745e-15 -5.0957816e-15 -3.3506652e-15 -3.6400504e-15
0003e0 7d d3 78 a7 ef 6c e0 a7 37 ac 60 a7 43 d6 fb a7
       -3.4531562e-15 -6.2290595e-15 -3.1179603e-15 -6.9898798e-15
0003f0 ad e6 28 27 c6 17 89 a7 95 45 9c a7 89 ef e4 a7
       2.3439733e-15 -3.8050914e-15 -4.337414e-15 -6.3542417e-15

bias f4 [16]
000000 d7 1d ff 26 1e 5b 39 aa 62 ff 08 a9 73 5d ac 2a
       1.7702268e-15 -1.6462913e-13 -3.0419576e-14 3.061818e-13
000010 da 88 03 29 a3 d3 b7 2b ea b7 0e aa 7b f0 e0 ab
       2.9206543e-14 1.3061673e-12 -1.2675942e-13 -1.5982904e-12
000020 57 59 e8 23 ea 9b 1e 2a 39 5c af aa 94 0a 01 2b
       2.5191327e-17 1.4087313e-13 -3.1150237e-13 4.5844687e-13
000030 a0 26 04 ab 89 1e b4 2a 5e 0d a1 2b d7 f7 f3 27
       -4.6949424e-13 3.199561e-13 1.1443448e-12 6.7714757e-15

in_proj_weight f4 [48, 16]
000000 ee 83 5c 3e ec cf 19 3e 9d fb e9 3d 4b 1f 2b be
       0.21534702 0.15020722 0.114249445 -0.16711156
000010 ef 68 d6 3c 6b e2 3b be b7 95 c1 3d 5e 4e 63 3e
       0.026173083 -0.1834809 0.09452384 0.22197863
000020 16 4f 82 3d a5 32 61 be 7b 1b d9 3d 52 d9 9c 3d
       0.06362741 -0.21991976 0.106009446 0.07658638
000030 8d c1 45 be 92 8b 1e be 6c bc fe bc 55 76 93 3d
       -0.19312115 -0.1548293 -0.031095706 0.072003044
000040 34 35 fe 3c 0e 42 e6 3c 58 53 ca bd b0 8d 85 3e
       0.031031229 0.02810767 -0.09879178 0.2608466
000050 e6 dd 11 3d c1 7b 1f bd ab 69 0e be af 7f 4b be
       0.03561201 -0.03893638 -0.13907497 -0.19872926
000060 7d c5 8a 3e c5 64 90 3e be 96 96 bd 63 e5 e8 bd
       0.27103797 0.2820188 -0.073529705 -0.11371877
000070 f6 2c 1b be 38 e4 86 3d c3 4f df bc f4 63 c6 bc
       -0.1515387 0.06586498 -0.027259713 -0.024217583
000080 cf 6f b2 3d dd d1 63 3e ef b5 9a be 4a 44 84 3e
       0.08712732 0.22248025 -0.3021693 0.2583335
000090 99 09 97 3e 23 96 d8 bd 95 87 1a be 6c 27 70 bd
       0.2949951 -0.10575511 -0.15090783 -0.058631346
0000a0 6b 51 0b be 34 19 10 3e 07 1e 10 be ad 9d 8f bd
       -0.13605277 0.14072114 -0.14073955 -0.07012496
0000b0 e3 04 09 3d 4a 19 f7 bd a0 21 47 3e a7 4c 49 3e
       0.033451926 -0.120653704 0.1944642 0.19658147
0000c0 70 ac ec 3c dc 81 c0 bd 64 af ca bc d5 60 43 be
       0.028890818 -0.09399769 -0.024741836 -0.19079907
0000d0 ef f9 8d 3e 37 b8 1e 3e eb 44 6e 3e f9 17 e8 3d
       0.27729747 0.1549996 0.23268478 0.113326974
0000e0 ba 24 b7 bc fa 50 93 3e 93 d3 d7 3d c1 f6 07 bd
       -0.02235638 0.28772718 0.105384015 -0.033194307
0000f0 e0 62 50 3e 78 e6 3d 3e 5b d1 0f 3e 1b 29 52 be
       0.20350218 0.18544948 0.14044707 -0.20523493
000100 0c 9e 6f 3e 6e 0d 93 3e 80 65 03 be 94 4f 0e 3e
       0.23400134 0.28721184 -0.12831688 0.13897544
000110 33 f5 17 be a1 a6 be bd 42 a3 8a 3e e9 6e 34 3e
       -0.1483963 -0.09309126 0.2707768 0.17620434
000120 8d 4b 69 be cd ac 1f 3e 11 47 95 3e 0f a2 98 be
       -0.22782727 0.15593262 0.29155782 -0.2981114
000130 4d 12 77 be 9d 79 10 bc 8a 48 17 3e 84 c7 0d be
       -0.24128075 -0.008818057 0.14773765 -0.1384564
000140 71 04 76 3d 56 29 f5 bd 85 9e b0 3c 0a c0 98 3e
       0.06006283 -0.11970775 0.021559963 0.29834014
000150 48 be 9a be 8a d1 98 be 22 11 20 3d 10 95 80 3e
       -0.30223298 -0.29847366 0.03907884 0.25113726
000160 1b 39 6a be 18 f8 92 3e a1 de 80 3e 7b f9 85 3e
       -0.22873347 0.28704906 0.25169852 0.261669
000170 52 0f 76 3e a5 44 18 3d 1f 4f b0 3d 19 8c 3f 3e
       0.24029282 0.03717484 0.08608841 0.18705787
000180 63 7c 82 be c3 21 07 bc f0 86 41 be 7f 9b 46 3e
       -0.25485525 -0.0082477955 -0.18899131 0.19395255
000190 1d 88 fd bd ef eb bf bd 26 05 06 be b1 c4 d2 3d
       -0.12379477 -0.09371173 -0.13087901 0.10291422
0001a0 9c 28 c2 bd a9 cb 5b 3e 97 d2 78 be 42 e2 58 be
       -0.09480402 0.21464409 -0.24299084 -0.2118006
0001b0 74 07 71 3d 5f b2 8f 3e f7 fc 7c be be fa 98 be
       0.058845 0.28065774 -0.24705873 -0.298788
0001c0 28 ec 6a be 21 bb c9 3d e9 e1 8b be 7e aa 62 be
       -0.22941649 0.09850145 -0.27320793 -0.2213535
0001d0 5a 9a 4d be 1b 85 6a be 2d e3 21 3e c5 fd 8c 3c
       -0.20078412 -0.22902338 0.15809317 0.01721085
0001e0 d4 8f 01 be 9b ab 6b bd 95 43 c7 bd 84 c5 87 3e
       -0.12652522 -0.057536703 -0.09729687 0.2651788
0001f0 ec 46 64 be 80 7e 8b 3e 7d 3c 8f bd 81 35 90 be
       -0.2229268 0.2724495 -0.06993959 -0.2816582
000200 0a b4 1b be 4c 94 eb 3d f9 d7 0c be 8f 48 93 bd
       -0.15205398 0.11502895 -0.13754262 -0.07191574
000210 8b b7 8a 3e 7b d3 e1 3c 20 46 84 be a1 02 08 be
       0.27093157 0.027566662 -0.2583475 -0.13282253
000220 fa 0b 90 be 8b bf 7e be e3 70 5e be 40 58 aa 3d
       -0.28134137 -0.24877755 -0.2172275 0.083176136
000230 9f 31 57 bd 7d 35 82 be 8a c4 54 3e 6a f4 90 3e
       -0.052537557 -0.25431433 0.20778099 0.28311473
000240 3c c4 82 3e 9e d9 d3 3c a8 24 5f be 5a 44 52 3e
       0.2554034 0.025860604 -0.21791327 0.20533887
000250 93 43 99 be a3 ea 75 3e be 12 84 3e 19 ab 06 3e
       -0.29934368 0.24015288 0.2579555 0.13151206
000260 db 39 05 bc 2a 3e 2c bd 04 41 a8 bd 74 a6 7b 3e
       -0.00813147 -0.04205147 -0.08215526 0.24575216
000270 77 af 42 3e 92 fe ba bc 91 47 ed bd ed 40 ec 3d
       0.19012247 -0.022826467 -0.11585916 0.11535821
000280 a9 93 8c be ce 90 27 be e4 53 4f 3e 49 c0 22 be
       -0.27456406 -0.16363832 0.20246845 -0.15893663
000290 61 89 86 be d6 fb 7f be ca 39 0e 3e 96 9f 30 be
       -0.26276687 -0.24998412 0.13889232 -0.17248377
0002a0 8a e4 87 be ef 4d 81 be 2b 4d ae 3d ef b1 f2 3c
       -0.2654155 -0.2525477 0.08510812 0.029625861
0002b0 f6 7f 1b be 98 36 8c bd ff b0 f4 3d f3 c4 8c be
       -0.15185532 -0.068463504 0.11947822 -0.2749401
0002c0 06 e5 ee bb 73 52 c1 bc ab e9 f7 3c 8d 5d 23 be
       -0.0072904853 -0.023598885 0.030262789 -0.15953656
0002d0 0e ee 6a be 53 87 8c 3e b1 67 bd 3d 04 b5 84 be
       -0.22942373 0.27446994 0.09248293 -0.25919354
0002e0 e7 04 9a bc 9a 3b 94 be 1a 5b 76 3e bf f5 19 3d
       -0.018801166 -0.28951722 0.2405819 0.037587877
0002f0 30 f9 91 3c 8a fe b5 bd f4 4b 95 3e 48 8f 89 bc
       0.017819017 -0.0888644 0.2915951 -0.016791955
000300 11 3c 4f be 1e ab 09 3e d9 32 8e 3e 0d 76 51 3d
       -0.20237757 0.13444182 0.2777317 0.051137973
000310 0d 53 23 3e 9d 64 7e 3e e8 5f 89 3e fe 62 46 be
       0.1594965 0.24843068 0.26830983 -0.193737
000320 30 32 c5 bc f2 07 fa bd 7e 7a 99 be 68 60 69 3e
       -0.024071783 -0.12208547 -0.29976267 0.22790682
000330 d5 81 91 3e ba 5f d0 bd d0 aa 8b bd a5 36 ae 3d
       0.28419366 -0.101745084 -0.06819689 0.08506516
000340 63 cf cb bd f2 92 34 3e d6 53 f0 bb d1 48 4a 3d
       -0.09951665 0.1763418 -0.007334213 0.04938585
000350 7a d2 62 bd 86 00 36 be 0a 78 1b be d4 b3 99 bd
       -0.055376507 -0.17773637 -0.1518251 -0.075050026
000360 ec 72 88 bd b9 f8 6c be 36 5e 8a 3e 6b fb 5f bc
       -0.066625446 -0.23141755 0.27025002 -0.013670783
000370 41 34 17 3e 4f c2 96 3e 2d a0 04 3e 77 62 3b 3d
       0.14766027 0.2944512 0.12951727 0.0457482
000380 e2 31 1c be 88 0d 87 3e 7d 4a 06 be 6c 90 1c be
       -0.15253404 0.2637751 -0.13114353 -0.15289468
000390 30 52 84 3e ac d3 1b be cc 5b ee 3d f9 91 a5 3d
       0.25843954 -0.15217465 0.116386026 0.08084483
0003a0 79 01 95 3e a0 36 57 3e 2d 55 3c 3e 08 67 12 3b
       0.29102686 0.21016932 0.18391867 0.0022339243
0003b0 a9 2a ca bb e9 e3 b2 bd 3d 6b 13 be e2 a2 de bd
       -0.0061696363 -0.08734877 -0.14396377 -0.10870911
0003c0 e2 d0 1f 3e 32 72 f1 3c f7 50 91 3e 75 dd 7a be
       0.15607026 0.029473398 0.28382084 -0.24498542
0003d0 ee 4b 79 be 0e 74 73 3c e9 54 74 3d 0d 97 3b 3d
       -0.24345371 0.014859213 0.05965129 0.04579835
0003e0 11 b7 78 be b7 7c df 3d da f7 94 be f2 4c 6d 3e
       -0.24288584 0.10912459 -0.29095346 0.23173884
0003f0 b6 3c 14 3e b5 df 5b 3e 05 20 03 3e b1 ce 1f be
       0.14476284 0.21472056 0.12805183 -0.1560619

in_proj_bias f4 [48]
000000 00 00 00 00 00 00 00 00 00 00 00 00 00 00 00 00
       0.0 0.0 0.0 0.0
000010 00 00 00 00 00 00 00 00 00 00 00 00 00 00 00 00
       0.0 0.0 0.0 0.0
000020 00 00 00 00 00 00 00 00 00 00 00 00 00 00 00 00
       0.0 0.0 0.0 0.0
000030 00 00 00 00 00 00 00 00 00 00 00 00 00 00 00 00
       0.0 0.0 0.0 0.0
000040 00 00 00 00 00 00 00 00 00 00 00 00 00 00 00 00
       0.0 0.0 0.0 0.0
000050 00 00 00 00 00 00 00 00 00 00 00 00 00 00 00 00
       0.0 0.0 0.0 0.0
000060 00 00 00 00 00 00 00 00 00 00 00 00 00 00 00 00
       0.0 0.0 0.0 0.0
000070 00 00 00 00 00 00 00 00 00 00 00 00 00 00 00 00
       0.0 0.0 0.0 0.0
000080 00 00 00 00 00 00 00 00 00 00 00 00 00 00 00 00
       0.0 0.0 0.0 0.0
000090 00 00 00 00 00 00 00 00 00 00 00 00 00 00 00 00
       0.0 0.0 0.0 0.0
0000a0 00 00 00 00 00 00 00 00 00 00 00 00 00 00 00 00
       0.0 0.0 0.0 0.0
0000b0 00 00 00 00 00 00 00 00 00 00 00 00 00 00 00 00
       0.0 0.0 0.0 0.0

weight f4 [16, 16]
000000 9f a7 24 3e 8b b8 b8 be 78 d7 c3 3e 16 e3 ee 3d
       0.16079567 -0.36078295 0.38250327 0.11664407
000010 ae 89 cd be c2 4d 8a 3e 98 22 bc bc 33 62 5c 3e
       -0.40144104 0.2701245 -0.022965714 0.21521835
000020 57 4d 49 3e 0a 95 7f be 64 8c c2 3e 02 3e 7a 3e
       0.19658409 -0.24959198 0.37997735 0.24437717
000030 cd eb 3a bc d7 83 ae 3d d7 ab 5a 3e c5 09 ee 3c
       -0.011408758 0.0852124 0.21354614 0.029057393
000040 52 8c b7 bd dd 24 d9 be d4 74 98 3e 40 63 da 3e
       -0.08962311 -0.42410937 0.29776633 0.42653847
000050 56 82 9b 3e fb d5 fc 3d 02 fc d7 be b6 d7 fc 3d
       0.30372876 0.12345501 -0.42184454 0.12345831
000060 12 07 2a 3e 51 c4 c1 3e e1 c8 41 be df 61 58 be
       0.1660426 0.3784509 -0.18924285 -0.21131085
000070 5c 72 9a be e4 96 cf 3d 72 8c 4f 3e 98 9e be be
       -0.30165374 0.10136202 0.2026842 -0.37230372
000080 4e 75 d4 be 89 75 d4 be 43 3c d6 be 9b 7d 2c 3d
       -0.41495746 -0.41495922 -0.4184285 0.042111974
000090 ed 23 99 be 1d b6 d8 be 30 aa c5 3c 9b 86 b1 3e
       -0.29910222 -0.4232644 0.024129003 0.34673008
0000a0 bf 2c 20 be 51 27 04 be 33 dc 8e 3d db 30 cb bd
       -0.1564207 -0.12905623 0.069755934 -0.09921428
0000b0 23 01 9f 3e d8 07 5e bc a6 48 8b 3c 5a 47 04 be
       0.31055555 -0.013551675 0.017002415 -0.12917843
0000c0 a5 23 98 3e 52 17 e5 bd b0 b9 2c 3e d5 53 29 be
       0.29714695 -0.111860886 0.16867709 -0.16535886
0000d0 84 0a 2a be 10 45 96 bc aa 9a fb bd 7f 6e 78 3e
       -0.16605574 -0.018343478 -0.12285359 0.24260901
0000e0 bd 90 be bd da 35 a0 be 52 4c 4d 3e 4b ea ba 3e
       -0.093049504 -0.31291085 0.20048645 0.36506876
0000f0 70 0a 00 3e e9 b6 d5 3e e5 e8 c0 3e 4e 1f 8f be
       0.12503982 0.41741112 0.37677684 -0.2795357
000100 0c 9a 47 be 1f 71 b5 bd 07 15 cb be 8f c1 4e be
       -0.19492358 -0.08859467 -0.3966448 -0.20191024
000110 d4 c3 76 3e b2 ce c6 3e 5d 7d 23 be fe 23 ad 3e
       0.2409814 0.3882957 -0.15965791 0.33816522
000120 3a 11 45 bc 29 5f 08 3d a6 44 17 be 80 e2 ce be
       -0.012028033 0.033293877 -0.14772281 -0.4040718
000130 d9 2c da 3e 1b 51 87 be c3 65 8a 3e 5d 28 11 be
       0.4261234 -0.26429066 0.27030763 -0.14175554
000140 a9 54 a7 bd 21 69 37 be a4 09 af be 03 58 29 bd
       -0.081704445 -0.17911197 -0.34187043 -0.0413437
000150 d1 cb b1 be da 2d ff bd da a8 dd bc 46 5b 83 3e
       -0.34725812 -0.12459917 -0.027058054 0.25655574
000160 76 f6 03 3e b2 a2 be bd 5a 3f a9 be c8 74 b1 bd
       0.12886986 -0.093083754 -0.33056146 -0.086648524
000170 96 eb a8 3e ee b3 b4 be 19 80 9a bd 3f 8f b7 be
       0.32992238 -0.35293525 -0.07543964 -0.35851476
000180 c9 16 16 3d 2a 84 11 3e a8 af 90 3e 27 44 8c 3e
       0.036642823 0.14210573 0.28259015 0.27395746
000190 9a 78 aa be e7 83 70 3e 81 32 ea 3d f2 03 67 be
       -0.33295137 0.23487817 0.11435414 -0.22560099
0001a0 d8 ee a5 3e 63 8d 3d be 24 e5 ba 3e c5 d2 96 3c
       0.32408786 -0.18510966 0.36502945 0.01841105
0001b0 ac ee 4f be 1e 76 9a 3e 67 a7 6f be 43 f7 69 3e
       -0.2030589 0.3016824 -0.23403703 0.22848229
0001c0 b2 da da 3e bd ff 1f 3e 19 8f b8 3d ef c2 bb 3e
       0.42744976 0.156249 0.09011669 0.3667216
0001d0 0c a5 27 be a9 3c 11 3e 6c 96 02 3e d4 6b c3 be
       -0.16371554 0.14183296 0.12752694 -0.38168204
0001e0 ec bc 3c 3e 2c eb ac 3e b7 d4 28 3e 00 83 c2 3e
       0.18431443 0.33773172 0.16487394 0.3799057
0001f0 2e b3 72 be 0a 65 9f 3e a1 2c 29 bc 0a 79 36 be
       -0.23701164 0.31131774 -0.010325582 -0.1781961
000200 7f 4f ba 3e d2 13 7a be 29 83 69 bd 66 28 c5 3e
       0.36388776 -0.24421623 -0.05700985 0.38507384
000210 e9 22 e4 bd e5 1e 2b 3e 06 99 c0 3e a6 58 31 be
       -0.11139471 0.16711004 0.37616748 -0.17318973
000220 d6 74 7c be 5c f3 dc be 9b dc c2 3d d1 04 38 3e
       -0.24653944 -0.43154418 0.095147334 0.17970587
000230 c4 5d 12 3e 3d 5e ab be e2 bc 02 be 4a 91 84 3e
       0.14293581 -0.33470336 -0.12767366 0.25892097
000240 cc 5f 16 be 9a 59 c1 3e f4 de 96 3e d2 18 d6 3e
       -0.14684981 0.37763673 0.29466975 0.4181581
000250 3e a0 69 3e 43 b2 83 bd ce 9e c4 3d 7e 4e d6 3e
       0.22815034 -0.06430485 0.09600602 0.4185676
000260 9b 31 15 be ad 8d 71 3d 32 a1 56 3e 8e eb b1 3e
       -0.14569704 0.058973003 0.20959929 0.34750026
000270 0c fe 8c be 8f d9 36 be ee 13 8a be ae 95 e8 bc
       -0.27537572 -0.1785643 -0.2696833 -0.028391685
000280 6c 16 ab 3d a1 03 c5 be e0 8f b0 3e 30 0a ee bd
       0.08353886 -0.3847933 0.34484768 -0.11623037
000290 27 fa dc 3e 19 26 3e 3e 30 e9 35 bd 25 4e 9e 3d
       0.431596 0.1856922 -0.044411838 0.07729749
0002a0 a2 0c e3 bd ed 65 bd 3e f3 af 5c bd b9 0a cf 3e
       -0.11086394 0.36991826 -0.053878736 0.40437868
0002b0 e3 72 ad be a8 aa 10 be 15 8e d7 3d e2 8d 9b be
       -0.33876714 -0.141276 0.10525147 -0.30381685
0002c0 0a 29 39 be 2a 87 29 be ed 1e ab 3e 28 ea a0 3e
       -0.18082061 -0.16555467 0.33422032 0.31428647
0002d0 c6 12 80 3d 16 ae 4d 3e 4a 45 95 be b9 d9 3d be
       0.06253581 0.2008594 -0.29154426 -0.18540086
0002e0 d6 ab d8 be 3f 87 a1 be 54 8c b5 3e c5 86 83 3d
       -0.423186 -0.31548497 0.35458624 0.064221896
0002f0 0f 18 42 be 04 a5 8e 3e c1 fd 98 3d 86 e4 11 3e
       -0.1895449 0.27860272 0.07470275 0.14247331
000300 fa bb 33 be 28 d5 85 3d 69 7e a7 be 11 31 9c be
       -0.17552176 0.06534797 -0.3271363 -0.30506185
000310 91 7f bb 3e 22 f4 bc 3e 53 d1 92 bd a7 7d 25 3e
       0.36620763 0.3690501 -0.07168832 0.16161214
000320 7c 14 9e be df 6d 46 3e 57 17 25 3d d7 ae 54 3e
       -0.30875003 0.1937785 0.04030546 0.20769821
000330 b1 e1 9f 3e c9 da 9e 3e cf 88 3b be ea 8b 7f be
       0.31226876 0.31026295 -0.18313907 -0.24955717
000340 42 8f a9 3e 07 be 8a 3e 8b 64 c9 3e d9 a0 9b 3c
       0.3311711 0.27098104 0.3933452 0.018997597
000350 da e5 5a 3e f4 15 8d 3e 4d 66 64 3d 6e 6d bd 3e
       0.21376744 0.2755581 0.055761624 0.3699755
000360 28 0d 1c 3e 13 c2 56 be 50 5f 06 3e db 82 ea bd
       0.15239394 -0.20972471 0.13122296 -0.1145074
000370 e6 08 56 3e f3 88 9d 3e 56 bd 8c 3d a8 9d aa be
       0.20901832 0.30768546 0.068720505 -0.33323407
000380 c5 58 43 bd 90 d4 b8 3e 62 25 c1 3e bf ba d5 be
       -0.04769208 0.36099672 0.37723833 -0.41744038
000390 02 b6 fa 3d b7 49 7d 3e 44 b8 8d 3d f8 82 8b 3e
       0.122417465 0.24735151 0.069199115 0.2724836
0003a0 5e a0 a1 3d ea b9 d6 3e c8 41 17 be 14 18 cc be
       0.07891916 0.41938716 -0.14771187 -0.3986212
0003b0 d7 32 8a be f0 2b db 3e 52 6b 3b 3c 6c ff b0 bd
       -0.26991913 0.4280696 0.011439161 -0.08642468
0003c0 dc a1 6e be 00 2e b1 3d 28 8f 58 bd 35 13 92 3e
       -0.23303932 0.08651352 -0.0528709 0.2853028
0003d0 26 56 15 bd ec fc 94 3e 16 ab 77 3e e1 67 ce be
       -0.03645911 0.29099214 0.24186358 -0.40313628
0003e0 79 bc 8f 3e 11 c5 b0 be 2c ac 78 3e e9 c1 bc be
       0.2807348 -0.3452535 0.24284428 -0.36866692
0003f0 a6 c4 0d 3e 9f c9 a3 3d b6 11 32 3e 78 0d d8 be
       0.13844547 0.079974405 0.17389569 -0.42197776

bias f4 [16]
000000 00 00 00 00 00 00 00 00 00 00 00 00 00 00 00 00
       0.0 0.0 0.0 0.0
000010 00 00 00 00 00 00 00 00 00 00 00 00 00 00 00 00
       0.0 0.0 0.0 0.0
000020 00 00 00 00 00 00 00 00 00 00 00 00 00 00 00 00
       0.0 0.0 0.0 0.0
000030 00 00 00 00 00 00 00 00 00 00 00 00 00 00 00 00
       0.0 0.0 0.0 0.0

weight f4 [2048, 16]
000000 71 e8 55 3d 41 3b 27 bd 03 a5 ae bc 7c 02 30 3d
       0.052223627 -0.040827993 -0.021318918 0.04297112
000010 cc fb c1 bb e3 72 1c bd c9 aa 38 bd 73 3c 0c 3d
       -0.005919909 -0.038195502 -0.04508475 0.034237336
000020 76 74 55 bd 27 9f cf 3c 25 63 19 3c 04 04 b0 3c
       -0.05211302 0.025344444 0.009362017 0.02148629
000030 fa 04 5a bd e8 5a c2 b8 6d 73 0e 3d c1 58 16 3b
       -0.053227402 -9.2675735e-05 0.034778047 0.0022941085
000040 d9 da 9e bc e6 7d df 3c c0 ea 53 3d e9 97 0f 3d
       -0.019391464 0.027281713 0.051737547 0.035056982
000050 a9 f2 c3 3c 6f 0b 46 bd 28 04 a1 3b 74 78 2e bd
       0.02391942 -0.048350748 0.0049138255 -0.04259534
000060 4a 60 06 bd 73 52 0e 3d cc 6d 43 3d 45 c3 e6 3c
       -0.032806672 0.0347466 0.047712132 0.028169284
000070 62 ab d9 3c 59 67 38 3d df 4d 30 3d d3 90 19 3d
       0.02657098 0.045020435 0.043043014 0.03749163
000080 8f 2e 52 3d 2f 5f a3 3c 4f 1d f3 bc 95 7f 5b bd
       0.051313933 0.019942848 -0.029677061 -0.05358847
000090 d8 34 56 bd 3c 05 37 3d 2e c4 53 bd 93 ed 9e bb
       -0.05229649 0.044682726 -0.051700763 -0.0048500984
0000a0 9d ab 30 bd ab e7 b4 bb 23 91 8b 3c 8c c9 c1 bc
       -0.043132413 -0.005520781 0.01703698 -0.023655675
0000b0 6a 06 5c bd 89 bc 46 3d 78 f1 33 bd a7 aa 39 bc
       -0.053717054 0.048519645 -0.043931454 -0.011332191
0000c0 ab ed 0d 3d b7 dd 20 3c d7 ce 3a 3c 81 9e a4 3c
       0.034650486 0.009818486 0.0114018535 0.020095112
0000d0 76 73 17 bd 23 d0 29 3d 1f c8 fc bb 5e b5 15 3d
       -0.036975347 0.04145826 -0.007714286 0.03654992
0000e0 35 88 ea bc a3 82 40 bc 93 25 a7 bc 53 dc 16 bd
       -0.028629402 -0.011749896 -0.020403659 -0.03683121
0000f0 bc d9 29 3d 91 1e 05 bc 85 e3 c9 3c fc 33 46 3c
       0.041467413 -0.008124963 0.024644623 0.012097355
000100 77 64 cf 3c 6e fa 22 3d 0a ad f3 bc 93 6f f7 3c
       0.02531646 0.03978961 -0.029745597 0.03020457
000110 3e f1 ef bb 07 f0 11 3d 9d 53 01 3d a2 25 00 bd
       -0.0073224595 0.0356293 0.03157388 -0.03128589
000120 32 db e9 bc 07 c8 1d 3d ab 42 78 bc 49 a6 dc 3c
       -0.028546903 0.03852084 -0.015152614 0.02693476
000130 4b ef c5 bc ca 00 93 3c a0 20 3c 3c f2 8e 8a ba
       -0.024161955 0.017944712 0.011482388 -0.0010571165
000140 91 e1 1e bc a0 6a 4f 3d 97 81 75 bc 55 bc 2f bc
       -0.009697334 0.050638795 -0.01498451 -0.010726054
000150 6c a8 32 3d dc 00 43 3d c1 48 51 bd 1a e1 63 3b
       0.04361765 0.04760824 -0.051094774 0.0034771622
000160 98 39 15 3d 36 ee ec 3a d0 dd 5b bd aa 71 d1 bc
       0.03643188 0.0018076363 -0.053678334 -0.025566895
000170 d8 3d 2a 3d ef 5f e0 bc 43 ee 16 3c 43 f1 9d bc
       0.041562885 -0.027389495 0.009212079 -0.019280082
000180 f1 2a 11 bd 95 92 66 3b 4b b9 1a bd 24 f1 21 bd
       -0.035441343 0.0035182585 -0.037774365 -0.03953661
000190 99 c1 50 3c eb dc 49 37 25 fb bb bc ea 20 28 bb
       0.01274147 1.203197e-05 -0.022946903 -0.0025654384
0001a0 b9 8e 17 bd 43 f1 49 3d 11 77 a6 bc 0b ab 37 bd
       -0.037001345 0.04930235 -0.020320447 -0.044840854
0001b0 3c 59 97 bc 21 1c 1d bd 13 ea a0 bc 78 d1 91 3c
       -0.018475167 -0.038356904 -0.019642865 0.017800078
0001c0 3a 31 9c 3c 62 b2 ae bc 01 76 56 bd 46 8b 1d bd
       0.019066442 -0.021325294 -0.05235863 -0.0384629
0001d0 20 53 96 bc b7 7c c8 bc 0f 5a 11 bc 88 06 d4 bc
       -0.018350184 -0.024473531 -0.008871569 -0.02588202
0001e0 e2 7e 4f 3c a1 d0 53 bd eb 63 d7 bc cf e8 de bc
       0.012664529 -0.051712636 -0.026292762 -0.027210621
0001f0 4c dd ca bc 4f c9 8a bb 2e 52 2c 3d f8 83 d1 3c
       -0.024763726 -0.0042354236 0.04207056 0.025575623
000200 a8 35 2b 3c 43 9a 4a bd f3 58 94 bc 90 fe ce bc
       0.010449804 -0.04946352 -0.01810882 -0.02526787
000210 7a 77 a8 bc 78 09 12 3d d1 62 4d 3d 95 c1 49 bb
       -0.020564783 0.03565356 0.050143067 -0.003078555
000220 5b e6 12 3b 9e f1 26 bd 6f 37 9b bb 63 11 b8 bc
       0.0022415135 -0.040757768 -0.004736833 -0.022469228
000230 24 27 63 bc 42 50 23 3d 90 89 5c bd 48 04 05 3d
       -0.013864312 0.03987146 -0.053842127 0.032474786
000240 d9 22 8e 3c ae 3e 27 3c 77 5f 3c bd f3 e2 60 bc
       0.017350601 0.010207815 -0.04598948 -0.013725984
000250 5c d0 b5 3c b2 90 c8 3c 8f b6 33 3c 96 ea 3e bd
       0.02219408 0.024483059 0.010968818 -0.046610437
000260 57 e6 e3 bc 7d ad 2e bd ff ba 4d 3d 87 05 a2 bb
       -0.027819796 -0.04264592 0.05022716 -0.0049445066
000270 75 24 10 bd 31 1b 42 bd 2f f5 22 3c 9f 4f ea bc
       -0.035191018 -0.047389213 0.009946152 -0.02860242
000280 cc a2 0d 3c 5e d9 53 3d 16 b0 05 bc e0 33 1f 3d
       0.008644771 0.05172097 -0.008159658 0.03886783
000290 3e 38 f4 3c 0e ca 59 bd 8e e6 31 bd 88 53 d5 3b
       0.029811975 -0.05317121 -0.043432765 0.006510202
0002a0 1b fc ae bc bf a2 4d bc 9b dd 1f 3d 4c c5 0b bd
       -0.021360448 -0.012551009 0.0390297 -0.034123704
0002b0 56 89 6e bc 57 98 e8 3b d5 8e fc bb fc 56 2d 3d
       -0.014559111 0.0070982384 -0.0077074566 0.042319283
0002c0 ed b1 2b bd d4 02 31 3d 73 83 3f bd 94 d8 1d 3c
       -0.04191773 0.043215588 -0.04675622 0.009634156
0002d0 24 20 6c 3b 75 d1 bc bc 22 22 30 3d a1 79 d9 3b
       0.00360299 -0.023049096 0.0430013 0.0066368137
0002e0 47 d9 2e 3c c1 a3 61 3c 11 8c 09 bd 95 5c 43 bd
       0.01067192 0.013771952 -0.033580843 -0.047695715
0002f0 48 84 98 3c 16 3a 86 3c 4e 83 e6 bc 39 64 b9 39
       0.018617764 0.01638512 -0.028138783 0.0003536062
000300 81 ae 2f 3d 1c 4d cb 3c a6 bc 52 bd 54 4c 1d bd
       0.04289103 0.024817042 -0.05144944 -0.03840287
000310 0b 4c e9 3c f5 ce 7e 3b ff 71 4c bd 78 58 ef bc
       0.028478643 0.003888068 -0.049913403 -0.02921699
000320 68 a5 23 bd 7e 60 a4 bc 20 83 26 3d c9 35 07 bd
       -0.039952666 -0.020065542 0.040652394 -0.033010278
000330 2d 22 06 3d 8e e1 2a 3d 3e d8 f6 bc 27 48 60 3c
       0.032747436 0.041719012 -0.03013241 0.013689077
000340 d4 8a 1f bd 89 39 5c bd 70 96 95 bc 67 3a 3f 3d
       -0.038950756 -0.053765807 -0.01826021 0.046686556
000350 a6 b9 9f bc c3 e4 33 3c 4e ee c9 bc c6 d4 2d 3d
       -0.019497704 0.010979834 -0.024649765 0.042439245
000360 78 9d 4c 3d f9 74 2c bd 7a 96 2d bd 3e a9 de bc
       0.04995486 -0.04210374 -0.042379834 -0.02718031
000370 5b fd 3b bd 11 b9 4b 3d f1 a2 39 bc a1 10 c6 bc
       -0.045895915 0.04973704 -0.011330352 -0.024177851
000380 68 5c c9 3c d7 e3 4a 3c a4 52 1a 3d 5b 1c 98 bb
       0.024580196 0.012383423 0.03767647 -0.004642052
000390 4a 33 1f bb 61 88 48 3d d2 7d 54 bd ae 69 c7 3c
       -0.0024292045 0.048958186 -0.051877804 0.024342384
0003a0 49 5e ee 3c 54 1e 03 3d 3f a9 49 bd 57 ed 5b bd
       0.029097693 0.032011345 -0.04923367 -0.05369314
0003b0 c2 82 5b bc f8 3d 2f bd 1c fd 40 bd b6 42 1c bd
       -0.013397874 -0.042783707 -0.047116384 -0.038149558
0003c0 c4 85 4d 3b 34 f7 e7 bc 32 ba e3 bc ca 6f 1e 3d
       0.0031360248 -0.028316118 -0.027798746 0.03868083
0003d0 cb 30 2a 3d e3 73 90 bc 9f 8b 24 bd 61 b4 37 bc
       0.04155044 -0.017633384 -0.040172216 -0.011212439
0003e0 c9 ef f2 bc 32 73 1c 3c 00 d5 28 3d 5a 2f a5 3c
       -0.029655354 0.009548949 0.041218758 0.02016418
0003f0 9b 00 33 bd 58 fc 16 bd 1b 63 c1 bc b5 28 50 bd
       -0.04370175 -0.036861748 -0.023606827 -0.05082007

bias f4 [2048]
000000 d0 5b 33 bd f4 53 9a 3d 90 ff 9c bd 90 b3 de 3d
       -0.04378873 0.07535544 -0.07665932 0.108740926
000010 8c 54 31 3e cc 57 da 3d 18 b3 11 3e 74 39 3f be
       0.17317408 0.10661277 0.14228475 -0.1867426
000020 ca 90 54 be 52 3e 6a be 00 8d 98 3a c6 c8 61 3e
       -0.20758358 -0.22875336 0.0011638701 0.22049245
000030 dc ac 30 be 98 5d 37 3e 2c de 58 3e d0 9c d1 bc
       -0.1725344 0.17906797 0.21178502 -0.02558747
000040 02 25 24 3e 30 69 4c 3e 38 98 30 3d 6e 48 77 be
       0.16029742 0.19962001 0.043113917 -0.24148723
000050 3e 66 54 3e 60 d7 3a be be 68 05 3e 80 56 28 3e
       0.20742127 -0.18246222 0.13028237 0.16439247
000060 38 15 15 3e 7a 38 35 3e e0 7e 4d bd 8e 34 6d 3e
       0.14558876 0.17697325 -0.050169826 0.2316458
000070 24 13 dc 3d 80 00 34 bc 66 25 29 be e4 ec c8 bd
       0.10745838 -0.010986447 -0.16518173 -0.09810808
000080 5c 90 5e be 3c 0b 52 be b4 b1 fb bd 9a ab 6b be
       -0.21734756 -0.20512098 -0.122897536 -0.2301468
000090 28 af 65 3d c0 91 f4 bd 00 5a ac bb 74 8e cb bd
       0.056075245 -0.11941862 -0.0052597523 -0.0993928
0000a0 54 b7 5a 3e be 06 1d be de ab 43 be d2 f8 16 3e
       0.21358997 -0.15334603 -0.19108531 0.14743355
0000b0 7a 0e 06 be 70 9f 8f 3c 0e c4 31 be 80 82 84 3d
       -0.1309146 0.01753208 -0.17359945 0.064702034
0000c0 28 e1 21 3e 36 ae 11 be 46 8b 7f be 6a f2 19 be
       0.15808547 -0.14226612 -0.24955472 -0.1503388
0000d0 f8 e8 7e 3e 40 aa 15 be 08 74 4e 3d 30 d9 64 3d
       0.24893558 -0.14615726 0.050403625 0.05587119
0000e0 e0 32 39 bd ea f0 79 be 68 9b 49 3d ec c2 bd 3d
       -0.045214534 -0.24408308 0.049220473 0.09265694
0000f0 b8 1f 31 3e a0 07 07 3c 46 cd 6a 3e b0 4f 07 3d
       0.17297256 0.008241564 0.22929868 0.03303498
000100 a8 59 0e 3e 96 44 60 be ea aa 21 be a8 5e 31 3e
       0.13901389 -0.21901163 -0.15787855 0.17321265
000110 10 f3 86 bc 10 5c 6b be 84 7f ba bd 64 ef ad 3d
       -0.016473323 -0.22984338 -0.09106353 0.08492926
000120 10 32 cb bc 34 f4 46 3e a0 fd ed bd 6e 5a 2c be
       -0.024804145 0.19429094 -0.11620641 -0.16831371
000130 f6 b8 64 3e a0 43 f3 3d 04 99 e0 bd 50 5f d0 3d
       0.22336182 0.11878133 -0.109666854 0.101744294
000140 be 00 53 3e 52 a0 37 3e 74 eb 08 3e 2a 2b 42 3e
       0.20605752 0.17932251 0.13371068 0.18961778
000150 36 1e 3b be 12 83 14 3e 40 89 93 3d 88 3e 67 be
       -0.18273243 0.14503124 0.07203913 -0.22582448
000160 10 99 ec bc b4 0f c9 bd 10 b3 42 be 5c 4b b7 3d
       -0.02888158 -0.09817448 -0.1901362 0.089499205
000170 58 60 a8 bd 3c 5d 99 bd 48 f4 48 be aa f8 24 3e
       -0.08221501 -0.07488486 -0.19624436 0.16110483
000180 30 a1 17 be d8 f1 a6 bd 7a 11 70 3e c0 73 bd 3c
       -0.14807582 -0.08151597 0.23444167 0.023126483
000190 fc e7 02 be c4 72 86 3d e4 68 cb 3d 98 0b 53 3e
       -0.12783808 0.065648586 0.09932116 0.20609891
0001a0 c0 18 c3 bd 42 e3 18 3e d0 a6 5c bd 28 49 0e 3e
       -0.09526205 0.14930442 -0.053870022 0.13895094
0001b0 54 a6 9a 3d b4 6e e6 3d 38 c3 26 bd 00 d6 07 bd
       0.07551256 0.11251584 -0.04071352 -0.03316307
0001c0 28 c4 40 3d 24 64 cd bd d0 1a 2b 3e 58 f8 b1 bd
       0.04706207 -0.10028866 0.16709447 -0.08689946
0001d0 a8 e9 ed bd dc f7 72 be b8 62 15 3d 00 5e 2d bc
       -0.11616832 -0.23727363 0.0364711 -0.010581493
0001e0 00 3e a4 bd b8 01 87 bd e0 dc b2 bc 50 d8 2f be
       -0.08019638 -0.06592125 -0.021833837 -0.1717236
0001f0 00 96 fc 3d 28 d8 c1 3d 74 55 2b 3e 60 26 72 3d
       0.12333298 0.09465057 0.16731817 0.05911863
000200 f0 22 37 bd 14 bc a4 3d 20 5c f1 3d 3c ca 92 bd
       -0.044711053 0.080436856 0.117851496 -0.071674794
000210 98 2f 81 bd 90 80 b8 bc ba 8a 50 be 4c 3d 17 3e
       -0.06307906 -0.02252224 -0.2036542 0.14769477
000220 d0 16 aa bd 20 5d eb bc 50 74 8b 3d 20 46 6a be
       -0.083051324 -0.028730929 0.06809294 -0.22878313
000230 4c f4 6d 3e ca e1 25 3e 80 7d 80 bb 60 da b4 3c
       0.23237723 0.16199413 -0.0039212108 0.022076786
000240 38 83 3f 3e 3c ca 24 be cc e4 54 be a8 cd 79 be
       0.187024 -0.16092771 -0.20790404 -0.24394858
000250 5a b6 6b 3e 70 14 ee 3d ca a9 5f be e8 6e 1b be
       0.2301878 0.11624992 -0.21842113 -0.15179026
000260 b2 19 62 3e d2 68 63 3e d8 b4 41 3e dc f6 e7 bd
       0.22080114 0.22207955 0.18916643 -0.113263816
000270 5e 79 5b 3e 10 82 dd bd fe 97 0a 3e 48 ce c5 bd
       0.21433017 -0.10815823 0.13534543 -0.09658486
000280 c2 9d 2e 3e 6e ae 37 be 80 08 22 bc 80 fe 4d 3c
       0.17052367 -0.17937633 -0.009889722 0.012572885
000290 02 fd 54 be d2 7c 5e 3e 00 a2 a3 3b 58 42 5e be
       -0.2079964 0.21727303 0.004993677 -0.21704996
0002a0 34 9a 72 be d4 02 35 3e 40 8f 15 bc c0 ef 43 3e
       -0.23691636 0.1767686 -0.009128392 0.19134426
0002b0 30 78 55 3e 38 da 70 3d 00 df 2f bc b8 58 13 bd
       0.20846629 0.05880186 -0.01073432 -0.03597328
0002c0 e4 b0 13 3e 54 84 44 3e c6 cb 68 3e e6 33 07 be
       0.14422947 0.19191104 0.22733983 -0.13203391
0002d0 3c fb 1c 3e 14 41 d1 3d a2 15 0e 3e a8 3a 0d 3d
       0.15330213 0.10217491 0.1387544 0.034479767
0002e0 38 67 74 3e cc 3b 5e 3e 8c 54 bf bd cc 15 7f 3e
       0.238675 0.21702498 -0.09342298 0.24910659
0002f0 4e 00 69 be 78 fc 1e be ac 67 5c be 5e db 19 be
       -0.22754022 -0.15525997 -0.21523923 -0.15025088
000300 a2 72 1b be 0c 74 4a be 6c e1 48 be 6e d5 1c be
       -0.15180448 -0.19770831 -0.19617242 -0.15315792
000310 2e f1 29 3e 38 4a 24 be c8 58 2f 3d e4 13 72 3e
       0.16595909 -0.16043937 0.042809278 0.236404
000320 b4 06 ee bd 3e 09 28 be 40 5e e0 3c f2 14 61 be
       -0.11622372 -0.16409776 0.027388692 -0.21980646
000330 74 a1 e9 bd 5c 7f 2e be 8c 81 29 be 2a 1a 69 be
       -0.11407748 -0.17040771 -0.16553324 -0.22763887
000340 b4 dd e8 bd 9a 55 38 3e 3e cc 47 be 7c fa ef 3d
       -0.113704115 0.18001404 -0.19511506 0.11717698
000350 ac c1 22 3e ee ed 25 be 10 77 b0 3d 1c ad 57 3e
       0.15894192 -0.16204044 0.08616459 0.2106213
000360 38 8a 1f bd 2e ab 17 3e a0 65 1d bc 34 bd 13 3e
       -0.038950175 0.14811394 -0.009606749 0.14427644
000370 8c 13 42 3e d8 fc 6f be 66 42 72 3e f0 f5 ff 3d
       0.18952769 -0.23436296 0.23658141 0.12498081
000380 bc ca 06 be cc 99 fd bd 60 46 40 3d 60 53 df 3d
       -0.13163275 -0.1238285 0.046942115 0.109045744
000390 08 50 08 bd b0 f6 78 bd 98 dd 7b 3e f4 f6 be 3d
       -0.03327945 -0.060782135 0.2459625 0.09324446
0003a0 48 6a c8 3d 40 01 9c 3b a0 5e 60 3e aa a4 2b be
       0.097858965 0.004760891 0.21911097 -0.16762033
0003b0 60 21 fb bd 42 6b 31 3e 32 54 5c be 68 64 ac bd
       -0.12262225 0.17326072 -0.21516493 -0.084175885
0003c0 bc 2f 26 be 34 f0 cb 3d 34 5f 69 be 90 e7 74 be
       -0.16229147 0.099579245 -0.22790223 -0.23916459
0003d0 20 58 68 3d 00 ec f4 ba f8 2b 81 3d 4a 76 6a be
       0.056724668 -0.0018686056 0.063072145 -0.22896686
0003e0 9c 66 58 be 80 1e 7d 3b 9a 9f 56 3e a0 2d 59 3e
       -0.21132892 0.0038622916 0.2095932 0.21208811
0003f0 be 88 66 3e 68 b6 fc 3d c0 91 c5 3b a0 8a 70 3c
       0.225131 0.12339479 0.0060293376 0.014681488
