09_PyTorch_Transformers_via_Paper_Replication/Vision Transformer/weights/ViT_5_epochs.pth (torch, 856578 bytes, 44 tensors)

cls_token f4 [1, 1, 16]
0	0xb72a09be	-1.0135058e-05
1	0xb7884980	-1.624669e-05
2	0xb78371b0	-1.5669357e-05
3	0x3c1d25fc	0.009591576
4	0xb7b808c7	-2.1938597e-05
5	0xb7c11009	-2.301486e-05
6	0xb798001d	-1.8119865e-05
7	0xb797295d	-1.8019864e-05
8	0xb71b8bd8	-9.27128e-06
9	0xb7b37ae7	-2.1395694e-05
10	0xb77d09a5	-1.5082221e-05
11	0xb78915f7	-1.63419e-05
12	0xb7985488	-1.8159175e-05
13	0x3d8df7ee	0.069320545
14	0xb78a17c9	-1.6461958e-05
15	0xb75551b7	-1.2714815e-05

positional_embeddings f4 [1, 50, 16]
0	0xb72a09be	-1.0135058e-05
1	0xb7884980	-1.624669e-05
2	0xb78371b0	-1.5669357e-05
3	0x3c1d25fc	0.009591576
4	0xb7b808c7	-2.1938597e-05
5	0xb7c11009	-2.301486e-05
6	0xb798001d	-1.8119865e-05
7	0xb797295d	-1.8019864e-05
8	0xb71b8bd8	-9.27128e-06
9	0xb7b37ae7	-2.1395694e-05
10	0xb77d09a5	-1.5082221e-05
11	0xb78915f7	-1.63419e-05
12	0xb7985488	-1.8159175e-05
13	0x3d8df7ee	0.069320545
14	0xb78a17c9	-1.6461958e-05
15	0xb75551b7	-1.2714815e-05
16	0xb4b219f8	-3.3173978e-07
17	0xb75e2cbf	-1.3242649e-05
18	0xb84f6733	-4.9448758e-05
19	0x3495a309	2.7872036e-07
20	0x35225a9f	6.0481574e-07
21	0x2e270713	3.7977687e-11
22	0xb5a3c538	-1.2201845e-06
23	0x39132f7f	0.00014036706
24	0x38a7f5df	8.0089776e-05
25	0x39b156c7	0.00033824725
26	0x2ff4f8dc	4.4560167e-10
27	0x37573f59	1.2829748e-05
28	0xb50c602c	-5.229401e-07
29	0x355cb2ee	8.2216764e-07
30	0x32ca77f0	2.3570436e-08
31	0x32e30050	2.642642e-08
32	0x3a5fb1e6	0.0008533284
33	0x39a6acf0	0.00031790836
34	0xb9814050	-0.00024652714
35	0xb44f341a	-1.9297332e-07
36	0x369da310	4.6979476e-06
37	0x38ef7324	0.00011417855
38	0x3a036919	0.0005012914
39	0x38168d3c	3.589432e-05
40	0x360a2a6b	2.0588293e-06
41	0xb80873c4	-3.2532742e-05
42	0x3645693d	2.9416544e-06
43	0xb64484a1	-2.9283476e-06
44	0xb8195c64	-3.6564088e-05
45	0x3530373a	6.5645474e-07
46	0x33c659f9	9.2364594e-08
47	0xb21db90c	-9.1806776e-09
48	0xba6b4f17	-0.0008976324
49	0x37a22e43	1.9333447e-05
50	0x3522b1ed	6.060862e-07
51	0xb6879e3b	-4.041734e-06
52	0xb639a925	-2.7665603e-06
53	0x3a73989f	0.00092924567
54	0x37057fd8	7.957184e-06
55	0xb7a2778d	-1.9367575e-05
56	0x36a0a289	4.787293e-06
57	0xb990ce50	-0.00027619535
58	0x3a4bc5b0	0.0007773293
59	0x37898b1b	1.6396449e-05
60	0xb4b9d62a	-3.461476e-07
61	0x34f577f6	4.572209e-07
62	0xb98baf00	-0.0002664253
63	0xb7a8fcac	-2.014482e-05
64	0x3887807a	6.461232e-05
65	0xb8f3c9a3	-0.00011624701
66	0x383cab8a	4.498245e-05
67	0xb6d66236	-6.3891302e-06
68	0x350dea8d	5.286791e-07
69	0xb64f5da0	-3.08999e-06
70	0xb75ba10f	-1.3090917e-05
71	0x35646ccf	8.5094956e-07
72	0x3887fba2	6.484172e-05
73	0xbaa5f1fd	-0.0012660619
74	0x39663a67	0.00021956266
75	0x350c9125	5.236528e-07
76	0x39b0525f	0.00033630707
77	0xae95e289	-6.815976e-11
78	0xb840f60f	-4.6005527e-05
79	0x3ac274ab	0.0014835795
80	0x37a3e8b5	1.9539477e-05
81	0xb585847b	-9.947829e-07
82	0x37997f27	1.8298231e-05
83	0x34d3b068	3.9430165e-07
84	0xb4e888cd	-4.3312903e-07
85	0xb6acde84	-5.1519037e-06
86	0xb7c99f0e	-2.4035133e-05
87	0xb80c813f	-3.349897e-05
88	0xba372770	-0.00069867726
89	0xb68f57ec	-4.2719676e-06
90	0xb904c652	-0.00012662381
91	0x35a0c07f	1.1976953e-06
92	0x36d26569	6.2702934e-06
93	0xb9a3be15	-0.00031231405
94	0xb7460fa1	-1.1805359e-05
95	0x36d43062	6.323725e-06
96	0xba9ad84b	-0.0011813728
97	0xb70624c3	-7.995582e-06
98	0xb560f4a9	-8.380253e-07
99	0xb9081379	-0.00012977225
100	0xb8b1e2c7	-8.482258e-05
101	0xb7ffda8b	-3.0500136e-05
102	0x38ef9cbd	0.00011425603
103	0x39198245	0.00014639746
104	0xb40bb099	-1.300963e-07
105	0x3700ad12	7.669691e-06
106	0xb84acb38	-4.8349815e-05
107	0xb9ca1acb	-0.00038548405
108	0xb92ff800	-0.00016781688
109	0xb516670b	-5.60293e-07
110	0xb7b6fcde	-2.1813841e-05
111	0xb9c36096	-0.0003726526
112	0x37210c75	9.599248e-06
113	0xb10d18de	-2.0532336e-09
114	0xb9d208fe	-0.0004006102
115	0xb8c0b13b	-9.188285e-05
116	0x3a2ee4ea	0.0006671684
117	0xb8f7a776	-0.0001180907
118	0xb835e50d	-4.3367083e-05
119	0xb6a3c555	-4.880751e-06
120	0xb8fb2ff6	-0.00011977546
121	0xb5415c7e	-7.2032697e-07
122	0x372ed3fb	1.0420564e-05
123	0x388be940	6.671483e-05
124	0xb8cf9a96	-9.899323e-05
125	0xb973ff9b	-0.00023269506
126	0x343117ee	1.6493115e-07
127	0x38238b77	3.8992115e-05
128	0x3802ea3f	3.1212574e-05
129	0x38bfe7e9	9.150786e-05
130	0xb89f73a3	-7.60325e-05
131	0x379c477e	1.862994e-05
132	0xb703d34c	-7.857405e-06
133	0xb080500a	-9.335974e-10
134	0xb18bd84c	-4.0700225e-09
135	0x3ab73812	0.0013978502
136	0xb3b3077d	-8.336699e-08
137	0x33811da5	6.012423e-08
138	0x343c75c3	1.7551706e-07
139	0xb7506a3f	-1.24225035e-05
140	0xba132eb3	-0.00056145637
141	0xb5b4e7bc	-1.3478489e-06
142	0x3414789e	1.3827454e-07
143	0xb78cd5c5	-1.6788845e-05
144	0xb70eec5a	-8.518889e-06
145	0xb6d1a3ba	-6.2477457e-06
146	0xb6f5d7fd	-7.3267133e-06
147	0x3801cb2f	3.0945226e-05
148	0x36cbb685	6.0711195e-06
149	0xbaebe886	-0.0017998375
150	0x36329425	2.6610298e-06
151	0x3703d7d3	7.858459e-06
152	0xb83fa3b6	-4.5690416e-05
153	0xb469f806	-2.1790046e-07
154	0x35bd0c51	1.4085182e-06
155	0x363b2f20	2.7892602e-06
156	0xb9d18f34	-0.0003997028
157	0xb9135991	-0.00014052379
158	0x3593fdc1	1.1026206e-06
159	0xba7d1a72	-0.0009655125
160	0x39510d6d	0.00019936795
161	0xb5df1f46	-1.6623896e-06
162	0x34f1e1f2	4.5054145e-07
163	0xb868fec8	-5.5550394e-05
164	0xb8dce9bd	-0.000105339546
165	0x3869d8be	5.5753386e-05
166	0xb3878fd6	-6.312591e-08
167	0x38ab307d	8.162947e-05
168	0x36968e9f	4.4869516e-06
169	0xb4aff331	-3.2773235e-07
170	0x3a35822c	0.0006923999
171	0x33227d03	3.783226e-08
172	0xb7ff1402	-3.0407686e-05
173	0x383ddbf2	4.526595e-05
174	0x33cfd263	9.677458e-08
175	0x340d1edf	1.3142879e-07
176	0xb943429c	-0.00018621463
177	0x384d889f	4.9003047e-05
178	0x396d6e81	0.00022643247
179	0x359646a6	1.1196432e-06
180	0xb8050ead	-3.172334e-05
181	0xb4c8b76a	-3.7386354e-07
182	0xba650027	-0.00087356794
183	0xb6314043	-2.641246e-06
184	0x37e2ee62	2.7052305e-05
185	0xb4f252da	-4.5136295e-07
186	0xb8012c0f	-3.079703e-05
187	0x365ec83a	3.3197125e-06
188	0x349a59b8	2.8750014e-07
189	0xb9f1b039	-0.00046098398
190	0xb466b171	-2.1484972e-07
191	0xb6649c7d	-3.4065736e-06
192	0x36c0829f	5.737252e-06
193	0x39be998a	0.0003635402
194	0xb88bcaff	-6.6658475e-05
195	0x30009330	4.6775295e-10
196	0x3593c2ed	1.1009084e-06
197	0x3489cc31	2.5666807e-07
198	0xb4dfd4bd	-4.1691774e-07
199	0x3487e277	2.5310484e-07
200	0x33c9e347	9.4011334e-08
201	0x3a32a645	0.0006814937
202	0xb694afe5	-4.4312205e-06
203	0x34ce498a	3.8423997e-07
204	0xb9809a4c	-0.00024529023
205	0x381bac77	3.71155e-05
206	0x38696074	5.5641358e-05
207	0x3a20f3a4	0.0006139821
208	0x373c0755	1.120738e-05
209	0xb6eb90db	-7.020409e-06
210	0x3726322d	9.9060535e-06
211	0xba96b941	-0.0011499302
212	0x35814ecf	9.634185e-07
213	0x3930388f	0.00016805738
214	0x374cfe68	1.2218581e-05
215	0x359ab18e	1.1525569e-06
216	0x37c11087	2.3015089e-05
217	0xb9b276fb	-0.00034039453
218	0x357c2801	9.393553e-07
219	0xb39aed42	-7.214341e-08
220	0xb6eef268	-7.1211725e-06
221	0x38a20c27	7.7270255e-05
222	0x34b95ee4	3.4527977e-07
223	0x39117336	0.00013871197
224	0xb48b8001	-2.5983903e-07
225	0xb930b185	-0.00016850799
226	0xb985686c	-0.00025445537
227	0xb875ccbc	-5.8603226e-05
228	0x342a301b	1.5849984e-07
229	0xb54bf098	-7.5973503e-07
230	0xb46afd14	-2.1885018e-07
231	0x37ade797	2.073105e-05
232	0x39a422b0	0.00031306362
233	0x33faf86c	1.168672e-07
234	0xb695ff8a	-4.4702947e-06
235	0xb216d926	-8.780523e-09
236	0xb9b73a9b	-0.00034948144
237	0x370d926d	8.438347e-06
238	0x36bcc457	5.6256936e-06
239	0x3627ac51	2.498524e-06
240	0xb7661075	-1.37129e-05
241	0x38e135dd	0.00010738869
242	0x3570648e	8.9553293e-07
243	0x382a3e19	4.058899e-05
244	0x3980d029	0.00024569154
245	0xba3b6bba	-0.00071495364
246	0xb54ed823	-7.70555e-07
247	0x3a99f987	0.0011747339
248	0xb8c10dcc	-9.205527e-05
249	0xb92e1716	-0.00016602533
250	0x34af65cd	3.267036e-07
251	0xb9b5da32	-0.00034685578
252	0xb68ef6f9	-4.260681e-06
253	0x2ec74e71	9.063406e-11
254	0xb594f39b	-1.1097758e-06
255	0xb5caa95e	-1.5099465e-06

weight f4 [16, 1, 4, 4]
0	0x2cf87862	7.061949e-12
1	0x2c85a7bc	3.7987096e-12
2	0xac47212a	-2.829801e-12
3	0x2cff1809	7.2502043e-12
4	0x2c2f3a4e	2.4901361e-12
5	0x2c1c971c	2.2252816e-12
6	0x2cd87998	6.152589e-12
7	0xa89a3c65	-1.7123627e-14
8	0xace51f28	-6.5120305e-12
9	0x2ce8af1c	6.6132776e-12
10	0xac8a8fb3	-3.9381497e-12
11	0x2caed412	4.968922e-12
12	0x2ccdd503	5.8500995e-12
13	0xaa9b11a9	-2.7545785e-13
14	0x2cd382fb	6.0115224e-12
15	0x2bd2ea27	1.4986388e-12
16	0xac1f7c42	-2.2664236e-12
17	0xac5cb642	-3.1365054e-12
18	0x2cd570c0	6.066342e-12
19	0x2cf0f609	6.8485257e-12
20	0xacc66eeb	-5.639813e-12
21	0xac915112	-4.1301485e-12
22	0x2ccf6f58	5.8956555e-12
23	0xac4c1eb1	-2.900718e-12
24	0xac751bb8	-3.483198e-12
25	0x2ca5a64b	4.7080443e-12
26	0xab0ab5e2	-4.927986e-13
27	0xad02f65b	-7.444346e-12
28	0xacc03777	-5.463126e-12
29	0x2ccde41c	5.8517757e-12
30	0xac510b8a	-2.9707092e-12
31	0xacd838bb	-6.1453876e-12
32	0xac3c1720	-2.6729244e-12
33	0x2ba5b5c3	1.1774404e-12
34	0x2ceaf908	6.678328e-12
35	0xabb59f1a	-1.2904983e-12
36	0x2c03c74e	1.8726856e-12
37	0xac91992c	-4.1381534e-12
38	0xaccd7229	-5.8391248e-12
39	0x2c02cfc0	1.8589436e-12
40	0xac70d1e5	-3.4222566e-12
41	0xac98f460	-4.347231e-12
42	0x2c9ef725	4.5180686e-12
43	0xaccd4443	-5.834029e-12
44	0xac775cff	-3.5152434e-12
45	0x2ce281bc	6.4377097e-12
46	0xac2f378e	-2.4899835e-12
47	0x2c1f882b	2.2670847e-12
48	0xadc69b11	-2.2578857e-11
49	0xad658f87	-1.3049012e-11
50	0xacc43357	-5.576355e-12
51	0x2cdb67e1	6.2358872e-12
52	0xad4230b9	-1.1038442e-11
53	0xadacc32e	-1.9640813e-11
54	0xab2cbf77	-6.1372386e-13
55	0xacef6654	-6.8041493e-12
56	0xa8d4a415	-2.3607887e-14
57	0xad013f93	-7.346917e-12
58	0x2ddfee30	2.5457941e-11
59	0xad437b10	-1.1111792e-11
60	0x2d16bba1	8.568175e-12
61	0xad509c57	-1.18581455e-11
62	0xac01156f	-1.83439e-12
63	0x2de4d476	2.601495e-11
64	0x2e32c169	4.0644297e-11
65	0xae1b3d7f	-3.529754e-11
66	0xae45d310	-4.4980075e-11
67	0x2d7bae06	1.4306339e-11
68	0xaf0300af	-1.1914623e-10
69	0x2e45b11c	4.494992e-11
70	0xad99c7ae	-1.7482762e-11
71	0xad4a4d23	-1.1499498e-11
72	0x2d73d122	1.3859388e-11
73	0x2cec53d0	6.7168285e-12
74	0xae87a688	-6.168671e-11
75	0xad6f78e7	-1.3612423e-11
76	0x2e7aa8eb	5.6993448e-11
77	0x2f3da9a5	1.724972e-10
78	0xae10d520	-3.2931102e-11
79	0xace09243	-6.3827012e-12
80	0xacffddbc	-7.2721534e-12
81	0x2cc82c0c	5.689232e-12
82	0x2cb80123	5.2297207e-12
83	0xacf41626	-6.937356e-12
84	0x2c30fc8b	2.5151294e-12
85	0xad0405b8	-7.504601e-12
86	0x2d42e4ce	1.1078428e-11
87	0x2d29e28c	9.656841e-12
88	0x2c73330c	3.4560714e-12
89	0x2c0a24a4	1.963132e-12
90	0xacf2b6eb	-6.8983617e-12
91	0xad0838d7	-7.743326e-12
92	0xad1382ef	-8.385056e-12
93	0x2d5e800d	1.2647672e-11
94	0x2d0b7557	7.92729e-12
95	0xacb7dc5c	-5.2256376e-12
96	0x2d4248a1	1.104375e-11
97	0x2c6e9969	3.3906994e-12
98	0xab3ef8fe	-6.7847106e-13
99	0xaab082b9	-3.1354587e-13
100	0x2d5cb166	1.25449425e-11
101	0x2d521dde	1.194375e-11
102	0xa91a3a78	-3.4245583e-14
103	0x2d3fdc53	1.0906015e-11
104	0xad391040	-1.0519641e-11
105	0x2cd8ac00	6.158185e-12
106	0xad3f07b8	-1.0858807e-11
107	0xad55d6f7	-1.215538e-11
108	0xac0b50f6	-1.979803e-12
109	0xac4f8466	-2.9489965e-12
110	0x2c26ff89	2.373187e-12
111	0x2c7798fc	3.5185735e-12
112	0xad37cbd9	-1.0447609e-11
113	0x2e04e106	3.0213186e-11
114	0x2c15643a	2.122981e-12
115	0xacf38cb0	-6.922095e-12
116	0xadfefee7	-2.8989656e-11
117	0x2d3caf60	1.0725504e-11
118	0x2d6c7afc	1.3442355e-11
119	0x2d02cae5	7.434696e-12
120	0x2e044c46	3.008107e-11
121	0xad341ccc	-1.023821e-11
122	0x2e7e38f5	5.78035e-11
123	0xad43990f	-1.11184525e-11
124	0x2e233484	3.7108552e-11
125	0xad29b707	-9.647178e-12
126	0x2c8fb026	4.083861e-12
127	0x2dd03dcb	2.3674304e-11
128	0x2c8f2921	4.0688707e-12
129	0xac98a421	-4.338322e-12
130	0x2c5319c3	2.9999204e-12
131	0x2a588ad3	1.9232818e-13
132	0xac9ec2af	-4.5122443e-12
133	0xac98e9f8	-4.3460756e-12
134	0x2c861dfe	3.811839e-12
135	0xac807b4e	-3.6516684e-12
136	0xaca18f93	-4.591835e-12
137	0xac779e7d	-3.518879e-12
138	0x2b09d266	4.8964164e-13
139	0x2b78520d	8.822117e-13
140	0xac50d2ac	-2.9675524e-12
141	0xac9e0e5e	-4.492225e-12
142	0xac22e296	-2.3147365e-12
143	0xaa619695	-2.0036258e-13
144	0xad490e73	-1.14287356e-11
145	0x2d2cc7d3	9.821438e-12
146	0x2d41c279	1.10139614e-11
147	0x2bc8ba38	1.4262541e-12
148	0x2d916ed7	1.6533814e-11
149	0x2d55d6fe	1.2155386e-11
150	0xac9ca18f	-4.4517233e-12
151	0x2b484856	7.115466e-13
152	0xad4c45d9	-1.1611567e-11
153	0x2c6dee73	3.3812092e-12
154	0xad4c1d15	-1.1602515e-11
155	0x2d15bbeb	8.511396e-12
156	0x2ba54d4e	1.1745412e-12
157	0x2d2f6206	9.969364e-12
158	0x2bb6a130	1.2976616e-12
159	0x2d149a6b	8.447114e-12
160	0x2d302990	1.00136704e-11
161	0xada8a4ce	-1.9172577e-11
162	0x2cd83b98	6.1457055e-12
163	0xabbe3fcc	-1.3518019e-12
164	0xabb40a58	-1.279264e-12
165	0xabc67b71	-1.4103008e-12
166	0xac3b6703	-2.6631481e-12
167	0x2c689a46	3.3054822e-12
168	0xaa0d4d7f	-1.2550203e-13
169	0x2ccaf726	5.7686243e-12
170	0xac92fee6	-4.177869e-12
171	0xab861559	-9.527198e-13
172	0x2d33a900	1.02124975e-11
173	0xada27951	-1.8471143e-11
174	0x2ca6c2cb	4.73963e-12
175	0xacfc1c83	-7.165436e-12
176	0x2ccc93bc	5.8144305e-12
177	0xae152a59	-3.391629e-11
178	0x2d3b56d9	1.0649003e-11
179	0x2dd14609	2.3791651e-11
180	0xada91d3b	-1.9226057e-11
181	0x2d9bd0e6	1.771423e-11
182	0xad01fd2d	-7.389017e-12
183	0xac7dae21	-3.6050123e-12
184	0xadc0e42c	-2.1929202e-11
185	0x2dafe373	1.9996204e-11
186	0xada6061b	-1.8874726e-11
187	0xad96ca94	-1.7142988e-11
188	0x2d22220e	9.2161955e-12
189	0x2cecfbe5	6.7354893e-12
190	0x2d220da0	9.211659e-12
191	0x2c84f524	3.7788817e-12
192	0xac9f5561	-4.5285308e-12
193	0x2cdd0b46	6.2824494e-12
194	0xaba09144	-1.1409003e-12
195	0xab0f1980	-5.0839194e-13
196	0x2c3d9df7	2.6946204e-12
197	0xac86dc42	-3.8329626e-12
198	0x2cb9b9f9	5.2786634e-12
199	0xac446c02	-2.7913232e-12
200	0x2cef864a	6.8076976e-12
201	0xacb182b7	-5.045155e-12
202	0xacdaa90d	-6.214701e-12
203	0xaccd4e60	-5.835152e-12
204	0x2ccec9cd	5.8772765e-12
205	0xac888d39	-3.8810313e-12
206	0x2ccaf02a	5.767849e-12
207	0x2c95a768	4.2534205e-12
208	0x2e92bba5	6.672644e-11
209	0x2f00096f	1.1644884e-10
210	0x2e964211	6.832946e-11
211	0x2ee80851	1.0551616e-10
212	0x2e425af1	4.4191265e-11
213	0x2e4d66d8	4.6702947e-11
214	0x2d984a48	1.7313387e-11
215	0xae8675e6	-6.1145575e-11
216	0x2ecedac2	9.4066546e-11
217	0xae59b6f1	-4.9502572e-11
218	0x2eb3fd41	8.1849645e-11
219	0xaef8536d	-1.1292554e-10
220	0xad4710e0	-1.1315587e-11
221	0xae3e8893	-4.33223e-11
222	0xaeb16f4f	-8.0688005e-11
223	0x2e973ca7	6.877459e-11
224	0xac59ba27	-3.094089e-12
225	0x2ce79ad3	6.582604e-12
226	0x2cb89a0e	5.246698e-12
227	0x2c683227	3.2997023e-12
228	0x2b8046e4	9.114623e-13
229	0x2ca10227	4.576134e-12
230	0xace2ef06	-6.4498433e-12
231	0x2c3a79e6	2.6499857e-12
232	0xacc4bcd9	-5.5916213e-12
233	0xac12ecf9	-2.0879394e-12
234	0xacad3b5a	-4.923545e-12
235	0x29866cca	5.969667e-14
236	0xac3cc9c1	-2.6828403e-12
237	0x2c707030	3.4168328e-12
238	0xac2b7acd	-2.436873e-12
239	0xac932729	-4.182339e-12
240	0xac3e6768	-2.7058026e-12
241	0xace2c1cf	-6.4448234e-12
242	0x2cb80940	5.2306215e-12
243	0xac1cc43e	-2.227787e-12
244	0x2a962dd4	2.6677152e-13
245	0xad11a399	-8.278622e-12
246	0x2c9723e7	4.295664e-12
247	0x2aaf4ad3	3.1138164e-13
248	0x2b122867	5.192569e-13
249	0x2c6ade93	3.3376954e-12
250	0x2cdebeda	6.3308083e-12
251	0x2b16f67d	5.3632776e-13
252	0x2cb09f44	5.019903e-12
253	0xacd54b0f	-6.0621573e-12
254	0x2c4ed8e3	2.9394757e-12
255	0xab821cfa	-9.245098e-13

bias f4 [16]
0	0xac9b4c0d	-4.4138083e-12
1	0xad3a8b74	-1.0603841e-11
2	0xac50a7fe	-2.9651832e-12
3	0xacc7e4d7	-5.6813265e-12
4	0x2dee4760	2.7089164e-11
5	0xad5b1ab1	-1.2454635e-11
6	0xac8169bc	-3.6781394e-12
7	0x2d984b95	1.7313964e-11
8	0xaccbf301	-5.796586e-12
9	0xac9b1dd8	-4.4086783e-12
10	0x2d16f697	8.581267e-12
11	0xad91451d	-1.6515284e-11
12	0x2cfecf16	7.2421054e-12
13	0x2ee8b3e1	1.05820915e-10
14	0xacaa2d8a	-4.8367465e-12
15	0xac93f092	-4.2047e-12

in_proj_weight f4 [48, 16]
0	0x3e5c83ee	0.21534702
1	0x3e19cfec	0.15020722
2	0x3de9fb9d	0.114249445
3	0xbe2b1f4b	-0.16711156
4	0x3cd668ef	0.026173083
5	0xbe3be26b	-0.1834809
6	0x3dc195b7	0.09452384
7	0x3e634e5e	0.22197863
8	0x3d824f16	0.06362741
9	0xbe6132a5	-0.21991976
10	0x3dd91b7b	0.106009446
11	0x3d9cd952	0.07658638
12	0xbe45c18d	-0.19312115
13	0xbe1e8b92	-0.1548293
14	0xbcfebc6c	-0.031095706
15	0x3d937655	0.072003044
16	0x3cfe3534	0.031031229
17	0x3ce6420e	0.02810767
18	0xbdca5358	-0.09879178
19	0x3e858db0	0.2608466
20	0x3d11dde6	0.03561201
21	0xbd1f7bc1	-0.03893638
22	0xbe0e69ab	-0.13907497
23	0xbe4b7faf	-0.19872926
24	0x3e8ac57d	0.27103797
25	0x3e9064c5	0.2820188
26	0xbd9696be	-0.073529705
27	0xbde8e563	-0.11371877
28	0xbe1b2cf6	-0.1515387
29	0x3d86e438	0.06586498
30	0xbcdf4fc3	-0.027259713
31	0xbcc663f4	-0.024217583
32	0x3db26fcf	0.08712732
33	0x3e63d1dd	0.22248025
34	0xbe9ab5ef	-0.3021693
35	0x3e84444a	0.2583335
36	0x3e970999	0.2949951
37	0xbdd89623	-0.10575511
38	0xbe1a8795	-0.15090783
39	0xbd70276c	-0.058631346
40	0xbe0b516b	-0.13605277
41	0x3e101934	0.14072114
42	0xbe101e07	-0.14073955
43	0xbd8f9dad	-0.07012496
44	0x3d0904e3	0.033451926
45	0xbdf7194a	-0.120653704
46	0x3e4721a0	0.1944642
47	0x3e494ca7	0.19658147
48	0x3cecac70	0.028890818
49	0xbdc081dc	-0.09399769
50	0xbccaaf64	-0.024741836
51	0xbe4360d5	-0.19079907
52	0x3e8df9ef	0.27729747
53	0x3e1eb837	0.1549996
54	0x3e6e44eb	0.23268478
55	0x3de817f9	0.113326974
56	0xbcb724ba	-0.02235638
57	0x3e9350fa	0.28772718
58	0x3dd7d393	0.105384015
59	0xbd07f6c1	-0.033194307
60	0x3e5062e0	0.20350218
61	0x3e3de678	0.18544948
62	0x3e0fd15b	0.14044707
63	0xbe52291b	-0.20523493
64	0x3e6f9e0c	0.23400134
65	0x3e930d6e	0.28721184
66	0xbe036580	-0.12831688
67	0x3e0e4f94	0.13897544
68	0xbe17f533	-0.1483963
69	0xbdbea6a1	-0.09309126
70	0x3e8aa342	0.2707768
71	0x3e346ee9	0.17620434
72	0xbe694b8d	-0.22782727
73	0x3e1faccd	0.15593262
74	0x3e954711	0.29155782
75	0xbe98a20f	-0.2981114
76	0xbe77124d	-0.24128075
77	0xbc10799d	-0.008818057
78	0x3e17488a	0.14773765
79	0xbe0dc784	-0.1384564
80	0x3d760471	0.06006283
81	0xbdf52956	-0.11970775
82	0x3cb09e85	0.021559963
83	0x3e98c00a	0.29834014
84	0xbe9abe48	-0.30223298
85	0xbe98d18a	-0.29847366
86	0x3d201122	0.03907884
87	0x3e809510	0.25113726
88	0xbe6a391b	-0.22873347
89	0x3e92f818	0.28704906
90	0x3e80dea1	0.25169852
91	0x3e85f97b	0.261669
92	0x3e760f52	0.24029282
93	0x3d1844a5	0.03717484
94	0x3db04f1f	0.08608841
95	0x3e3f8c19	0.18705787
96	0xbe827c63	-0.25485525
97	0xbc0721c3	-0.0082477955
98	0xbe4186f0	-0.18899131
99	0x3e469b7f	0.19395255
100	0xbdfd881d	-0.12379477
101	0xbdbfebef	-0.09371173
102	0xbe060526	-0.13087901
103	0x3dd2c4b1	0.10291422
104	0xbdc2289c	-0.09480402
105	0x3e5bcba9	0.21464409
106	0xbe78d297	-0.24299084
107	0xbe58e242	-0.2118006
108	0x3d710774	0.058845
109	0x3e8fb25f	0.28065774
110	0xbe7cfcf7	-0.24705873
111	0xbe98fabe	-0.298788
112	0xbe6aec28	-0.22941649
113	0x3dc9bb21	0.09850145
114	0xbe8be1e9	-0.27320793
115	0xbe62aa7e	-0.2213535
116	0xbe4d9a5a	-0.20078412
117	0xbe6a851b	-0.22902338
118	0x3e21e32d	0.15809317
119	0x3c8cfdc5	0.01721085
120	0xbe018fd4	-0.12652522
121	0xbd6bab9b	-0.057536703
122	0xbdc74395	-0.09729687
123	0x3e87c584	0.2651788
124	0xbe6446ec	-0.2229268
125	0x3e8b7e80	0.2724495
126	0xbd8f3c7d	-0.06993959
127	0xbe903581	-0.2816582
128	0xbe1bb40a	-0.15205398
129	0x3deb944c	0.11502895
130	0xbe0cd7f9	-0.13754262
131	0xbd93488f	-0.07191574
132	0x3e8ab78b	0.27093157
133	0x3ce1d37b	0.027566662
134	0xbe844620	-0.2583475
135	0xbe0802a1	-0.13282253
136	0xbe900bfa	-0.28134137
137	0xbe7ebf8b	-0.24877755
138	0xbe5e70e3	-0.2172275
139	0x3daa5840	0.083176136
140	0xbd57319f	-0.052537557
141	0xbe82357d	-0.25431433
142	0x3e54c48a	0.20778099
143	0x3e90f46a	0.28311473
144	0x3e82c43c	0.2554034
145	0x3cd3d99e	0.025860604
146	0xbe5f24a8	-0.21791327
147	0x3e52445a	0.20533887
148	0xbe994393	-0.29934368
149	0x3e75eaa3	0.24015288
150	0x3e8412be	0.2579555
151	0x3e06ab19	0.13151206
152	0xbc0539db	-0.00813147
153	0xbd2c3e2a	-0.04205147
154	0xbda84104	-0.08215526
155	0x3e7ba674	0.24575216
156	0x3e42af77	0.19012247
157	0xbcbafe92	-0.022826467
158	0xbded4791	-0.11585916
159	0x3dec40ed	0.11535821
160	0xbe8c93a9	-0.27456406
161	0xbe2790ce	-0.16363832
162	0x3e4f53e4	0.20246845
163	0xbe22c049	-0.15893663
164	0xbe868961	-0.26276687
165	0xbe7ffbd6	-0.24998412
166	0x3e0e39ca	0.13889232
167	0xbe309f96	-0.17248377
168	0xbe87e48a	-0.2654155
169	0xbe814def	-0.2525477
170	0x3dae4d2b	0.08510812
171	0x3cf2b1ef	0.029625861
172	0xbe1b7ff6	-0.15185532
173	0xbd8c3698	-0.068463504
174	0x3df4b0ff	0.11947822
175	0xbe8cc4f3	-0.2749401
176	0xbbeee506	-0.0072904853
177	0xbcc15273	-0.023598885
178	0x3cf7e9ab	0.030262789
179	0xbe235d8d	-0.15953656
180	0xbe6aee0e	-0.22942373
181	0x3e8c8753	0.27446994
182	0x3dbd67b1	0.09248293
183	0xbe84b504	-0.25919354
184	0xbc9a04e7	-0.018801166
185	0xbe943b9a	-0.28951722
186	0x3e765b1a	0.2405819
187	0x3d19f5bf	0.037587877
188	0x3c91f930	0.017819017
189	0xbdb5fe8a	-0.0888644
190	0x3e954bf4	0.2915951
191	0xbc898f48	-0.016791955
192	0xbe4f3c11	-0.20237757
193	0x3e09ab1e	0.13444182
194	0x3e8e32d9	0.2777317
195	0x3d51760d	0.051137973
196	0x3e23530d	0.1594965
197	0x3e7e649d	0.24843068
198	0x3e895fe8	0.26830983
199	0xbe4662fe	-0.193737
200	0xbcc53230	-0.024071783
201	0xbdfa07f2	-0.12208547
202	0xbe997a7e	-0.29976267
203	0x3e696068	0.22790682
204	0x3e9181d5	0.28419366
205	0xbdd05fba	-0.101745084
206	0xbd8baad0	-0.06819689
207	0x3dae36a5	0.08506516
208	0xbdcbcf63	-0.09951665
209	0x3e3492f2	0.1763418
210	0xbbf053d6	-0.007334213
211	0x3d4a48d1	0.04938585
212	0xbd62d27a	-0.055376507
213	0xbe360086	-0.17773637
214	0xbe1b780a	-0.1518251
215	0xbd99b3d4	-0.075050026
216	0xbd8872ec	-0.066625446
217	0xbe6cf8b9	-0.23141755
218	0x3e8a5e36	0.27025002
219	0xbc5ffb6b	-0.013670783
220	0x3e173441	0.14766027
221	0x3e96c24f	0.2944512
222	0x3e04a02d	0.12951727
223	0x3d3b6277	0.0457482
224	0xbe1c31e2	-0.15253404
225	0x3e870d88	0.2637751
226	0xbe064a7d	-0.13114353
227	0xbe1c906c	-0.15289468
228	0x3e845230	0.25843954
229	0xbe1bd3ac	-0.15217465
230	0x3dee5bcc	0.116386026
231	0x3da591f9	0.08084483
232	0x3e950179	0.29102686
233	0x3e5736a0	0.21016932
234	0x3e3c552d	0.18391867
235	0x3b126708	0.0022339243
236	0xbbca2aa9	-0.0061696363
237	0xbdb2e3e9	-0.08734877
238	0xbe136b3d	-0.14396377
239	0xbddea2e2	-0.10870911
240	0x3e1fd0e2	0.15607026
241	0x3cf17232	0.029473398
242	0x3e9150f7	0.28382084
243	0xbe7add75	-0.24498542
244	0xbe794bee	-0.24345371
245	0x3c73740e	0.014859213
246	0x3d7454e9	0.05965129
247	0x3d3b970d	0.04579835
248	0xbe78b711	-0.24288584
249	0x3ddf7cb7	0.10912459
250	0xbe94f7da	-0.29095346
251	0x3e6d4cf2	0.23173884
252	0x3e143cb6	0.14476284
253	0x3e5bdfb5	0.21472056
254	0x3e032005	0.12805183
255	0xbe1fceb1	-0.1560619

in_proj_bias f4 [48]
0	0x00000000	0.0
1	0x00000000	0.0
2	0x00000000	0.0
3	0x00000000	0.0
4	0x00000000	0.0
5	0x00000000	0.0
6	0x00000000	0.0
7	0x00000000	0.0
8	0x00000000	0.0
9	0x00000000	0.0
10	0x00000000	0.0
11	0x00000000	0.0
12	0x00000000	0.0
13	0x00000000	0.0
14	0x00000000	0.0
15	0x00000000	0.0
16	0x00000000	0.0
17	0x00000000	0.0
18	0x00000000	0.0
19	0x00000000	0.0
20	0x00000000	0.0
21	0x00000000	0.0
22	0x00000000	0.0
23	0x00000000	0.0
24	0x00000000	0.0
25	0x00000000	0.0
26	0x00000000	0.0
27	0x00000000	0.0
28	0x00000000	0.0
29	0x00000000	0.0
30	0x00000000	0.0
31	0x00000000	0.0
32	0x00000000	0.0
33	0x00000000	0.0
34	0x00000000	0.0
35	0x00000000	0.0
36	0x00000000	0.0
37	0x00000000	0.0
38	0x00000000	0.0
39	0x00000000	0.0
40	0x00000000	0.0
41	0x00000000	0.0
42	0x00000000	0.0
43	0x00000000	0.0
44	0x00000000	0.0
45	0x00000000	0.0
46	0x00000000	0.0
47	0x00000000	0.0

weight f4 [16, 16]
0	0x3e24a79f	0.16079567
1	0xbeb8b88b	-0.36078295
2	0x3ec3d778	0.38250327
3	0x3deee316	0.11664407
4	0xbecd89ae	-0.40144104
5	0x3e8a4dc2	0.2701245
6	0xbcbc2298	-0.022965714
7	0x3e5c6233	0.21521835
8	0x3e494d57	0.19658409
9	0xbe7f950a	-0.24959198
10	0x3ec28c64	0.37997735
11	0x3e7a3e02	0.24437717
12	0xbc3aebcd	-0.011408758
13	0x3dae83d7	0.0852124
14	0x3e5aabd7	0.21354614
15	0x3cee09c5	0.029057393
16	0xbdb78c52	-0.08962311
17	0xbed924dd	-0.42410937
18	0x3e9874d4	0.29776633
19	0x3eda6340	0.42653847
20	0x3e9b8256	0.30372876
21	0x3dfcd5fb	0.12345501
22	0xbed7fc02	-0.42184454
23	0x3dfcd7b6	0.12345831
24	0x3e2a0712	0.1660426
25	0x3ec1c451	0.3784509
26	0xbe41c8e1	-0.18924285
27	0xbe5861df	-0.21131085
28	0xbe9a725c	-0.30165374
29	0x3dcf96e4	0.10136202
30	0x3e4f8c72	0.2026842
31	0xbebe9e98	-0.37230372
32	0xbed4754e	-0.41495746
33	0xbed47589	-0.41495922
34	0xbed63c43	-0.4184285
35	0x3d2c7d9b	0.042111974
36	0xbe9923ed	-0.29910222
37	0xbed8b61d	-0.4232644
38	0x3cc5aa30	0.024129003
39	0x3eb1869b	0.34673008
40	0xbe202cbf	-0.1564207
41	0xbe042751	-0.12905623
42	0x3d8edc33	0.069755934
43	0xbdcb30db	-0.09921428
44	0x3e9f0123	0.31055555
45	0xbc5e07d8	-0.013551675
46	0x3c8b48a6	0.017002415
47	0xbe04475a	-0.12917843
48	0x3e9823a5	0.29714695
49	0xbde51752	-0.111860886
50	0x3e2cb9b0	0.16867709
51	0xbe2953d5	-0.16535886
52	0xbe2a0a84	-0.16605574
53	0xbc964510	-0.018343478
54	0xbdfb9aaa	-0.12285359
55	0x3e786e7f	0.24260901
56	0xbdbe90bd	-0.093049504
57	0xbea035da	-0.31291085
58	0x3e4d4c52	0.20048645
59	0x3ebaea4b	0.36506876
60	0x3e000a70	0.12503982
61	0x3ed5b6e9	0.41741112
62	0x3ec0e8e5	0.37677684
63	0xbe8f1f4e	-0.2795357
64	0xbe479a0c	-0.19492358
65	0xbdb5711f	-0.08859467
66	0xbecb1507	-0.3966448
67	0xbe4ec18f	-0.20191024
68	0x3e76c3d4	0.2409814
69	0x3ec6ceb2	0.3882957
70	0xbe237d5d	-0.15965791
71	0x3ead23fe	0.33816522
72	0xbc45113a	-0.012028033
73	0x3d085f29	0.033293877
74	0xbe1744a6	-0.14772281
75	0xbecee280	-0.4040718
76	0x3eda2cd9	0.4261234
77	0xbe87511b	-0.26429066
78	0x3e8a65c3	0.27030763
79	0xbe11285d	-0.14175554
80	0xbda754a9	-0.081704445
81	0xbe376921	-0.17911197
82	0xbeaf09a4	-0.34187043
83	0xbd295803	-0.0413437
84	0xbeb1cbd1	-0.34725812
85	0xbdff2dda	-0.12459917
86	0xbcdda8da	-0.027058054
87	0x3e835b46	0.25655574
88	0x3e03f676	0.12886986
89	0xbdbea2b2	-0.093083754
90	0xbea93f5a	-0.33056146
91	0xbdb174c8	-0.086648524
92	0x3ea8eb96	0.32992238
93	0xbeb4b3ee	-0.35293525
94	0xbd9a8019	-0.07543964
95	0xbeb78f3f	-0.35851476
96	0x3d1616c9	0.036642823
97	0x3e11842a	0.14210573
98	0x3e90afa8	0.28259015
99	0x3e8c4427	0.27395746
100	0xbeaa789a	-0.33295137
101	0x3e7083e7	0.23487817
102	0x3dea3281	0.11435414
103	0xbe6703f2	-0.22560099
104	0x3ea5eed8	0.32408786
105	0xbe3d8d63	-0.18510966
106	0x3ebae524	0.36502945
107	0x3c96d2c5	0.01841105
108	0xbe4feeac	-0.2030589
109	0x3e9a761e	0.3016824
110	0xbe6fa767	-0.23403703
111	0x3e69f743	0.22848229
112	0x3edadab2	0.42744976
113	0x3e1fffbd	0.156249
114	0x3db88f19	0.09011669
115	0x3ebbc2ef	0.3667216
116	0xbe27a50c	-0.16371554
117	0x3e113ca9	0.14183296
118	0x3e02966c	0.12752694
119	0xbec36bd4	-0.38168204
120	0x3e3cbcec	0.18431443
121	0x3eaceb2c	0.33773172
122	0x3e28d4b7	0.16487394
123	0x3ec28300	0.3799057
124	0xbe72b32e	-0.23701164
125	0x3e9f650a	0.31131774
126	0xbc292ca1	-0.010325582
127	0xbe36790a	-0.1781961
128	0x3eba4f7f	0.36388776
129	0xbe7a13d2	-0.24421623
130	0xbd698329	-0.05700985
131	0x3ec52866	0.38507384
132	0xbde422e9	-0.11139471
133	0x3e2b1ee5	0.16711004
134	0x3ec09906	0.37616748
135	0xbe3158a6	-0.17318973
136	0xbe7c74d6	-0.24653944
137	0xbedcf35c	-0.43154418
138	0x3dc2dc9b	0.095147334
139	0x3e3804d1	0.17970587
140	0x3e125dc4	0.14293581
141	0xbeab5e3d	-0.33470336
142	0xbe02bce2	-0.12767366
143	0x3e84914a	0.25892097
144	0xbe165fcc	-0.14684981
145	0x3ec1599a	0.37763673
146	0x3e96def4	0.29466975
147	0x3ed618d2	0.4181581
148	0x3e69a03e	0.22815034
149	0xbd83b243	-0.06430485
150	0x3dc49ece	0.09600602
151	0x3ed64e7e	0.4185676
152	0xbe15319b	-0.14569704
153	0x3d718dad	0.058973003
154	0x3e56a132	0.20959929
155	0x3eb1eb8e	0.34750026
156	0xbe8cfe0c	-0.27537572
157	0xbe36d98f	-0.1785643
158	0xbe8a13ee	-0.2696833
159	0xbce895ae	-0.028391685
160	0x3dab166c	0.08353886
161	0xbec503a1	-0.3847933
162	0x3eb08fe0	0.34484768
163	0xbdee0a30	-0.11623037
164	0x3edcfa27	0.431596
165	0x3e3e2619	0.1856922
166	0xbd35e930	-0.044411838
167	0x3d9e4e25	0.07729749
168	0xbde30ca2	-0.11086394
169	0x3ebd65ed	0.36991826
170	0xbd5caff3	-0.053878736
171	0x3ecf0ab9	0.40437868
172	0xbead72e3	-0.33876714
173	0xbe10aaa8	-0.141276
174	0x3dd78e15	0.10525147
175	0xbe9b8de2	-0.30381685
176	0xbe39290a	-0.18082061
177	0xbe29872a	-0.16555467
178	0x3eab1eed	0.33422032
179	0x3ea0ea28	0.31428647
180	0x3d8012c6	0.06253581
181	0x3e4dae16	0.2008594
182	0xbe95454a	-0.29154426
183	0xbe3dd9b9	-0.18540086
184	0xbed8abd6	-0.423186
185	0xbea1873f	-0.31548497
186	0x3eb58c54	0.35458624
187	0x3d8386c5	0.064221896
188	0xbe42180f	-0.1895449
189	0x3e8ea504	0.27860272
190	0x3d98fdc1	0.07470275
191	0x3e11e486	0.14247331
192	0xbe33bbfa	-0.17552176
193	0x3d85d528	0.06534797
194	0xbea77e69	-0.3271363
195	0xbe9c3111	-0.30506185
196	0x3ebb7f91	0.36620763
197	0x3ebcf422	0.3690501
198	0xbd92d153	-0.07168832
199	0x3e257da7	0.16161214
200	0xbe9e147c	-0.30875003
201	0x3e466ddf	0.1937785
202	0x3d251757	0.04030546
203	0x3e54aed7	0.20769821
204	0x3e9fe1b1	0.31226876
205	0x3e9edac9	0.31026295
206	0xbe3b88cf	-0.18313907
207	0xbe7f8bea	-0.24955717
208	0x3ea98f42	0.3311711
209	0x3e8abe07	0.27098104
210	0x3ec9648b	0.3933452
211	0x3c9ba0d9	0.018997597
212	0x3e5ae5da	0.21376744
213	0x3e8d15f4	0.2755581
214	0x3d64664d	0.055761624
215	0x3ebd6d6e	0.3699755
216	0x3e1c0d28	0.15239394
217	0xbe56c213	-0.20972471
218	0x3e065f50	0.13122296
219	0xbdea82db	-0.1145074
220	0x3e5608e6	0.20901832
221	0x3e9d88f3	0.30768546
222	0x3d8cbd56	0.068720505
223	0xbeaa9da8	-0.33323407
224	0xbd4358c5	-0.04769208
225	0x3eb8d490	0.36099672
226	0x3ec12562	0.37723833
227	0xbed5babf	-0.41744038
228	0x3dfab602	0.122417465
229	0x3e7d49b7	0.24735151
230	0x3d8db844	0.069199115
231	0x3e8b82f8	0.2724836
232	0x3da1a05e	0.07891916
233	0x3ed6b9ea	0.41938716
234	0xbe1741c8	-0.14771187
235	0xbecc1814	-0.3986212
236	0xbe8a32d7	-0.26991913
237	0x3edb2bf0	0.4280696
238	0x3c3b6b52	0.011439161
239	0xbdb0ff6c	-0.08642468
240	0xbe6ea1dc	-0.23303932
241	0x3db12e00	0.08651352
242	0xbd588f28	-0.0528709
243	0x3e921335	0.2853028
244	0xbd155626	-0.03645911
245	0x3e94fcec	0.29099214
246	0x3e77ab16	0.24186358
247	0xbece67e1	-0.40313628
248	0x3e8fbc79	0.2807348
249	0xbeb0c511	-0.3452535
250	0x3e78ac2c	0.24284428
251	0xbebcc1e9	-0.36866692
252	0x3e0dc4a6	0.13844547
253	0x3da3c99f	0.079974405
254	0x3e3211b6	0.17389569
255	0xbed80d78	-0.42197776

bias f4 [16]
0	0x00000000	0.0
1	0x00000000	0.0
2	0x00000000	0.0
3	0x00000000	0.0
4	0x00000000	0.0
5	0x00000000	0.0
6	0x00000000	0.0
7	0x00000000	0.0
8	0x00000000	0.0
9	0x00000000	0.0
10	0x00000000	0.0
11	0x00000000	0.0
12	0x00000000	0.0
13	0x00000000	0.0
14	0x00000000	0.0
15	0x00000000	0.0

weight f4 [2048, 16]
0	0x3d55e871	0.052223627
1	0xbd273b41	-0.040827993
2	0xbcaea503	-0.021318918
3	0x3d30027c	0.04297112
4	0xbbc1fbcc	-0.005919909
5	0xbd1c72e3	-0.038195502
6	0xbd38aac9	-0.04508475
7	0x3d0c3c73	0.034237336
8	0xbd557476	-0.05211302
9	0x3ccf9f27	0.025344444
10	0x3c196325	0.009362017
11	0x3cb00404	0.02148629
12	0xbd5a04fa	-0.053227402
13	0xb8c25ae8	-9.2675735e-05
14	0x3d0e736d	0.034778047
15	0x3b1658c1	0.0022941085
16	0xbc9edad9	-0.019391464
17	0x3cdf7de6	0.027281713
18	0x3d53eac0	0.051737547
19	0x3d0f97e9	0.035056982
20	0x3cc3f2a9	0.02391942
21	0xbd460b6f	-0.048350748
22	0x3ba10428	0.0049138255
23	0xbd2e7874	-0.04259534
24	0xbd06604a	-0.032806672
25	0x3d0e5273	0.0347466
26	0x3d436dcc	0.047712132
27	0x3ce6c345	0.028169284
28	0x3cd9ab62	0.02657098
29	0x3d386759	0.045020435
30	0x3d304ddf	0.043043014
31	0x3d1990d3	0.03749163
32	0x3d522e8f	0.051313933
33	0x3ca35f2f	0.019942848
34	0xbcf31d4f	-0.029677061
35	0xbd5b7f95	-0.05358847
36	0xbd5634d8	-0.05229649
37	0x3d37053c	0.044682726
38	0xbd53c42e	-0.051700763
39	0xbb9eed93	-0.0048500984
40	0xbd30ab9d	-0.043132413
41	0xbbb4e7ab	-0.005520781
42	0x3c8b9123	0.01703698
43	0xbcc1c98c	-0.023655675
44	0xbd5c066a	-0.053717054
45	0x3d46bc89	0.048519645
46	0xbd33f178	-0.043931454
47	0xbc39aaa7	-0.011332191
48	0x3d0dedab	0.034650486
49	0x3c20ddb7	0.009818486
50	0x3c3aced7	0.0114018535
51	0x3ca49e81	0.020095112
52	0xbd177376	-0.036975347
53	0x3d29d023	0.04145826
54	0xbbfcc81f	-0.007714286
55	0x3d15b55e	0.03654992
56	0xbcea8835	-0.028629402
57	0xbc4082a3	-0.011749896
58	0xbca72593	-0.020403659
59	0xbd16dc53	-0.03683121
60	0x3d29d9bc	0.041467413
61	0xbc051e91	-0.008124963
62	0x3cc9e385	0.024644623
63	0x3c4633fc	0.012097355
64	0x3ccf6477	0.02531646
65	0x3d22fa6e	0.03978961
66	0xbcf3ad0a	-0.029745597
67	0x3cf76f93	0.03020457
68	0xbbeff13e	-0.0073224595
69	0x3d11f007	0.0356293
70	0x3d01539d	0.03157388
71	0xbd0025a2	-0.03128589
72	0xbce9db32	-0.028546903
73	0x3d1dc807	0.03852084
74	0xbc7842ab	-0.015152614
75	0x3cdca649	0.02693476
76	0xbcc5ef4b	-0.024161955
77	0x3c9300ca	0.017944712
78	0x3c3c20a0	0.011482388
79	0xba8a8ef2	-0.0010571165
80	0xbc1ee191	-0.009697334
81	0x3d4f6aa0	0.050638795
82	0xbc758197	-0.01498451
83	0xbc2fbc55	-0.010726054
84	0x3d32a86c	0.04361765
85	0x3d4300dc	0.04760824
86	0xbd5148c1	-0.051094774
87	0x3b63e11a	0.0034771622
88	0x3d153998	0.03643188
89	0x3aecee36	0.0018076363
90	0xbd5bddd0	-0.053678334
91	0xbcd171aa	-0.025566895
92	0x3d2a3dd8	0.041562885
93	0xbce05fef	-0.027389495
94	0x3c16ee43	0.009212079
95	0xbc9df143	-0.019280082
96	0xbd112af1	-0.035441343
97	0x3b669295	0.0035182585
98	0xbd1ab94b	-0.037774365
99	0xbd21f124	-0.03953661
100	0x3c50c199	0.01274147
101	0x3749dceb	1.203197e-05
102	0xbcbbfb25	-0.022946903
103	0xbb2820ea	-0.0025654384
104	0xbd178eb9	-0.037001345
105	0x3d49f143	0.04930235
106	0xbca67711	-0.020320447
107	0xbd37ab0b	-0.044840854
108	0xbc97593c	-0.018475167
109	0xbd1d1c21	-0.038356904
110	0xbca0ea13	-0.019642865
111	0x3c91d178	0.017800078
112	0x3c9c313a	0.019066442
113	0xbcaeb262	-0.021325294
114	0xbd567601	-0.05235863
115	0xbd1d8b46	-0.0384629
116	0xbc965320	-0.018350184
117	0xbcc87cb7	-0.024473531
118	0xbc115a0f	-0.008871569
119	0xbcd40688	-0.02588202
120	0x3c4f7ee2	0.012664529
121	0xbd53d0a1	-0.051712636
122	0xbcd763eb	-0.026292762
123	0xbcdee8cf	-0.027210621
124	0xbccadd4c	-0.024763726
125	0xbb8ac94f	-0.0042354236
126	0x3d2c522e	0.04207056
127	0x3cd183f8	0.025575623
128	0x3c2b35a8	0.010449804
129	0xbd4a9a43	-0.04946352
130	0xbc9458f3	-0.01810882
131	0xbccefe90	-0.02526787
132	0xbca8777a	-0.020564783
133	0x3d120978	0.03565356
134	0x3d4d62d1	0.050143067
135	0xbb49c195	-0.003078555
136	0x3b12e65b	0.0022415135
137	0xbd26f19e	-0.040757768
138	0xbb9b376f	-0.004736833
139	0xbcb81163	-0.022469228
140	0xbc632724	-0.013864312
141	0x3d235042	0.03987146
142	0xbd5c8990	-0.053842127
143	0x3d050448	0.032474786
144	0x3c8e22d9	0.017350601
145	0x3c273eae	0.010207815
146	0xbd3c5f77	-0.04598948
147	0xbc60e2f3	-0.013725984
148	0x3cb5d05c	0.02219408
149	0x3cc890b2	0.024483059
150	0x3c33b68f	0.010968818
151	0xbd3eea96	-0.046610437
152	0xbce3e657	-0.027819796
153	0xbd2ead7d	-0.04264592
154	0x3d4dbaff	0.05022716
155	0xbba20587	-0.0049445066
156	0xbd102475	-0.035191018
157	0xbd421b31	-0.047389213
158	0x3c22f52f	0.009946152
159	0xbcea4f9f	-0.02860242
160	0x3c0da2cc	0.008644771
161	0x3d53d95e	0.05172097
162	0xbc05b016	-0.008159658
163	0x3d1f33e0	0.03886783
164	0x3cf4383e	0.029811975
165	0xbd59ca0e	-0.05317121
166	0xbd31e68e	-0.043432765
167	0x3bd55388	0.006510202
168	0xbcaefc1b	-0.021360448
169	0xbc4da2bf	-0.012551009
170	0x3d1fdd9b	0.0390297
171	0xbd0bc54c	-0.034123704
172	0xbc6e8956	-0.014559111
173	0x3be89857	0.0070982384
174	0xbbfc8ed5	-0.0077074566
175	0x3d2d56fc	0.042319283
176	0xbd2bb1ed	-0.04191773
177	0x3d3102d4	0.043215588
178	0xbd3f8373	-0.04675622
179	0x3c1dd894	0.009634156
180	0x3b6c2024	0.00360299
181	0xbcbcd175	-0.023049096
182	0x3d302222	0.0430013
183	0x3bd979a1	0.0066368137
184	0x3c2ed947	0.01067192
185	0x3c61a3c1	0.013771952
186	0xbd098c11	-0.033580843
187	0xbd435c95	-0.047695715
188	0x3c988448	0.018617764
189	0x3c863a16	0.01638512
190	0xbce6834e	-0.028138783
191	0x39b96439	0.0003536062
192	0x3d2fae81	0.04289103
193	0x3ccb4d1c	0.024817042
194	0xbd52bca6	-0.05144944
195	0xbd1d4c54	-0.03840287
196	0x3ce94c0b	0.028478643
197	0x3b7ecef5	0.003888068
198	0xbd4c71ff	-0.049913403
199	0xbcef5878	-0.02921699
200	0xbd23a568	-0.039952666
201	0xbca4607e	-0.020065542
202	0x3d268320	0.040652394
203	0xbd0735c9	-0.033010278
204	0x3d06222d	0.032747436
205	0x3d2ae18e	0.041719012
206	0xbcf6d83e	-0.03013241
207	0x3c604827	0.013689077
208	0xbd1f8ad4	-0.038950756
209	0xbd5c3989	-0.053765807
210	0xbc959670	-0.01826021
211	0x3d3f3a67	0.046686556
212	0xbc9fb9a6	-0.019497704
213	0x3c33e4c3	0.010979834
214	0xbcc9ee4e	-0.024649765
215	0x3d2dd4c6	0.042439245
216	0x3d4c9d78	0.04995486
217	0xbd2c74f9	-0.04210374
218	0xbd2d967a	-0.042379834
219	0xbcdea93e	-0.02718031
220	0xbd3bfd5b	-0.045895915
221	0x3d4bb911	0.04973704
222	0xbc39a2f1	-0.011330352
223	0xbcc610a1	-0.024177851
224	0x3cc95c68	0.024580196
225	0x3c4ae3d7	0.012383423
226	0x3d1a52a4	0.03767647
227	0xbb981c5b	-0.004642052
228	0xbb1f334a	-0.0024292045
229	0x3d488861	0.048958186
230	0xbd547dd2	-0.051877804
231	0x3cc769ae	0.024342384
232	0x3cee5e49	0.029097693
233	0x3d031e54	0.032011345
234	0xbd49a93f	-0.04923367
235	0xbd5bed57	-0.05369314
236	0xbc5b82c2	-0.013397874
237	0xbd2f3df8	-0.042783707
238	0xbd40fd1c	-0.047116384
239	0xbd1c42b6	-0.038149558
240	0x3b4d85c4	0.0031360248
241	0xbce7f734	-0.028316118
242	0xbce3ba32	-0.027798746
243	0x3d1e6fca	0.03868083
244	0x3d2a30cb	0.04155044
245	0xbc9073e3	-0.017633384
246	0xbd248b9f	-0.040172216
247	0xbc37b461	-0.011212439
248	0xbcf2efc9	-0.029655354
249	0x3c1c7332	0.009548949
250	0x3d28d500	0.041218758
251	0x3ca52f5a	0.02016418
252	0xbd33009b	-0.04370175
253	0xbd16fc58	-0.036861748
254	0xbcc1631b	-0.023606827
255	0xbd5028b5	-0.05082007

bias f4 [2048]
0	0xbd335bd0	-0.04378873
1	0x3d9a53f4	0.07535544
2	0xbd9cff90	-0.07665932
3	0x3ddeb390	0.108740926
4	0x3e31548c	0.17317408
5	0x3dda57cc	0.10661277
6	0x3e11b318	0.14228475
7	0xbe3f3974	-0.1867426
8	0xbe5490ca	-0.20758358
9	0xbe6a3e52	-0.22875336
10	0x3a988d00	0.0011638701
11	0x3e61c8c6	0.22049245
12	0xbe30acdc	-0.1725344
13	0x3e375d98	0.17906797
14	0x3e58de2c	0.21178502
15	0xbcd19cd0	-0.02558747
16	0x3e242502	0.16029742
17	0x3e4c6930	0.19962001
18	0x3d309838	0.043113917
19	0xbe77486e	-0.24148723
20	0x3e54663e	0.20742127
21	0xbe3ad760	-0.18246222
22	0x3e0568be	0.13028237
23	0x3e285680	0.16439247
24	0x3e151538	0.14558876
25	0x3e35387a	0.17697325
26	0xbd4d7ee0	-0.050169826
27	0x3e6d348e	0.2316458
28	0x3ddc1324	0.10745838
29	0xbc340080	-0.010986447
30	0xbe292566	-0.16518173
31	0xbdc8ece4	-0.09810808
32	0xbe5e905c	-0.21734756
33	0xbe520b3c	-0.20512098
34	0xbdfbb1b4	-0.122897536
35	0xbe6bab9a	-0.2301468
36	0x3d65af28	0.056075245
37	0xbdf491c0	-0.11941862
38	0xbbac5a00	-0.0052597523
39	0xbdcb8e74	-0.0993928
40	0x3e5ab754	0.21358997
41	0xbe1d06be	-0.15334603
42	0xbe43abde	-0.19108531
43	0x3e16f8d2	0.14743355
44	0xbe060e7a	-0.1309146
45	0x3c8f9f70	0.01753208
46	0xbe31c40e	-0.17359945
47	0x3d848280	0.064702034
48	0x3e21e128	0.15808547
49	0xbe11ae36	-0.14226612
50	0xbe7f8b46	-0.24955472
51	0xbe19f26a	-0.1503388
52	0x3e7ee8f8	0.24893558
53	0xbe15aa40	-0.14615726
54	0x3d4e7408	0.050403625
55	0x3d64d930	0.05587119
56	0xbd3932e0	-0.045214534
57	0xbe79f0ea	-0.24408308
58	0x3d499b68	0.049220473
59	0x3dbdc2ec	0.09265694
60	0x3e311fb8	0.17297256
61	0x3c0707a0	0.008241564
62	0x3e6acd46	0.22929868
63	0x3d074fb0	0.03303498
64	0x3e0e59a8	0.13901389
65	0xbe604496	-0.21901163
66	0xbe21aaea	-0.15787855
67	0x3e315ea8	0.17321265
68	0xbc86f310	-0.016473323
69	0xbe6b5c10	-0.22984338
70	0xbdba7f84	-0.09106353
71	0x3dadef64	0.08492926
72	0xbccb3210	-0.024804145
73	0x3e46f434	0.19429094
74	0xbdedfda0	-0.11620641
75	0xbe2c5a6e	-0.16831371
76	0x3e64b8f6	0.22336182
77	0x3df343a0	0.11878133
78	0xbde09904	-0.109666854
79	0x3dd05f50	0.101744294
80	0x3e5300be	0.20605752
81	0x3e37a052	0.17932251
82	0x3e08eb74	0.13371068
83	0x3e422b2a	0.18961778
84	0xbe3b1e36	-0.18273243
85	0x3e148312	0.14503124
86	0x3d938940	0.07203913
87	0xbe673e88	-0.22582448
88	0xbcec9910	-0.02888158
89	0xbdc90fb4	-0.09817448
90	0xbe42b310	-0.1901362
91	0x3db74b5c	0.089499205
92	0xbda86058	-0.08221501
93	0xbd995d3c	-0.07488486
94	0xbe48f448	-0.19624436
95	0x3e24f8aa	0.16110483
96	0xbe17a130	-0.14807582
97	0xbda6f1d8	-0.08151597
98	0x3e70117a	0.23444167
99	0x3cbd73c0	0.023126483
100	0xbe02e7fc	-0.12783808
101	0x3d8672c4	0.065648586
102	0x3dcb68e4	0.09932116
103	0x3e530b98	0.20609891
104	0xbdc318c0	-0.09526205
105	0x3e18e342	0.14930442
106	0xbd5ca6d0	-0.053870022
107	0x3e0e4928	0.13895094
108	0x3d9aa654	0.07551256
109	0x3de66eb4	0.11251584
110	0xbd26c338	-0.04071352
111	0xbd07d600	-0.03316307
112	0x3d40c428	0.04706207
113	0xbdcd6424	-0.10028866
114	0x3e2b1ad0	0.16709447
115	0xbdb1f858	-0.08689946
116	0xbdede9a8	-0.11616832
117	0xbe72f7dc	-0.23727363
118	0x3d1562b8	0.0364711
119	0xbc2d5e00	-0.010581493
120	0xbda43e00	-0.08019638
121	0xbd8701b8	-0.06592125
122	0xbcb2dce0	-0.021833837
123	0xbe2fd850	-0.1717236
124	0x3dfc9600	0.12333298
125	0x3dc1d828	0.09465057
126	0x3e2b5574	0.16731817
127	0x3d722660	0.05911863
128	0xbd3722f0	-0.044711053
129	0x3da4bc14	0.080436856
130	0x3df15c20	0.117851496
131	0xbd92ca3c	-0.071674794
132	0xbd812f98	-0.06307906
133	0xbcb88090	-0.02252224
134	0xbe508aba	-0.2036542
135	0x3e173d4c	0.14769477
136	0xbdaa16d0	-0.083051324
137	0xbceb5d20	-0.028730929
138	0x3d8b7450	0.06809294
139	0xbe6a4620	-0.22878313
140	0x3e6df44c	0.23237723
141	0x3e25e1ca	0.16199413
142	0xbb807d80	-0.0039212108
143	0x3cb4da60	0.022076786
144	0x3e3f8338	0.187024
145	0xbe24ca3c	-0.16092771
146	0xbe54e4cc	-0.20790404
147	0xbe79cda8	-0.24394858
148	0x3e6bb65a	0.2301878
149	0x3dee1470	0.11624992
150	0xbe5fa9ca	-0.21842113
151	0xbe1b6ee8	-0.15179026
152	0x3e6219b2	0.22080114
153	0x3e6368d2	0.22207955
154	0x3e41b4d8	0.18916643
155	0xbde7f6dc	-0.113263816
156	0x3e5b795e	0.21433017
157	0xbddd8210	-0.10815823
158	0x3e0a97fe	0.13534543
159	0xbdc5ce48	-0.09658486
160	0x3e2e9dc2	0.17052367
161	0xbe37ae6e	-0.17937633
162	0xbc220880	-0.009889722
163	0x3c4dfe80	0.012572885
164	0xbe54fd02	-0.2079964
165	0x3e5e7cd2	0.21727303
166	0x3ba3a200	0.004993677
167	0xbe5e4258	-0.21704996
168	0xbe729a34	-0.23691636
169	0x3e3502d4	0.1767686
170	0xbc158f40	-0.009128392
171	0x3e43efc0	0.19134426
172	0x3e557830	0.20846629
173	0x3d70da38	0.05880186
174	0xbc2fdf00	-0.01073432
175	0xbd1358b8	-0.03597328
176	0x3e13b0e4	0.14422947
177	0x3e448454	0.19191104
178	0x3e68cbc6	0.22733983
179	0xbe0733e6	-0.13203391
180	0x3e1cfb3c	0.15330213
181	0x3dd14114	0.10217491
182	0x3e0e15a2	0.1387544
183	0x3d0d3aa8	0.034479767
184	0x3e746738	0.238675
185	0x3e5e3bcc	0.21702498
186	0xbdbf548c	-0.09342298
187	0x3e7f15cc	0.24910659
188	0xbe69004e	-0.22754022
189	0xbe1efc78	-0.15525997
190	0xbe5c67ac	-0.21523923
191	0xbe19db5e	-0.15025088
192	0xbe1b72a2	-0.15180448
193	0xbe4a740c	-0.19770831
194	0xbe48e16c	-0.19617242
195	0xbe1cd56e	-0.15315792
196	0x3e29f12e	0.16595909
197	0xbe244a38	-0.16043937
198	0x3d2f58c8	0.042809278
199	0x3e7213e4	0.236404
200	0xbdee06b4	-0.11622372
201	0xbe28093e	-0.16409776
202	0x3ce05e40	0.027388692
203	0xbe6114f2	-0.21980646
204	0xbde9a174	-0.11407748
205	0xbe2e7f5c	-0.17040771
206	0xbe29818c	-0.16553324
207	0xbe691a2a	-0.22763887
208	0xbde8ddb4	-0.113704115
209	0x3e38559a	0.18001404
210	0xbe47cc3e	-0.19511506
211	0x3deffa7c	0.11717698
212	0x3e22c1ac	0.15894192
213	0xbe25edee	-0.16204044
214	0x3db07710	0.08616459
215	0x3e57ad1c	0.2106213
216	0xbd1f8a38	-0.038950175
217	0x3e17ab2e	0.14811394
218	0xbc1d65a0	-0.009606749
219	0x3e13bd34	0.14427644
220	0x3e42138c	0.18952769
221	0xbe6ffcd8	-0.23436296
222	0x3e724266	0.23658141
223	0x3dfff5f0	0.12498081
224	0xbe06cabc	-0.13163275
225	0xbdfd99cc	-0.1238285
226	0x3d404660	0.046942115
227	0x3ddf5360	0.109045744
228	0xbd085008	-0.03327945
229	0xbd78f6b0	-0.060782135
230	0x3e7bdd98	0.2459625
231	0x3dbef6f4	0.09324446
232	0x3dc86a48	0.097858965
233	0x3b9c0140	0.004760891
234	0x3e605ea0	0.21911097
235	0xbe2ba4aa	-0.16762033
236	0xbdfb2160	-0.12262225
237	0x3e316b42	0.17326072
238	0xbe5c5432	-0.21516493
239	0xbdac6468	-0.084175885
240	0xbe262fbc	-0.16229147
241	0x3dcbf034	0.099579245
242	0xbe695f34	-0.22790223
243	0xbe74e790	-0.23916459
244	0x3d685820	0.056724668
245	0xbaf4ec00	-0.0018686056
246	0x3d812bf8	0.063072145
247	0xbe6a764a	-0.22896686
248	0xbe58669c	-0.21132892
249	0x3b7d1e80	0.0038622916
250	0x3e569f9a	0.2095932
251	0x3e592da0	0.21208811
252	0x3e6688be	0.225131
253	0x3dfcb668	0.12339479
254	0x3bc591c0	0.0060293376
255	0x3c708aa0	0.014681488
