04_PyTorch_Computer_Vision_and_CNNs/models/CNN_Model3.pth (torch, 34914 bytes, 10 tensors)

conv_block1.0.weight f4 [10, 1, 3, 3]
0	0x3e983906	0.29731005
1	0x3ea355a0	0.31901264
2	0x3ba42e0b	0.0050103716
3	0x3e0c8db7	0.13725935
4	0x3eee240b	0.46511874
5	0xbe0b2fa8	-0.13592398
6	0x3e82a3cb	0.2551559
7	0xbb5d8d6c	-0.0033806218
8	0xbed30ba9	-0.41219833
9	0xbe33332e	-0.17499992
10	0xbd411a3c	-0.04714416
11	0x3ece0c4c	0.40243757
12	0x3e89cbe0	0.26913357
13	0x3f3b3c67	0.7313904
14	0x3d92aa9d	0.07161448
15	0xbd0dcd41	-0.034619574
16	0x3f39439f	0.72368807
17	0xbe73c15f	-0.23804234
18	0x3d14293e	0.036172144
19	0xbe6818ba	-0.22665682
20	0x3dcd4008	0.100219786
21	0xbdd6efb0	-0.104949355
22	0x3dcf89ba	0.10133691
23	0xbd94b0cb	-0.07260283
24	0x3e8427b8	0.25811553
25	0xbe532e14	-0.20623046
26	0xbe4d7d72	-0.20067385
27	0xbe505916	-0.20346484
28	0x3ea7fe5a	0.32811242
29	0x3dfbc87f	0.12294101
30	0x3eae2c1f	0.34018037
31	0xbe958e9f	-0.29210374
32	0xbeb21f07	-0.34789297
33	0xbe822897	-0.25421593
34	0xbe6aa310	-0.22913766
35	0x3e1ea3e9	0.15492214
36	0x3e5ade07	0.21373759
37	0x3e9d438e	0.30715603
38	0xbe04e7c8	-0.12979043
39	0xbdf68836	-0.12037699
40	0x3e2c1ee3	0.16808657
41	0xbe8c15bd	-0.27360335
42	0x3eb6971d	0.35662165
43	0xbbac1b84	-0.0052523036
44	0x3e8d3759	0.2758129
45	0xbe84fc5c	-0.25973785
46	0xbe2bba06	-0.16770181
47	0x3dced991	0.10100091
48	0x3d8d290d	0.068925954
49	0xbdaed649	-0.085369654
50	0x3e4a856a	0.19777456
51	0x3e67788e	0.22604582
52	0xbe778e29	-0.24175324
53	0xbe35fb27	-0.17771588
54	0x3f202c48	0.6256757
55	0x3da1f76a	0.079085186
56	0x3f028090	0.5097742
57	0xbecc5dc7	-0.39915296
58	0xbf1c4b5f	-0.6105251
59	0x3e9e6352	0.3093515
60	0xbd2f0cc6	-0.04273679
61	0xbf4bb127	-0.7956719
62	0x3de1f1d1	0.11032451
63	0xbe696216	-0.22791323
64	0xbe90d741	-0.28289226
65	0xbe40f9bd	-0.18845268
66	0xbe94e444	-0.29080403
67	0xbe574b03	-0.21024708
68	0x3ea4bb83	0.3217431
69	0x3d7050ce	0.05867081
70	0x3db61d82	0.08892347
71	0xbea38d82	-0.319439
72	0xbe92380a	-0.2855838
73	0xbf20d074	-0.62818074
74	0x3e0ed2a1	0.13947536
75	0xbf70a06e	-0.93994796
76	0xbf777986	-0.96669805
77	0xbf175e2a	-0.5912806
78	0x3df5d1f0	0.12002933
79	0xbf1b83d7	-0.60748047
80	0x3d91fb9e	0.0712807
81	0xbed320a7	-0.4123585
82	0xbead1772	-0.3380695
83	0xbe4863d0	-0.19569325
84	0x3c4aa46b	0.012368302
85	0xbe9f351c	-0.31095207
86	0x3e99e4f9	0.30057505
87	0x3e9cfdec	0.30662477
88	0x3f1303e0	0.5742779
89	0x3dd84e6c	0.10561833

conv_block1.0.bias f4 [10]
0	0xbe17fce1	-0.1484256
1	0x3d91d652	0.071209565
2	0xbdeeaebc	-0.11654422
3	0xbd4436eb	-0.047903936
4	0xbe0ab945	-0.13547237
5	0xbeaa23da	-0.33230478
6	0x3e33f924	0.17575508
7	0xbdc355e6	-0.09537868
8	0x3ed208b7	0.41022274
9	0xbe7a1d7f	-0.24425314

conv_block1.2.weight f4 [10, 10, 3, 3]
0	0x3d4c6d12	0.049908705
1	0xbe55e618	-0.20888555
2	0xbe2fa8f4	-0.17154294
3	0xbc963525	-0.018335888
4	0xbd2190c4	-0.0394447
5	0xb9c06c56	-0.0003670181
6	0x3dd9c245	0.10632757
7	0xbd92540c	-0.07144937
8	0x3d726949	0.05918244
9	0xbe4ffb17	-0.20310627
10	0xbdd70a00	-0.10499954
11	0xbd14c78a	-0.036323108
12	0x3daade7a	0.08343215
13	0x3d1b428a	0.037905253
14	0x3e772331	0.24134518
15	0x3c4e97a2	0.012609394
16	0x3d81b192	0.06332697
17	0xbdd1ff69	-0.10253794
18	0x3dba963b	0.091106854
19	0x3c97dc94	0.018537797
20	0x3bde02df	0.0067752446
21	0xbdbcfde3	-0.092281125
22	0x3d221405	0.039569873
23	0xbca57b69	-0.020200448
24	0xbd479498	-0.048725694
25	0x3db89c86	0.090142295
26	0x3ca1f155	0.019768396
27	0xbd839e04	-0.064266235
28	0xbd6a0b4f	-0.05713969
29	0xbc433c20	-0.01191619
30	0x3d408837	0.047004905
31	0xbd1f2ee7	-0.03886309
32	0xbd907669	-0.07053835
33	0xbd42d335	-0.047564704
34	0xbdb63435	-0.088966765
35	0x3d0a2828	0.033729702
36	0x3d93b52e	0.07212292
37	0xbe34ae46	-0.17644605
38	0xbd240327	-0.04004207
39	0x3d949c05	0.07256321
40	0xbd23e7a0	-0.040015817
41	0xbd97fe85	-0.074215926
42	0xbd1c51a5	-0.0381638
43	0xbd145045	-0.036209363
44	0xbd71ff74	-0.05908151
45	0xbc9828c4	-0.018574126
46	0xbce4ba76	-0.027920943
47	0x3c36eda5	0.011165057
48	0xbc99d97f	-0.018780468
49	0xbd023770	-0.03179115
50	0x3d89cd87	0.06728654
51	0x3db93d65	0.09044913
52	0xbc2d3111	-0.01057078
53	0xbcc17622	-0.0236159
54	0xbdb00e2a	-0.085964516
55	0xbddf1477	-0.10892575
56	0xbddf1da8	-0.10894328
57	0x3c50f481	0.012753607
58	0xbe243ae3	-0.16038089
59	0xbe0ec1d1	-0.13941123
60	0x3e16836e	0.14698574
61	0x3d84e7dd	0.06489537
62	0x3dda6330	0.1066345
63	0xbd8397db	-0.064254485
64	0xbd87aba0	-0.06624532
65	0xbdc5da77	-0.096608095
66	0xbd18c3fc	-0.03729628
67	0x3d119263	0.035539996
68	0x3d855c87	0.06511789
69	0x3d41ffdc	0.047363147
70	0xbdbfc7e1	-0.09364296
71	0xbd82c5bd	-0.06385372
72	0x3c74a507	0.014931924
73	0xbd374eca	-0.044752873
74	0xbdd7295e	-0.10505937
75	0xbd0b0207	-0.03393748
76	0xbdd4aca4	-0.10384491
77	0xbe3ba3e1	-0.18324234
78	0xbdb36ac5	-0.08760599
79	0xbd035fd1	-0.0320738
80	0xbdfd8062	-0.12378003
81	0xbd9680cf	-0.07348787
82	0xbe025fcd	-0.12731858
83	0x3d7971be	0.06089949
84	0x3da6f1a2	0.081515566
85	0x3c8cfb24	0.017209597
86	0xbd9b21d6	-0.07574813
87	0xbde976c8	-0.11399609
88	0xbde5178f	-0.11186134
89	0x3d1f3cfd	0.038876522
90	0x3e57a52b	0.210591
91	0x3db414c3	0.087930225
92	0x3d425313	0.047442507
93	0x3d9f598a	0.0778075
94	0xbd82ed4d	-0.06392918
95	0xbdc961ca	-0.09833105
96	0xbd47e332	-0.048800655
97	0xbe252f8b	-0.16131417
98	0x3c4e93ad	0.012608451
99	0x3dcdbb9d	0.1004555
100	0xbdb6e4eb	-0.089303814
101	0xbd65f3d0	-0.05614072
102	0xbd972cb3	-0.073815726
103	0xbe82af6a	-0.25524455
104	0xbd2ee714	-0.042700842
105	0x3dfa7fc6	0.12231402
106	0x3cca5f33	0.024703598
107	0x3e5f75f5	0.21822341
108	0xbcebcbfa	-0.028783787
109	0xbd9a8c46	-0.07546286
110	0xbc992df7	-0.018698676
111	0xbd515c99	-0.0511137
112	0xbcf8efd5	-0.030387798
113	0xbdca409e	-0.09875606
114	0x3d73e4e4	0.05954446
115	0xbd974821	-0.07386804
116	0x3d6b8259	0.057497356
117	0x3d8df1e1	0.069309
118	0x3dcd0b62	0.10011937
119	0xbda93a53	-0.082630776
120	0x3dc7cb4c	0.09755573
121	0xbd4068a1	-0.046974782
122	0x3d21d690	0.039511263
123	0x3dd2258e	0.10261069
124	0xbc807ff0	-0.015686005
125	0x39d9a4eb	0.0004151234
126	0xbc1305c1	-0.00897354
127	0xbdb8ef0d	-0.0902997
128	0x3d6985a1	0.057012204
129	0xbd290da6	-0.04127278
130	0x3d48d3ff	0.0490303
131	0x3cfee3d2	0.031114493
132	0x3dec6213	0.11542144
133	0xbdab899a	-0.08375855
134	0xbe216a49	-0.15763201
135	0x3cc2a579	0.023760544
136	0x3d6ed1d2	0.05830557
137	0xbdd6e74b	-0.104933344
138	0xbcc3f3af	-0.023919908
139	0xbd8156ac	-0.063153595
140	0xbc16a9ef	-0.009195789
141	0xbd5430b3	-0.051804256
142	0xbd2fe46f	-0.04294246
143	0xbd084536	-0.03326913
144	0xbd6e9907	-0.058251407
145	0x3e75b868	0.23996127
146	0x3e329c18	0.17442358
147	0x3cbd7446	0.023126733
148	0x3daa44d0	0.08313906
149	0xbd00f03d	-0.03147911
150	0xbdf2a090	-0.11847031
151	0xbdf06520	-0.11738038
152	0xbc0c752f	-0.008572861
153	0xbd6c2e9a	-0.05766163
154	0xbd8a61a4	-0.06756905
155	0xbc0061a0	-0.007835776
156	0xbd0eecbe	-0.034893744
157	0xbd0a9faa	-0.033843674
158	0x3bbdd088	0.005792681
159	0xbcb4f422	-0.022089068
160	0xbd07987f	-0.033104416
161	0xbd4a1b8f	-0.04934269
162	0xbdeaf4f8	-0.11472505
163	0x3daa0029	0.08300812
164	0xbca9fb53	-0.020749724
165	0x3cfea0f1	0.031082602
166	0xbc2ec814	-0.0106678195
167	0x3c9043ed	0.017610515
168	0x3da7be71	0.08190621
169	0x3c38e59a	0.01128521
170	0xbdee8c51	-0.11647857
171	0x3d249111	0.04017741
172	0x3dc1dde8	0.094661534
173	0x3d00e014	0.031463698
174	0x3d9f9e03	0.0779381
175	0x3e06d6b3	0.13167839
176	0x3d0a6b1e	0.03379356
177	0x3d9a68e6	0.07539539
178	0x3c36babc	0.011152919
179	0xbd112ed8	-0.035445064
180	0x3dde1e7f	0.108456604
181	0x3d8f584e	0.06999265
182	0xbda754e4	-0.081704885
183	0xbd9a2b57	-0.07527798
184	0xbd875e5e	-0.06609796
185	0xbde112a1	-0.10989881
186	0xbd8e25db	-0.06940814
187	0xbcbd25b4	-0.023089267
188	0x3d842587	0.0645247
189	0x3d815566	0.063151166
190	0xbd7c202e	-0.061554126
191	0xbddd428a	-0.10803707
192	0x3d987e1f	0.07445931
193	0xbdb705ea	-0.08936675
194	0xbd4f0081	-0.05053759
195	0x3d578f2c	0.052626774
196	0xbd8fa441	-0.07013751
197	0xbd6fd5cd	-0.058553506
198	0xbbfb80e1	-0.0076752757
199	0xbcc5b9fa	-0.024136532
200	0xbd5b27a5	-0.053504605
201	0xbdc12346	-0.09430556
202	0xbdad5ca4	-0.084649354
203	0xbd6790cb	-0.05653457
204	0x3dd29323	0.1028197
205	0xbd4b772e	-0.049674205
206	0xbd917dda	-0.071040824
207	0x3cd8278f	0.02638605
208	0x3d091d79	0.033475373
209	0x3d79f3fd	0.0610237
210	0x3dafae42	0.08578159
211	0x3d7f0423	0.062259804
212	0xbdd86f67	-0.10568123
213	0x3c225af7	0.009909383
214	0x3d823cba	0.06359239
215	0xbc252dd3	-0.010081726
216	0xbd8697d3	-0.06571927
217	0x3dc631ff	0.09677505
218	0xbd373372	-0.044726796
219	0xbd7df568	-0.062001616
220	0xbdc17ade	-0.09447263
221	0x3b447455	0.0029976566
222	0x3d5061ae	0.050874405
223	0x3cbed7d5	0.023296276
224	0x3c8f1286	0.017464887
225	0xbda3b44c	-0.07993373
226	0xbdc9a06e	-0.09845053
227	0x3af34a31	0.001856154
228	0x3dc4d895	0.09611622
229	0x3d792500	0.0608263
230	0xbd7b6177	-0.061372247
231	0xbc602ec0	-0.013683021
232	0xbd9f1405	-0.0776749
233	0xbd5042f9	-0.05084512
234	0x3d1c7577	0.03819796
235	0x3d864b62	0.06557347
236	0x3d83b392	0.06430735
237	0xbd857934	-0.06517258
238	0x3dddd552	0.10831703
239	0xbd9a74e4	-0.07541826
240	0x3d768677	0.06018683
241	0x3ddc7cae	0.10765968
242	0x3c14287d	0.009042856
243	0x3dc45089	0.09585673
244	0xbdb7e8ab	-0.08979925
245	0xbd24dd3f	-0.04025006
246	0x3d7bcd64	0.061475173
247	0xbcbc0dd5	-0.022955814
248	0xbcb0db54	-0.021588959
249	0xbd3407b4	-0.04395266
250	0x3d95108a	0.07278545
251	0x3d540ed8	0.05177197
252	0x3d545090	0.051834643
253	0xbd1033be	-0.035205595
254	0xbdc7110e	-0.0972005
255	0xbc4eb0a0	-0.012615353

conv_block1.2.bias f4 [10]
0	0x3e7ecd67	0.24883042
1	0xbd848df5	-0.06472389
2	0xbc3d74dd	-0.011563507
3	0xbd9360ce	-0.071961984
4	0x3c0c7dff	0.008574962
5	0x3db2b2cc	0.08725509
6	0x3ea73449	0.32657078
7	0xbe25d6d6	-0.16195235
8	0x3f347a09	0.7049871
9	0x3c822272	0.015885565

conv_block2.0.weight f4 [10, 10, 3, 3]
0	0xbda82004	-0.082092315
1	0xbd7cbb90	-0.06170231
2	0x3da21e0c	0.07915887
3	0xbc267df1	-0.010161863
4	0xbce2fea4	-0.027709313
5	0xbd925761	-0.071455725
6	0xbcf13327	-0.029443337
7	0xbdba2104	-0.090883285
8	0xbdcab6f7	-0.09898179
9	0x3d80906b	0.062775455
10	0x3db78694	0.089612156
11	0x3dc18c4d	0.094505884
12	0xbd9dbce8	-0.07702047
13	0x3d6a5d53	0.057217907
14	0xbd90ce8b	-0.07070645
15	0x3d3b9c2e	0.04580324
16	0x3d8c67ea	0.068557575
17	0x3d9eb8c4	0.07750085
18	0x3daa0b3a	0.083029225
19	0x3d911fe6	0.07086162
20	0x3b4c67ce	0.0031189802
21	0x3d72ed6e	0.05930846
22	0xbcfb383c	-0.030666463
23	0x3d41c511	0.047307078
24	0xbce7c377	-0.028291447
25	0xbaad33c3	-0.0013214279
26	0xbdbc4af4	-0.09193984
27	0xbcc3f0cc	-0.023918532
28	0xbd6c4362	-0.05768145
29	0xbd8435b2	-0.06455554
30	0xbd4a743f	-0.049427267
31	0xbdc7f7e1	-0.09764076
32	0xbc944862	-0.018100921
33	0x3d29c13f	0.04144406
34	0x3d8dffa6	0.06933527
35	0x3cc4e892	0.02403668
36	0xbd4e8562	-0.050420173
37	0xbdd346da	-0.10316248
38	0x3d0d9d55	0.03457387
39	0x3d843453	0.064552926
40	0xbdb458b1	-0.08805979
41	0x3d13d00b	0.036087077
42	0x3db011b7	0.08597129
43	0x3bae3abb	0.00531706
44	0xbd88c60a	-0.06678398
45	0x3dff7559	0.12473554
46	0x3d118f55	0.035537083
47	0xbcf1587b	-0.029461136
48	0xbca60b73	-0.020269131
49	0x3db503f7	0.08838647
50	0xbe0dcae1	-0.13846923
51	0x3db46c7f	0.088097565
52	0xbda56b4e	-0.08077107
53	0xbd2aba4f	-0.041681584
54	0xbbf4a09b	-0.0074654347
55	0xbc18b2d3	-0.009319979
56	0xbd8f3f9c	-0.069945544
57	0x3cd14bc0	0.025548816
58	0xbda31080	-0.079621315
59	0xbe1cc89d	-0.15310903
60	0xbd32bd6d	-0.04363768
61	0x3d7d6af1	0.061869565
62	0xbd86d6bb	-0.06583925
63	0x3d1ceece	0.03831368
64	0xbd28f1b8	-0.041246146
65	0x3d3e531d	0.04646598
66	0x3dbbf3b9	0.09177346
67	0x3d02f155	0.031968433
68	0xbda48a85	-0.08034233
69	0xbd93fd94	-0.072261006
70	0x3a9689a5	0.0011485113
71	0xbd9b07b1	-0.075698264
72	0x3da8db3c	0.08244941
73	0xbe35f340	-0.17768574
74	0xbd090b9c	-0.033458337
75	0x3e041360	0.12898016
76	0xbc0e1931	-0.008672998
77	0xbd6b66eb	-0.057471197
78	0xbda49454	-0.08036104
79	0x3d9144c5	0.07093195
80	0xbdacade7	-0.08431607
81	0xbcbda9c4	-0.02315224
82	0x3e04419c	0.12915653
83	0xbd44e844	-0.04807307
84	0x3d5579ae	0.052117996
85	0x3e091710	0.13387704
86	0xbd9f44e0	-0.07776809
87	0xbcc559e6	-0.024090718
88	0x3d68b2b6	0.056811057
89	0xbca1a018	-0.019729659
90	0x3d5dd602	0.054159172
91	0xbcf381ad	-0.02972492
92	0xba480c2d	-0.0007631209
93	0x3c66f49a	0.0140964035
94	0xbcf661e9	-0.030075984
95	0xbe1447ed	-0.14480563
96	0x3dbe403a	0.09289594
97	0x3d8b5976	0.06804173
98	0xbe01a896	-0.12661967
99	0x3dfc6880	0.12324619
100	0x3ca79935	0.020458797
101	0xbc0d8344	-0.008637253
102	0xbdadd40a	-0.08487709
103	0x3d9cc958	0.07655591
104	0x3de4b261	0.111668356
105	0x3d48c723	0.049018037
106	0xbd322294	-0.043490008
107	0x3da24d95	0.07924954
108	0x391f9888	0.00015220244
109	0x3d55a33e	0.052157633
110	0x3dc820b5	0.09771863
111	0x3db8529c	0.090001315
112	0xbd793df1	-0.060850088
113	0x3dd8e64a	0.10590799
114	0xbd90eb7a	-0.070761636
115	0x3cac15d0	0.021006495
116	0xbd9bc37d	-0.07605646
117	0xbdd3d343	-0.10343029
118	0xbd0a7511	-0.03380305
119	0x3c99bbf0	0.018766373
120	0xbcd46692	-0.025927816
121	0x3d209d1e	0.03921234
122	0x3e91fcaa	0.2851308
123	0xbc53fd4c	-0.012938809
124	0x3d316d74	0.043317273
125	0x3ddee515	0.10883538
126	0x3dd84c50	0.105614305
127	0x3c083f01	0.008315803
128	0xbcd2ec8a	-0.025747556
129	0x3d735710	0.0594092
130	0xbdabb15a	-0.083834365
131	0xbde1adf0	-0.11019504
132	0x3d238c48	0.039928705
133	0xbd2b4999	-0.041818235
134	0xbd0ec916	-0.03485974
135	0xbe1a5145	-0.15070064
136	0xbd4cd14e	-0.050004296
137	0x3e3640e3	0.1779819
138	0xbe90b023	-0.28259382
139	0x3d8d4408	0.068977416
140	0x3e91eaaa	0.28499347
141	0xbe9d1d88	-0.30686593
142	0xbe1014cb	-0.14070432
143	0xbd6ad72f	-0.05733412
144	0xbd9e71f3	-0.07736578
145	0x3daf64b0	0.085641265
146	0xbb4a2972	-0.0030847457
147	0xbd07e158	-0.03317389
148	0x3cbbb08e	0.022911336
149	0xbdaf5427	-0.08560973
150	0xbd7258fe	-0.0591669
151	0x3e3e8155	0.18604024
152	0xbdc5c088	-0.09655863
153	0xbe769485	-0.24080093
154	0x3decb805	0.115585364
155	0xbbfc7c09	-0.007705216
156	0x3e16b40b	0.14717118
157	0x3d859fac	0.065245956
158	0x3ea9f191	0.33192113
159	0x3d36c14f	0.044617947
160	0x3e1d4dd9	0.15361728
161	0x3e4ed123	0.20196967
162	0xbe3a9091	-0.1821921
163	0x3e54a62b	0.20766513
164	0xbbb1abd6	-0.005422096
165	0xbaf966a8	-0.0019027786
166	0x3e3d6cca	0.18498531
167	0xbe48c6ac	-0.19607037
168	0xbe458290	-0.19288087
169	0x3e15b806	0.1462098
170	0xbdb2f8d7	-0.08738869
171	0xbd67def7	-0.05660912
172	0x3dee49fe	0.11635207
173	0xbdbcb4d1	-0.092141755
174	0x3de41c6a	0.11138232
175	0x3e67c1eb	0.22632568
176	0x3c9d8901	0.019230368
177	0xbd6c60b8	-0.057709426
178	0x3e1a9319	0.15095176
179	0x3dcd3285	0.100194015
180	0xbcd28e28	-0.025702551
181	0x3c42cdc8	0.011889882
182	0xbc8a8699	-0.016909884
183	0x3c0ce199	0.008598709
184	0x3e154c89	0.14579977
185	0x3e162266	0.1466156
186	0xbd334eb1	-0.043776218
187	0x3d22640b	0.03964619
188	0xbe175bb5	-0.14781077
189	0x3cdc1e7a	0.026870001
190	0xbc549dbf	-0.012977063
191	0xbd5ac331	-0.053408805
192	0x3d386102	0.04501439
193	0xbdeda1c6	-0.116031215
194	0xbe7ea94f	-0.24869274
195	0xbd0eb7f7	-0.03484341
196	0xbcbe152d	-0.023203457
197	0x3d9e6651	0.07734359
198	0xbc031e51	-0.008002833
199	0xbde30c2d	-0.11086307
200	0xbca56b65	-0.020192811
201	0xbc9f6d75	-0.019461373
202	0xbd4e3b54	-0.05034955
203	0x3daaa9de	0.08333181
204	0xbc802f1f	-0.01564747
205	0x3dbd9bfc	0.09258267
206	0x3d3c6a58	0.045999855
207	0xbdc4276b	-0.09577831
208	0xbe3062ad	-0.17225142
209	0x3d13c7ca	0.036079206
210	0xbccd0368	-0.025026038
211	0xbec703b8	-0.38870025
212	0x3cdd93ed	0.027048076
213	0x3ddc4055	0.10754458
214	0xbd397522	-0.045277722
215	0x3df3b2af	0.118993156
216	0xbcb53884	-0.022121675
217	0xbd3b8fb1	-0.04579133
218	0xbcb9a5cb	-0.022662064
219	0x3db5622f	0.08856618
220	0xbd476f75	-0.048690278
221	0xbd557ba6	-0.052119873
222	0xbe200e22	-0.15630391
223	0x3d2fbe21	0.04290593
224	0x3dab77c1	0.083724506
225	0x3ecf82f6	0.40529603
226	0x3eed878c	0.46392477
227	0x3dc8e954	0.09810129
228	0xbcf143b2	-0.029451225
229	0xbdfcf640	-0.12351656
230	0xbe8d1300	-0.27553558
231	0xbeed4159	-0.4633892
232	0xbe2e2f32	-0.17010191
233	0x3d0af14e	0.033921532
234	0x3a108863	0.0005513487
235	0xbe610249	-0.21973528
236	0xbe144105	-0.14477928
237	0x3df2f086	0.118622825
238	0x3edcfa0a	0.43159515
239	0x3e61211d	0.21985288
240	0x3da1a4e9	0.07892782
241	0x3d9a2915	0.07527367
242	0xbd8f3f1d	-0.0699446
243	0xbbc85178	-0.0061132275
244	0xbe94dd16	-0.29074925
245	0xbe4c61f3	-0.1995924
246	0x3dc6f44b	0.09714564
247	0xbc88c2d2	-0.01669446
248	0xbe78f8eb	-0.24313705
249	0x3ba4953c	0.005022673
250	0x3d32b414	0.043628767
251	0xbc17a50a	-0.009255657
252	0xbd302f4a	-0.04301385
253	0x3c696d5c	0.014247265
254	0xbe9e420f	-0.30909774
255	0xbc98b5a8	-0.018641308

conv_block2.0.bias f4 [10]
0	0xbda93b32	-0.08263244
1	0xbe472005	-0.19445808
2	0x3e9f0d4b	0.3106483
3	0x3e546b67	0.20744096
4	0xbc432ea6	-0.011912977
5	0xbd220497	-0.03955516
6	0x3eb7c5f9	0.3589323
7	0xbda2ca3a	-0.07948728
8	0x3e767210	0.24066949
9	0x3ef44e68	0.4771607

conv_block2.2.weight f4 [10, 10, 3, 3]
0	0xbd08f36e	-0.033435278
1	0xbcc45fcf	-0.023971466
2	0xbd9c1aa2	-0.07622267
3	0xbd924baf	-0.07143342
4	0xbd50ce94	-0.05097826
5	0x3d9aaa35	0.07551996
6	0xbbf9c7aa	-0.0076226788
7	0x3d095359	0.033526752
8	0x3d4b20ce	0.049591832
9	0x3d3b370f	0.045706805
10	0xbdbb1d0a	-0.09136398
11	0xbc7df379	-0.015499943
12	0x3ce61bfd	0.028089518
13	0x3d1abab0	0.037775695
14	0xbe4416e4	-0.19149357
15	0xba0b2eb7	-0.000530939
16	0x3e3dd62d	0.18538733
17	0xbd907624	-0.070537835
18	0xbe265277	-0.16242395
19	0xbd1cb62e	-0.038259678
20	0x3e1c8995	0.15286858
21	0x3da1c696	0.078992054
22	0x3ea75266	0.32680053
23	0xbda4b080	-0.08041477
24	0xbd5b4eda	-0.053541996
25	0x3de8d2d0	0.11368334
26	0xbe4bbdad	-0.19896574
27	0xbe116767	-0.14199601
28	0xbe10e8c3	-0.14151292
29	0xbe138fc9	-0.14410318
30	0xbde1741d	-0.11008475
31	0xbe2c8c22	-0.16850331
32	0xbe7bc020	-0.24585009
33	0xbe4d1b68	-0.20029986
34	0x3c18c718	0.009324811
35	0x3e6f25b8	0.23354232
36	0xbaf75147	-0.0018868827
37	0xbba97263	-0.0051711067
38	0xbd813ee1	-0.06310821
39	0xbc9d4abf	-0.01920068
40	0x3e1b44d5	0.15162976
41	0x3e5a7153	0.21332292
42	0x3d97d9f7	0.0741462
43	0x3d4963b8	0.049167365
44	0x3dba53af	0.09097993
45	0x3c51f198	0.012813948
46	0xbbdfd6dc	-0.006831033
47	0xbd273288	-0.040819675
48	0x3cd1fc89	0.025633113
49	0xbcc1fb64	-0.023679443
50	0xbd4ee4bb	-0.050511103
51	0xbda340dc	-0.07971355
52	0xbcb2752a	-0.021784384
53	0xbdb514e7	-0.088418774
54	0x3de60dc4	0.11233094
55	0xbd9bceeb	-0.07607826
56	0xbd20fbbb	-0.03930257
57	0xbd355675	-0.044271905
58	0xbbea8086	-0.0071564345
59	0xbd44c404	-0.048038498
60	0x3da4ccf1	0.08046902
61	0xbd99ff73	-0.07519426
62	0x3c870a1e	0.016484316
63	0x3c90ab33	0.01765976
64	0xbe20c8b4	-0.15701562
65	0xbe3a3a20	-0.18186235
66	0xbe52c6a2	-0.20583585
67	0xbdeb71d0	-0.114963174
68	0x3d621306	0.055193923
69	0xbcd91134	-0.02649746
70	0x3d04743d	0.032337416
71	0xbb143e0d	-0.0022619993
72	0xbd960a52	-0.07326187
73	0xbef9e5e1	-0.48808196
74	0xbd07dd7e	-0.033170216
75	0xbe985cbe	-0.29758257
76	0xbe839699	-0.25700834
77	0x3e1dbe7e	0.15404698
78	0xbd963b5e	-0.07335542
79	0x3ddf7bd0	0.10912287
80	0xbd8365eb	-0.06415924
81	0xbf089a9a	-0.53360903
82	0x3e1c8a92	0.15287235
83	0xbe2f40f2	-0.17114618
84	0x3d8644a0	0.06556058
85	0x3e89bca4	0.26901734
86	0xbdea4f6c	-0.1144093
87	0x3e9f0399	0.31057432
88	0xbe8a925c	-0.27064788
89	0xbe14a6ff	-0.14516829
90	0x3cfbb590	0.030726224
91	0xbdc5c676	-0.09656994
92	0xbd9b89b8	-0.07594627
93	0xbaefa9ae	-0.0018284821
94	0x3d2d6260	0.042330146
95	0x3da42e6b	0.08016666
96	0xbd9ed2f7	-0.07755082
97	0xbe089ff2	-0.13342264
98	0x36f419a6	7.2747525e-06
99	0xbe16d7d4	-0.1473077
100	0x3d7ee07d	0.062225807
101	0xbdeae468	-0.11469346
102	0x3e11a335	0.14222415
103	0x3e831846	0.25604457
104	0x3d5bee0a	0.05369381
105	0x3c95aa17	0.018269582
106	0xbe1fe0e9	-0.1561314
107	0xbe8670f6	-0.26258057
108	0x3e444e28	0.19170439
109	0x3d993c82	0.07482244
110	0xbede485e	-0.43414587
111	0x3e2109c4	0.15726382
112	0xbeb9352a	-0.36173373
113	0xbe987ab2	-0.2978111
114	0xbd960365	-0.07324866
115	0xbe8a464f	-0.27006766
116	0xb94beab8	-0.00019447028
117	0xbdc47746	-0.09593062
118	0xbdfa6144	-0.12225583
119	0x3e7e90ce	0.24859926
120	0xbe437590	-0.19087815
121	0x3e1b91c1	0.1519232
122	0x3e28b035	0.16473468
123	0x3e5038f0	0.2033422
124	0x3ce626c6	0.02809466
125	0xbeb09fcf	-0.34496924
126	0xbd88547e	-0.066567406
127	0xbe03ccfe	-0.12871167
128	0xbdae2472	-0.08503045
129	0x3c3d67da	0.011560405
130	0x3d358fc1	0.044326548
131	0xbd295de5	-0.04134931
132	0xbe3ca54e	-0.18422434
133	0xbe304665	-0.17214353
134	0xbd5b22a1	-0.05349982
135	0x3c353e22	0.011062177
136	0xbc50f142	-0.012752833
137	0xbda8ef2a	-0.08248742
138	0x3dc5fcd5	0.096673645
139	0xbc0bb65d	-0.0085273655
140	0xbc7dca9b	-0.015490199
141	0xbd228242	-0.039675005
142	0xbcca48b2	-0.024692867
143	0x3d4e63bf	0.050388094
144	0xbdc6e2bb	-0.09711214
145	0xbdb538cb	-0.08848723
146	0xbdb61513	-0.08890738
147	0xbddcd19a	-0.10782166
148	0xbdf6bd3f	-0.120478146
149	0xbcb962b5	-0.022630075
150	0xbd7537ed	-0.059867788
151	0x3bb189b5	0.0054180273
152	0x3db02c4e	0.086022004
153	0xbe85d887	-0.2614176
154	0xbd141598	-0.036153406
155	0x3e5677d3	0.20944147
156	0x3a4badd3	0.0007769737
157	0x3e5c9b42	0.21543601
158	0xbd2641f2	-0.040590234
159	0x3da8b6bd	0.082379796
160	0x3ded20a2	0.1157849
161	0xbd7013d2	-0.058612652
162	0xbe17f876	-0.14840874
163	0x3b826acd	0.003980017
164	0x3ec271dd	0.37977496
165	0xbe6a3f4b	-0.22875707
166	0x3eca330f	0.3949208
167	0x3dd049e2	0.10170342
168	0x3e4942c8	0.19654381
169	0xbcf96a47	-0.030446185
170	0xbeed5260	-0.4635191
171	0x3e417511	0.18892314
172	0xbe647d18	-0.22313344
173	0xbe89e4f5	-0.26932493
174	0x3e7ae0da	0.24499837
175	0xbe7e6a45	-0.24845226
176	0xbe6d5879	-0.23178281
177	0xbe2e8c0f	-0.17045616
178	0xbd91e8e0	-0.071244955
179	0xbd06c0a5	-0.032898564
180	0x3d84a3e9	0.06476576
181	0x3d8f4bcd	0.0699688
182	0x3d766434	0.060154155
183	0x3dd001cf	0.10156595
184	0x3cb8f604	0.022578247
185	0xbdbfac29	-0.09359009
186	0x3d925ac2	0.07146217
187	0x3bbc554b	0.0057474724
188	0x3b409e33	0.002939117
189	0xbe3a0934	-0.18167573
190	0xbe06ef8d	-0.13177319
191	0xbe0afd9a	-0.13573304
192	0xbd0bb763	-0.034110438
193	0xbd979705	-0.074018516
194	0x3d158fc9	0.036514077
195	0x3e0f800f	0.14013694
196	0xbdf0d837	-0.1175999
197	0xbdbe2dbc	-0.09286067
198	0xbdc11a5b	-0.09428855
199	0x3db46f98	0.08810347
200	0x3e2f0b13	0.17094068
201	0x3e4c0977	0.19925486
202	0x3e3ed9a0	0.18637705
203	0x3db9889f	0.090592615
204	0xbe9d895f	-0.30768868
205	0xbe75d303	-0.24006276
206	0xbb6165e2	-0.0034393002
207	0x3ce09546	0.02741493
208	0xbd493c43	-0.049129736
209	0xbe6e09f3	-0.23245983
210	0xbda446f8	-0.08021349
211	0xbd8b49d9	-0.06801195
212	0xbc067913	-0.008207577
213	0x3ce2a8dc	0.027668409
214	0x3df07c5c	0.1174247
215	0x3dc05767	0.09391671
216	0xbde1c90f	-0.11024677
217	0x3d6c08bc	0.057625517
218	0xbcd31195	-0.02576522
219	0xbda3f93f	-0.08006524
220	0xba8186cc	-0.0009882092
221	0xbdd58eec	-0.10427651
222	0x3d4db3a5	0.05022015
223	0x3c449e93	0.012000698
224	0xbe243bf7	-0.160385
225	0x3d8dbc43	0.06920674
226	0xbdc0fc5f	-0.09423136
227	0xbdd16a11	-0.10225309
228	0xbd737be3	-0.05944432
229	0xbd13c753	-0.036078762
230	0xbc0d506a	-0.008625129
231	0xbc723126	-0.014782226
232	0x3d4e2a0d	0.05033307
233	0xbdbad875	-0.09123317
234	0x3d0e23f4	0.034702256
235	0xbd0d5cde	-0.034512393
236	0xbc78c99e	-0.015184788
237	0x3ddde69e	0.10835002
238	0x3d0c7c8c	0.034298465
239	0xbdaf9aec	-0.08574471
240	0xbd85b445	-0.06528524
241	0xbcab15ff	-0.020884512
242	0xbd52ebb5	-0.05149432
243	0xbe8516f5	-0.25994077
244	0xbe3e0318	-0.18555868
245	0xbe577dcb	-0.2104408
246	0x3dd4dad8	0.10393304
247	0x3e0957f9	0.13412465
248	0xbd6d738f	-0.057971533
249	0x3ea6ed33	0.32602844
250	0x3e5d1c26	0.21592769
251	0x3d92f703	0.0717602
252	0xbe1424a8	-0.14467108
253	0xbe0e0e74	-0.13872701
254	0xbe0e9133	-0.13922577
255	0xbea7bdc4	-0.32761967

conv_block2.2.bias f4 [10]
0	0x3e0c6429	0.13710083
1	0xbe8cbe93	-0.27489147
2	0xbd8718e2	-0.06596543
3	0x3eab0b07	0.3340685
4	0x3dc5f5b7	0.09666007
5	0xbda89177	-0.0823087
6	0x3dbea193	0.093081616
7	0x3c2c90aa	0.0105325375
8	0xbd3dfa9b	-0.046381574
9	0x3bb03524	0.0053774286

classifier.1.weight f4 [10, 490]
0	0xbd0befea	-0.034164347
1	0x3dc77a22	0.09740092
2	0xbc22933e	-0.009922801
3	0x3d671f6c	0.05642645
4	0x3e9dee33	0.30845794
5	0x3c9b6cc1	0.018972756
6	0xbb7105ad	-0.0036777065
7	0x3e11e29a	0.14246598
8	0xbcfc3dad	-0.030791128
9	0xbca2bd6a	-0.01986571
10	0xbd96f65b	-0.07371207
11	0x3db422fe	0.08795737
12	0x3daf2200	0.08551407
13	0x3cf90116	0.030396026
14	0x3e151188	0.14557469
15	0x3d781502	0.06056691
16	0xbb04cbb0	-0.0020263009
17	0xbd09caa6	-0.033640526
18	0x3dc4648a	0.09589489
19	0x3e4ffba2	0.20310834
20	0x3c0f8784	0.008760337
21	0xbc27e67d	-0.010247824
22	0xbbb697b8	-0.0055722855
23	0xbd2337b8	-0.03984806
24	0xbdfc2b3e	-0.12312935
25	0xbcbc216f	-0.022965161
26	0xbd15360b	-0.036428493
27	0xbd2361a8	-0.039888054
28	0xbdd34ef3	-0.10317793
29	0xbdec89aa	-0.11549695
30	0x3c8b7c39	0.017027007
31	0xbd565eb9	-0.05233643
32	0xbe13263c	-0.14370054
33	0xbde618bd	-0.11235187
34	0xbdf0c9cd	-0.117572404
35	0xbdb96dfa	-0.090541795
36	0xbda39782	-0.07987882
37	0x3d3d2737	0.046179976
38	0xbc9cf9bf	-0.019162057
39	0x3ccc2ee7	0.024924709
40	0xbdbb357c	-0.09141061
41	0xbda61383	-0.0810919
42	0xbdfe7394	-0.124243885
43	0x3e4f5b23	0.2024961
44	0xbd70ffca	-0.05883769
45	0xbced2feb	-0.028953513
46	0x3dffb05f	0.12484812
47	0xbd2a8533	-0.041630935
48	0x3c8a06a0	0.016848862
49	0x3d1be6cd	0.038061906
50	0xbc946c4f	-0.018118052
51	0x3d677db1	0.056516353
52	0xbdb3926d	-0.08768163
53	0xbdbf9d84	-0.093562156
54	0x3dc45128	0.09585792
55	0x3d759460	0.059955955
56	0xbe2fc798	-0.17165983
57	0x3d18440e	0.037174277
58	0xbe16a7cc	-0.14712447
59	0xbc891202	-0.01673222
60	0xbdbfa0ce	-0.09356843
61	0x3d7b8bbf	0.06141257
62	0x3d908420	0.07056451
63	0xbda9e0a7	-0.08294802
64	0x3e8a2ecc	0.26988828
65	0xbd8da806	-0.069168136
66	0xbd5e64e0	-0.05429542
67	0x3e2a00ac	0.16601819
68	0x3debf108	0.115205824
69	0x3e511b4d	0.2042057
70	0x3c3d8886	0.011568194
71	0x3e3f17d9	0.18661441
72	0xbd795452	-0.06087143
73	0xbbe60072	-0.007019096
74	0x3e5900d8	0.21191728
75	0xbd2fc3df	-0.042911407
76	0x3e0ffdc0	0.14061642
77	0x3ac5cc24	0.0015090746
78	0x3e0683da	0.13136235
79	0xbd92cf63	-0.07168462
80	0xbcbdd80e	-0.023174312
81	0xbdacc777	-0.084364824
82	0xbda4f262	-0.08054043
83	0xbd29d205	-0.041460056
84	0xbd238d65	-0.039929766
85	0x3de0ed72	0.10982789
86	0xbdb96462	-0.090523496
87	0xbd0eef04	-0.03489591
88	0xbcec6611	-0.028857263
89	0xbd34e68c	-0.04416518
90	0xbd8a09b2	-0.067401305
91	0x3e2cc270	0.16871047
92	0xbe260335	-0.16212161
93	0xbe63dfbd	-0.22253318
94	0x3d09def8	0.033659905
95	0x3dda7359	0.10666532
96	0x3d614dd3	0.05500586
97	0xbe266f8e	-0.16253492
98	0x3c8632a9	0.016381579
99	0xbc935d12	-0.017988715
100	0xbd5b0f3e	-0.053481333
101	0x3b6e151d	0.0036328502
102	0x3df343a3	0.11878135
103	0xbc8c5188	-0.01712872
104	0x3d001931	0.031274024
105	0x3d8d4eab	0.0689977
106	0xbd6a0ad1	-0.05713922
107	0xbd5f49dc	-0.054513797
108	0x3dc4681b	0.09590169
109	0x3dcb53d7	0.099281006
110	0x3e036461	0.1283126
111	0x3d7386c8	0.05945471
112	0x3dcf5db4	0.10125294
113	0x3e818012	0.25293022
114	0x3d8ecd21	0.06972719
115	0xbc45603f	-0.012046873
116	0x3d89bfac	0.06726012
117	0x3dd87feb	0.105712734
118	0x3c66ec8d	0.014094484
119	0x3e242ba9	0.1603228
120	0xbd6b55de	-0.057454936
121	0xbe33043c	-0.17482084
122	0xbd60594c	-0.05477266
123	0xbd7a570f	-0.06111818
124	0x3d91ab12	0.07112707
125	0xbbede018	-0.00725938
126	0x3adb52f3	0.0016733095
127	0x3dab9701	0.08378411
128	0xbd9096cf	-0.070600145
129	0xba2c6621	-0.00065764977
130	0x3cdd14b1	0.026987405
131	0xbd142f9e	-0.036178224
132	0x3c9c41be	0.019074317
133	0xbe05df08	-0.13073361
134	0xbd12e6fa	-0.035864808
135	0xbcdea5d3	-0.02717868
136	0xbc1b2f35	-0.009471704
137	0x3b1fbffe	0.002437591
138	0xbdb8ed6c	-0.0902966
139	0xbca8640e	-0.020555522
140	0xbcec03b1	-0.028810354
141	0x3dd4e59c	0.10395357
142	0x3d571a70	0.052515447
143	0xbe02d1fb	-0.12775414
144	0xbc0b3476	-0.008496394
145	0xbd17fc1a	-0.037105657
146	0x3d733222	0.059373982
147	0xbd2d6f33	-0.042342376
148	0xbd72be0b	-0.05926327
149	0xbd80a0fb	-0.062807046
150	0x3e2f9040	0.17144871
151	0x3db0b86a	0.08628924
152	0xbd5a6b59	-0.05332503
153	0xbd51308a	-0.05107168
154	0x3bb43cbe	0.005500405
155	0x3d7872fc	0.060656533
156	0xbcd8b477	-0.02645324
157	0x3da6bdc3	0.08141663
158	0x3db1a46b	0.08673938
159	0x3c8b6457	0.01701562
160	0xbd876fc4	-0.066131145
161	0xbdb889a7	-0.0901063
162	0xbe1f2601	-0.15541841
163	0xbb47ae6f	-0.003046896
164	0x3d6fb26a	0.05851976
165	0x3da7cad7	0.081929855
166	0xbdd50eef	-0.10403239
167	0xbd3b3598	-0.045705408
168	0x3deef909	0.116685934
169	0x3d3df4e9	0.046376143
170	0xbcfd4b46	-0.030919682
171	0x3d01fe04	0.03173639
172	0xbd47f13e	-0.04881405
173	0x3de10a5e	0.109883055
174	0x3e723c6f	0.23655866
175	0x3d242639	0.040075514
176	0x3cada00b	0.021194478
177	0xbd3cc32e	-0.046084575
178	0x3d5ec606	0.05438807
179	0x3d8671dd	0.065646864
180	0x3dde0fb7	0.10842841
181	0x3e329e91	0.17443301
182	0xba98afd1	-0.0011649077
183	0xbca9f05c	-0.020744495
184	0x3c2427db	0.010019268
185	0xbd180c45	-0.037121076
186	0xbcdd133f	-0.026986716
187	0xbd98be0c	-0.074581236
188	0x3df7345f	0.12070536
189	0x3d881ee0	0.06646514
190	0xbd58109f	-0.052750226
191	0x3d8fca09	0.07020957
192	0xbc35f6c7	-0.0111062
193	0x3d50bacc	0.050959393
194	0xbde32d11	-0.1109258
195	0x3ce72d68	0.028219894
196	0x3d474d94	0.04865797
197	0xbc13b281	-0.009014727
198	0x3e092dea	0.13396421
199	0xbca69baf	-0.020337908
200	0x3e591abe	0.21201608
201	0x3d2da550	0.042393982
202	0x3d1c0ff4	0.03810115
203	0x3c5c0526	0.013428962
204	0x3e2f3c8d	0.17112942
205	0xbd72185e	-0.05910527
206	0xbcf4d693	-0.029887473
207	0xbd6eea67	-0.058329012
208	0x3d8312cf	0.06400072
209	0x3e73c12e	0.23804161
210	0x3dcdccf0	0.10048854
211	0x3e22a2a6	0.15882358
212	0x3c021f18	0.007941984
213	0xbe488727	-0.19582807
214	0x3df93aa3	0.12169387
215	0x3dd4a2f8	0.10382646
216	0xbd8ae46b	-0.067818485
217	0x3dbe2506	0.092844054
218	0x3dbdfb5c	0.092764586
219	0x3dd86707	0.10566526
220	0xbd93cb6a	-0.072165325
221	0x3cceb775	0.025233964
222	0xbe1a4dc2	-0.15068725
223	0xbdcb5611	-0.09928525
224	0xbd8db4ee	-0.06919275
225	0x3d4a9577	0.049458947
226	0x3e0b6b5c	0.13615173
227	0x3c77e991	0.01513137
228	0x3d308e3b	0.04310439
229	0xbdea6e1a	-0.114467815
230	0xbdc1890f	-0.0944997
231	0x3d1a4bf8	0.037670106
232	0x3cd8470a	0.026401062
233	0x3da1e16a	0.079043224
234	0xbdabb45d	-0.08384011
235	0x3d8c61da	0.06854601
236	0xbdb482db	-0.08814021
237	0xbd11cfd4	-0.03559859
238	0xbc31a095	-0.010841508
239	0x3d3ad119	0.045609567
240	0x3d325a19	0.043542955
241	0xbd9c5cda	-0.076348975
242	0xbc8760fa	-0.016525734
243	0x3dbff080	0.093720436
244	0xbdd4a843	-0.10383656
245	0x3dd27bcc	0.10277519
246	0xbcf40f3a	-0.029792417
247	0x3ad2ce97	0.0016083297
248	0x3c97b264	0.01851768
249	0x3dfd6713	0.123731755
250	0xb91d6a52	-0.00015012294
251	0xbd9eb9e6	-0.07750301
252	0x3d2f5494	0.04280527
253	0x3d9165fe	0.070995316
254	0x39d950a9	0.00041449562
255	0x3d645a25	0.05575003

classifier.1.bias f4 [10]
0	0x3d26096e	0.040536337
1	0xbdba4b1e	-0.09096359
2	0x3e6176f2	0.2201803
3	0x3d2c6961	0.042092685
4	0xbebe542d	-0.37173596
5	0xbdec44c3	-0.11536553
6	0x3e2ee006	0.17077646
7	0x3ca935f4	0.02065561
8	0x3d7044ab	0.058659237
9	0xbdbe2197	-0.092837505
