10_PyTorch_RNN_and_LSTM/LSTM/lightning_logs/version_4/checkpoints/epoch=1000-step=2002.ckpt (torch, 7020 bytes, 12 tensors)

lstm.weight_ih_l0 f4 [4, 1]
1.4348844 -0.28413463 2.4038303 0.48819044
00000000: 4baa b73f 187a 91be 5bd8 1940 19f4 f93e

lstm.weight_hh_l0 f4 [4, 1]
2.2345068 3.012804 2.0944629 3.394588
00000000: 2902 0f40 c8d1 4040 ae0b 0640 ee40 5940

lstm.bias_ih_l0 f4 [4]
0.1261046 1.3490816 0.25499883 1.6249506
00000000: 9021 013e b5ae ac3f 358f 823e 62fe cf3f

lstm.bias_hh_l0 f4 [4]
-0.50630283 1.025848 -1.0969815 1.11875
00000000: 109d 01bf fd4e 833f e469 8cbf 3333 8f3f

exp_avg f4 [4, 1]
-1.4702078e-05 -1.2658918e-06 -9.370585e-06 -8.214688e-06
00000000: f2a8 76b7 b6e7 a9b5 5b36 1db7 d1d1 09b7

exp_avg_sq f4 [4, 1]
0.00023544683 8.3597015e-06 0.00027183568 4.465893e-05
00000000: 47e2 7639 a540 0c37 2b85 8e39 2950 3b38

exp_avg f4 [4, 1]
-7.690218e-06 -9.609602e-07 -8.529553e-06 -7.4798572e-06
00000000: 3c05 01b7 57fa 80b5 271a 0fb7 7cfb fab6

exp_avg_sq f4 [4, 1]
2.585443e-05 1.8307879e-06 3.396198e-05 7.397386e-06
00000000: f7e1 d837 65b9 f535 6672 0e38 1037 f836

exp_avg f4 [4]
-2.1248836e-05 -1.981363e-06 -1.4081327e-05 -8.439235e-06
00000000: 873f b2b7 8ff7 04b6 d73e 6cb7 3d96 0db7

exp_avg_sq f4 [4]
0.00058486714 1.9305655e-05 0.001920096 5.5908433e-05
00000000: c551 193a 94f2 a137 bbab fb3a 397f 6a38

exp_avg f4 [4]
-2.1248836e-05 -1.981363e-06 -1.4081327e-05 -8.439235e-06
00000000: 873f b2b7 8ff7 04b6 d73e 6cb7 3d96 0db7

exp_avg_sq f4 [4]
0.00058486714 1.9305655e-05 0.001920096 5.5908433e-05
00000000: c551 193a 94f2 a137 bbab fb3a 397f 6a38
